mf_model.pth (torch, 20556 bytes, 7 tensors)

user_emb.weight f4 [3, 16]
00000000: c15b 013f 9f9b 233c 9d98 d1bf bcd7 243f
00000010: 761e 393f 3184 8e3f 1fd1 d13c c76d aa3e
00000020: ddfd 36bf 6082 9f3f 39af 38bf 172d 493f
00000030: 0473 883f 330c c63f 7f32 c93e 46e0 b83e
00000040: 01e9 3fc0 edf5 11bf 052f 10bd 7342 33be
00000050: 9952 3d3f 26aa 713f 339a bfbf d5de 2a3e
00000060: 1430 69be 2738 06c0 3a0d 903f ec73 adbf
00000070: cc40 603f 1b5e a23f 1881 9a3f 8b3d b43f
00000080: 46f7 fabe 19a8 c3bf a091 a1bf 018a 943e
00000090: 36e9 8e3f f5c4 463f bf95 c2bf fcee 08bf
000000a0: 1418 e0be e0fc 943f 10c6 00be 44cc 453e
000000b0: 6329 713f 06fa 2dbf 6c4c 183f bb1c aabe
0.5053063 0.009985833 -1.6374699 0.64391685 0.72312105 1.1134092 0.025612412 0.33286878
-0.71481115 1.2461662 -0.7214237 0.78584427 1.06601 1.5472473 0.39296338 0.36108607
-2.9985964 -0.5701588 -0.03520109 -0.17505817 0.7395416 0.9440025 -1.4968933 0.16686566
-0.22772247 -2.0971773 1.1254036 -1.3551002 0.8759887 1.2684969 1.2070646 1.4081281
-0.4901678 -1.5285674 -1.2622566 0.2901154 1.116492 0.7764428 -1.5201949 -0.5348966
-0.4376837 1.1639671 -0.12575555 0.19316202 0.94203776 -0.6795963 0.5949161 -0.33225045

event_emb.weight f4 [3, 16]
00000000: ddb9 a23e 802b b5be ed95 3c3f 9835 03c0
00000010: b258 b73f e39e b53f e8c2 f83e 987e c0bf
00000020: 8b65 ae3f 8b28 b3be be51 663e 8d6a fb3e
00000030: 9c30 9a3b 19e8 933d c6f0 80be 8548 6a3e
00000040: e16a c9bf 4239 38be 95c5 c0bf 3b09 d33f
00000050: 2369 d83f 6963 35bf 11ee ad3f 80d9 5b3f
00000060: 0cde 94bf e274 9dbf 8ab1 3fbe 68fb e7be
00000070: 9d07 863f d4b0 bdbf 2670 1abf 6410 b5be
00000080: b787 80bf 5aa4 a6be a118 073f 30e2 57bf
00000090: c486 3cbf 522f aa3f c1fc 0f3f 647b 13bf
000000a0: 9819 193f e208 64bd a8fc a33e 8482 ca3e
000000b0: ee5a c63e 7338 5abf d5d4 4d3f d23d 85be
0.31782427 -0.3538475 0.7366627 -2.050146 1.4323943 1.4189113 0.48586202 -1.5038633
1.3624738 -0.3499187 0.2249212 0.4910473 0.0047055017 0.072220035 -0.25183696 0.22879227
-1.5735742 -0.17990592 -1.5060297 1.6487192 1.6907085 -0.7085481 1.3588277 0.85878754
-1.1630263 -1.2301295 -0.1872007 -0.45308995 1.0471073 -1.4819589 -0.60327375 -0.35364068
-1.0041417 -0.32547265 0.52771956 -0.8432951 -0.73643136 1.3295691 0.56245047 -0.57610154
0.5980468 -0.055672534 0.320287 0.395527 0.3874125 -0.85242385 0.8040288 -0.26023728

mlp.0.weight f4 [64, 32]
00000000: a925 ef3d 642e 663e 0a39 623e 174b ccbc
00000010: 27f0 6b3d b4e3 53be aeca 863c 9cc3 46be
00000020: 3ec0 b0bd 178b 01bd f545 02bd 5ccc d93d
00000030: 53d7 abbd 79e5 8fbd dc67 b5bd 0750 eabd
00000040: 40cf b43d a2aa bfbc dd35 0dbd 3b9d fcbd
00000050: 5d9f d93d 506b cdbd 4d25 2ebe 7800 b73d
00000060: 4bc7 e53c a3e4 493e 2f12 18be ddba 31be
00000070: 022d 41be a092 d6bd a796 97bd 6df0 07be
00000080: 8dfa 46bd 547d 133e 4ae7 c3bd d563 db3c
00000090: 971d f0bc 143b 3cbe e57e b63c 814c a7bc
000000a0: a7cd b8bd 82c2 fa3d 3e95 12bd 1493 dd3d
000000b0: 857f 8d3d 4f5e 81be c484 e63d 7b72 65be
000000c0: 918f f1bd efcf 883d 70ca 8ebd 11e0 4abb
000000d0: 38d5 09be 7f96 25be cb07 ce3d 262a 59bd
000000e0: a429 33be 9f11 4b3e 29ae 08be 6fec 8cbd
000000f0: 3ef7 b23d a4ca 103d f3eb 303d 6850 70be
00000100: 75ec ccbd a1f0 b9bc 062d c83d 2fb0 73bd
00000110: 6e54 0ebe c4f2 08bd 51f5 b4ba fa7b 86bd
00000120: 0f7a 01be 2220 043e aa3a fcbd d408 a1bd
00000130: e2ff b43d 105c cbbc 90d2 073e bcb4 bbbd
00000140: dbe4 c3bd 7ed3 813d beca 48be d976 6e3e
00000150: 4842 023e 030f cebd 82cd 08bd f598 333e
00000160: 32f3 20bd f364 18be cbd7 6f3c f809 c93c
00000170: da57 6f3d 1f20 df3d 10f6 1cbe bba5 2ebe
00000180: c77f d1bd 31bd eabd 3f63 54be 47bf 6bbd
00000190: cc18 d2bb e867 dbbd 223f 54be 130f b9bd
000001a0: 6a2b e1bd 1785 f13d b745 813b 23f8 3d3e
000001b0: 3f1c b13d 5e37 543d 73b5 45bc 6b22 bebd
000001c0: 136b cebd 96f9 213d c89e b43d 6b15 08be
000001d0: fb99 87bd a048 0b3d 5dba 343e 2691 6dbd
000001e0: 6930 bd3c 0c26 c03d f1c9 4b3e e978 143e
000001f0: 4187 ccbc 6215 afbd de4d 9ebd 1c4a 32bc
00000200: 75d6 b5bd 09d9 463e 647f 353e 6f51 cc3d
00000210: 196b 3abe fb7d 683d 16e7 30bd fb26 b03c
00000220: 6aee e03a ff88 ab3d 7bfe 94bd 9102 a63a
00000230: 2759 1bbe 2287 68bd f999 01be c06b 66be
00000240: 320a 213d 2af4 d03c 07ea f83c ef75 2f3c
00000250: f3d0 28be ab8a 003d 48d9 8ebd e9b5 153e
00000260: cad2 e7bd 1a20 d83c adba 65be 2d96 20be
00000270: 6555 b1bc 810c 2abd 4691 503c 541a 95bd
00000280: b46b 81be 5786 f8bc 4f7d b3bd 1278 293e
00000290: 0c2d 4d3e edc9 933a c707 63bd 0ef0 e0bd
000002a0: 5fd6 32be cc37 01bd 5409 d9bd ddff 113c
000002b0: be0a c9bd 5b42 95ba 6347 f3bc f053 61be
000002c0: 21d4 4a3d c030 8e3d 0a9d e43d f8fd 10be
000002d0: f319 35be dfdd 353d ff6e 033d 0591 5bbd
000002e0: 3ace ed3c ecba 143e 749d 613a 7d57 493e
000002f0: bf9b 973d 60ff 0abe 936c 1d3c e87e 02be
00000300: 58b3 cf3c 32fa b43d e538 033e 7478 443d
00000310: f875 683d 392e 2d3e 30d9 313c 7927 e6bd
00000320: 9e11 853d 2ea1 c9bd 606a eb3b 1dcf 1a3e
00000330: b85e ac3c e0aa 5b3d e9fd 183e 7423 24be
00000340: 62af c43d 4e2b 9fbd 43c6 34be bc36 3abd
00000350: 3886 073d 38f8 b3bc b488 6a3d e26f e43d
00000360: 8a95 8b3d 9f4c 043e b8e7 2cbe 2c3a 4dbd
00000370: 76b9 b7bd 006c 4b3d 6490 77bd 997c e5bd
00000380: a113 3e3d 8106 933d 23c8 623e 08cc 58bd
00000390: e759 e7bd 970f a13d faae a8bd 73a8 3a3d
000003a0: c50d 663e 72c1 7f3c 93da 063e 29f2 64bd
000003b0: 5079 d23c 2171 693d e29b ca3d b8cb 03be
000003c0: 73d7 0a3c 5bd4 3d3e f93c 0ebc 2f4c b43d
000003d0: 33e1 17bd 0508 48bd bfbe 033d 8dea 0c3e
000003e0: 6d7c c03d bbad 2c3e 04a8 12be c53c 6ebe
000003f0: 1c7c f7bd 5a4b f7bb 4450 1f3e 4177 ee3c
0.11677105 0.22478634 0.22092071 -0.02493815 0.057602074 -0.2069233 0.016454067 -0.19410557
-0.08630417 -0.031626787 -0.031804997 0.106346816 -0.08390679 -0.0702619 -0.088577 -0.11441045
0.08828592 -0.023396794 -0.034475196 -0.12334677 0.10626099 -0.10030234 -0.17006417 0.08935636
0.028049132 0.19716124 -0.14850686 -0.17356439 -0.18864825 -0.10477185 -0.074017815 -0.13275309
-0.048578788 0.14403278 -0.09565599 0.026781002 -0.029310985 -0.18381912 0.022277305 -0.020422222
-0.090236 0.12244131 -0.03578686 0.108190686 0.06909088 -0.25267264 0.11255792 -0.22406952
-0.11794961 0.06680285 -0.06972206 -0.0030956308 -0.13460243 -0.16170691 0.1006008 -0.05301871
-0.17496353 0.1983094 -0.13347687 -0.06881034 0.08738564 0.035349503 0.04319377 -0.23468173
-0.10006038 -0.022697749 0.097742125 -0.059494194 -0.13899395 -0.033434644 -0.001380602 -0.065666154
-0.12644218 0.12902883 -0.12315877 -0.07863012 0.08837868 -0.024824172 0.13263917 -0.09165332
-0.09565135 0.06339167 -0.1960859 0.23287524 0.12720597 -0.10061457 -0.033399113 0.17538817
-0.03929443 -0.14882259 0.014638851 0.024540886 0.05843339 0.108947985 -0.1532824 -0.17055409
-0.1022945 -0.11461867 -0.20740984 -0.057555463 -0.0064116474 -0.10713178 -0.20727208 -0.09036078
-0.10994609 0.11792963 0.0039450782 0.18551688 0.08647966 0.051810615 -0.012067187 -0.092839085
-0.100790165 0.039544664 0.088193476 -0.1328942 -0.06621166 0.034004807 0.17649217 -0.057999752
0.023094373 0.09382257 0.19901253 0.14499249 -0.024966838 -0.08549 -0.07729696 -0.010881927
-0.08878795 0.1941873 0.17724377 0.0997647 -0.18204917 0.05676077 -0.04318913 0.021502962
0.0017160897 0.08375739 -0.07275101 0.001266556 -0.15170728 -0.056769498 -0.12656392 -0.22502041
0.039316364 0.025507051 0.03038503 0.01070927 -0.16485958 0.031382244 -0.06975037 0.14620174
-0.11319502 0.026382495 -0.22434492 -0.15682288 -0.021647165 -0.04151583 0.012729948 -0.07280412
-0.25277483 -0.030337496 -0.08764135 0.1654971 0.20036715 0.0011275389 -0.05542734 -0.10983287
-0.17464589 -0.031547353 -0.10597482 0.0089111 -0.09816502 -0.0011387573 -0.029697126 -0.22004676
0.04951871 0.06942892 0.11162765 -0.14159381 -0.1768568 0.044401046 0.032088276 -0.0536051
0.029029 0.1452443 0.0008606531 0.1966228 0.07402753 -0.1357398 0.009608406 -0.12743723
0.025354072 0.088367835 0.12814672 0.047966436 0.05675313 0.16912164 0.010855004 -0.112379976
0.06497501 -0.09845196 0.0071843117 0.1511807 0.02104126 0.053629756 0.14940609 -0.1602915
0.09603764 -0.077719316 -0.17653756 -0.045462355 0.033086985 -0.021968946 0.057259277 0.111541525
0.06815632 0.12919854 -0.16885269 -0.050104305 -0.08970921 0.049663544 -0.060440436 -0.11205406
0.04640544 0.07178975 0.22146659 -0.052928954 -0.112964444 0.07864302 -0.08236499 0.045570802
0.2246619 0.015610086 0.13169317 -0.055895004 0.025692612 0.056992654 0.098930135 -0.12870681
0.008474219 0.18538038 -0.008681529 0.08803593 -0.03708 -0.048835773 0.03216433 0.13761349
0.09398732 0.16863148 -0.14321905 -0.23265369 -0.12084219 -0.0075468244 0.15557963 0.0291096

mlp.0.bias f4 [64]
00000000: ba72 a93d 1203 d2bd 8cbd a73d 9176 3dbd
00000010: 0091 e33a 88f7 0ebd 1b0f e7bd 3a0f 2fbe
00000020: 00c7 1c3c 42b8 5d3d e493 2aba 423d 65be
00000030: da35 13be 9c95 c93d 1799 353d 9bbd d5bd
00000040: 239e 70be d5c9 753d 5b53 5cbc c4db 073d
00000050: 8078 1fbe 633b 1cbe 020f 333e 3585 abbc
00000060: 6a4e 53bd 92ff 563e 1a02 28ba f94e 04be
00000070: fb1a 053e 3548 61bd 13c6 25be 05dc aebd
00000080: 5d25 083e fb80 ecbd f99c 993c 32e1 12bd
00000090: da6d b6bd f717 0e3d 0c78 b33c e43a 59be
000000a0: 4d5e d0bd f25f 613d 9dc3 86bc b92a 11bd
000000b0: f78f 4bbd 4f7e 69be e76b adbd b29c b8bd
000000c0: 19c1 36bd 6e12 c5bd d998 253e dfe1 0fbe
000000d0: 10ce 05be abc3 66bd 698e ddbd f306 d5bd
000000e0: fb7d 4dbe eec3 21be 86cd 823d 4ae5 6ebe
000000f0: 97e3 b03d 33fc 55bd 653d 20be fe1d 543d
0.082738355 -0.10254492 0.0819045 -0.04625565 0.0017361939 -0.034904033 -0.11282178 -0.17095652
0.00956893 0.0541308 -0.0006507023 -0.22386649 -0.14376011 0.09842989 0.04433545 -0.10436555
-0.23497824 0.060006935 -0.013447608 0.03316857 -0.15573311 -0.15257029 0.17486194 -0.020937541
-0.051588453 0.2099593 -0.00064090046 -0.1292075 0.12998573 -0.055000503 -0.1618884 -0.08538059
0.13295503 -0.115480386 0.018751608 -0.035859294 -0.08907671 0.034690823 0.021907829 -0.21213871
-0.101742364 0.05502314 -0.016450698 -0.035441134 -0.049697842 -0.22802089 -0.08467846 -0.09014262
-0.044617746 -0.09622656 0.16171588 -0.14051007 -0.13066888 -0.056338947 -0.10818178 -0.10401716
-0.20067589 -0.15797397 0.06386857 -0.23329654 0.08637159 -0.05224247 -0.1564842 0.051786415

mlp.2.weight f4 [32, 64]
00000000: 1e31 913d 4010 753d 848b 7e3d f78e 24be
00000010: 8cc9 06bd 29c4 c1bd 28f7 debc e8f3 d53d
00000020: 644a fb3d f8ae 02bd 284f e63c 64da aebd
00000030: 69ff 1e3d 29de 173c c200 a7bd 26aa 99bd
00000040: 22ee a23d 9263 2e3e d96f 983c 3237 b83b
00000050: 900a 92bd 2ea4 1bbd 848f b6bd 85f4 ee3d
00000060: 0fc7 ddbc ce58 f4bb 9f0c 943d f04a 3f3d
00000070: 775a 8c3d a865 febd a843 2cbd dfa4 013e
00000080: 0e8f edbd 2c90 b0bd 6de9 9c3d fc5f 423d
00000090: 1c62 033d 1b85 413d 5168 af3d a278 ef3d
000000a0: 308b bcbd 0e9d 6c3d b919 08bd 2469 eabd
000000b0: 1857 b8bc c13b 433d 07fd e1bb fe3e f1bd
000000c0: 5b70 1d3d d788 b4bc 14a7 2fbd 3cdc 18bd
000000d0: af17 b33d 835e 5d3d dc25 073e 8da7 f7ba
000000e0: beac 3abd 5807 f83d f8ce 4e3d 6ea7 a93d
000000f0: 407f 67bd 2e63 1b3d 2934 29be 7ca2 a13d
00000100: cd1f 0e3e 1167 28bd fef9 83bd d43a 25be
00000110: d88d 863d cec1 033d 1a51 b1bd 7e28 0c3e
00000120: 0e2b 85bd ec3a 4c3d fd2e c83c 384d 743d
00000130: a2ae 9f3d f524 7c3d 79d2 513d 9350 9fbd
00000140: cb03 023e 7424 533d d044 593c 044b f1bd
00000150: 207f 133e 0ef8 14be 19d4 d8bd aaef 3c3d
00000160: 6b61 863d bbd6 36bd c98c b6bc 2cef 033d
00000170: 1af1 8d3d b083 8f3c 6245 b8bc cb85 8ebd
00000180: 00c0 e43c 549d 0fbe c08a 433d 90dd 7c3d
00000190: 0021 cbbd 3ab7 1a3e 8fea ccbd 132c 45bd
000001a0: 70e1 39bc 0d74 0f3e 2b92 32bc dc7c 633d
000001b0: 85d2 9b3d 6087 2d3c d416 edbd 6443 97bd
000001c0: 789d 2cbd d470 a9bd 66be 26be f0d2 89bc
000001d0: 4c4e cbbd a28b 37bd 1bd2 9cbc 23ad d13b
000001e0: b44c 6ebc 639e 2d3c 006e d7b9 d95e 103d
000001f0: 2060 1d3c 77ae 3ebb fdbf 923c 5c16 c43c
00000200: cd36 6c3c c2be 0ebc bc42 f2bc e81c adbd
00000210: 7201 1cbe 86c4 0bbe ec61 77bd 2eab 773d
00000220: 608d 2f3c ee2a 813d 1541 cebd e1ac 353c
00000230: 515c 763d a7f7 2c3d 5d45 a93c bcbc 18bd
00000240: 5070 403d 2332 1cbe dabd 00be 3af2 003d
00000250: 52d3 6abd d7a4 14bd 6ec7 1b3d bd95 05be
00000260: 10f3 40be bfff 20be bfa7 c03c 32a3 e5bd
00000270: 4040 8d3c 5d54 9cbd b355 24bd 21fd e1bc
00000280: 0080 5abd a9d9 c4bd 2da1 d0bd 97e5 0dbe
00000290: 4885 3cbd 3377 d6bd f201 5ebc c91b abbd
000002a0: 9a0c d83d 0257 b7bd 4e5b d7bd 6350 5cbd
000002b0: 529f 36be 9786 2ebe 5574 babb d005 cebc
000002c0: e962 af3b 6fed 05be 6916 00be 2083 b63b
000002d0: 0f81 663b 5674 37ba a881 003d 0f9c 03be
000002e0: 93fc 3bbe 2992 40be 081c 0b3d 4d16 2ebb
000002f0: 9d93 133d a25c 06bc d288 82bd 6285 11be
00000300: d05b bfbd c472 403c a5e0 28be dce9 43bd
00000310: 3c38 24bd 3b2c e8bd a694 993d 2e4c 32bd
00000320: 607b c1bb 2d86 643d 900b 40bd 2803 2ebe
00000330: 073e c7bc d354 22be 4606 37be 07b5 6fbd
00000340: 1835 34be 4c55 91bb 9bac 05be 5eb3 273d
00000350: 6b7b 333d 7447 fdbd 8477 ecbb 5ecb 48be
00000360: d75f b43c dc40 ccbd 161a 1ebe b45c c93d
00000370: 96fa 6a3d 789e 5cbd 6544 f63c 96e9 28bc
00000380: de7e e73d 1819 9e3c 8e7e 36be f058 92bc
00000390: 12ef e93d 70fe 93bc f6f3 cebd f810 adbc
000003a0: 6ae9 d0bd 2a8e 3c3d c62a 1bbe 86bc 2bbd
000003b0: f2a3 a5bc 5c4d f73b 4414 cc3b eccc 593d
000003c0: 8ab6 ca3c 81e8 8bbd 3104 d6bd 0c9a 833d
000003d0: 2ba6 1dbc 41e6 d1bd 2c42 9cbd 197d 8a3c
000003e0: 74c4 5dbe 188d 5f3c 7e1a cdbd c25e 87bc
000003f0: 0d3d a5bd 73c4 4cbe 590f 64bc 648f 633a
0.070894465 0.05982995 0.06214477 -0.16070162 -0.032907054 -0.09461243 -0.027217463 0.10446912
0.12270048 -0.031905144 0.028113917 -0.085377485 0.038817797 0.009269276 -0.081544414 -0.07503156
0.079555765 0.1703017 0.01860802 0.005621814 -0.07130921 -0.03799837 -0.08914092 0.11667732
-0.027072458 -0.0074568754 0.0722897 0.046702325 0.06853192 -0.12421733 -0.04205671 0.1266055
-0.11599551 -0.086212486 0.0766171 0.04745482 0.032075986 0.04724608 0.08564819 0.11692931
-0.092062354 0.057766967 -0.033227656 -0.11445835 -0.022502467 0.047664408 -0.0068966183 -0.11779593
0.03843723 -0.022037907 -0.042883947 -0.037319407 0.08744752 0.05404521 0.13198036 -0.0018894539
-0.045574896 0.12110776 0.05049035 0.08283888 -0.05651784 0.037936382 -0.16523804 0.078923196
0.13879319 -0.041113917 -0.064441666 -0.16135722 0.06570023 0.03216725 -0.08658047 0.13687322
-0.06502353 0.04986088 0.024436468 0.059643954 0.077969804 0.061558682 0.051226113 -0.0777904
0.1269676 0.051548436 0.013261035 -0.11781886 0.14403963 -0.1454775 -0.105873294 0.046127
0.0656155 -0.044638377 -0.022283928 0.032210514 0.06930752 0.017518848 -0.022494022 -0.06959113
0.027923584 -0.1402486 0.047739744 0.061734736 -0.099184036 0.15108958 -0.10005676 -0.048137736
-0.011345252 0.14009114 -0.010899107 0.055538997 0.07608513 0.010591358 -0.1157662 -0.073859006
-0.04214236 -0.082734734 -0.16283569 -0.016824216 -0.09927043 -0.0448109 -0.019143155 0.0063988133
-0.014544655 0.010596844 -0.00041089952 0.035246704 0.0096054375 -0.0029095688 0.017913813 0.023936443
0.014417362 -0.008712472 -0.029572837 -0.08452779 -0.15234926 -0.13649186 -0.06039612 0.060465984
0.010714859 0.06307016 -0.10071007 0.011088581 0.060146634 0.042228367 0.020662958 -0.037289366
0.04698211 -0.152535 -0.12572423 0.031481005 -0.057330437 -0.036290016 0.038031988 -0.13045402
-0.18842721 -0.1572256 0.023517488 -0.11212768 0.01724255 -0.076332785 -0.04012079 -0.027586522
-0.053344727 -0.09611828 -0.10186992 -0.13857113 -0.046025544 -0.10471954 -0.0135502685 -0.08354909
0.105492786 -0.08952142 -0.10515462 -0.0537876 -0.17834213 -0.1704353 -0.0056901374 -0.025149256
0.005352367 -0.13078855 -0.12508549 0.0055698305 0.003517214 -0.00069982314 0.03137365 -0.128525
-0.18358068 -0.18805756 0.03396228 -0.0026563585 0.036029447 -0.008200796 -0.06373753 -0.14211038
-0.09343684 0.011746112 -0.16491945 -0.047830448 -0.04009269 -0.11336561 0.074990556 -0.04352968
-0.0059046 0.055792022 -0.046886027 -0.16993392 -0.02432157 -0.1585267 -0.17873487 -0.05852225
-0.17598379 -0.004435217 -0.13054125 0.040942542 0.043818872 -0.12367144 -0.007216396 -0.19608828
0.022018356 -0.099733084 -0.15439638 0.09832135 0.057367884 -0.053862065 0.03006191 -0.0103095975
0.11303495 0.019299075 -0.17821714 -0.017864674 0.11422552 -0.018065661 -0.101051256 -0.021126255
-0.1020077 0.046034016 -0.15153036 -0.041927837 -0.020219777 0.0075470638 0.006228002 0.053173944
0.024745245 -0.06831456 -0.10450018 0.064258665 -0.009622137 -0.102489956 -0.07629809 0.016905354
-0.21656972 0.013644479 -0.100148186 -0.016524676 -0.08068285 -0.19996814 -0.013919675 0.00086807297

mlp.2.bias f4 [32]
00000000: 6abe 0b3e c902 b6bd b6bd e8bb bd98 1fbe
00000010: 74b1 86bc 6864 823d 17f3 14be e246 e7bd
00000020: cf9a bf3c 0533 b13d f837 093c 3003 5b3c
00000030: 8678 00be 75f7 343c 000b 90bd 7aab 7abd
00000040: efd2 703d 7f3e 93bc 0905 51bd 1b71 cb3d
00000050: ca74 453c 855b c23d 6a04 6b3c e81b aa3c
00000060: 9714 243e ec13 97bd c916 183d c2e8 00bd
00000070: 338b d9bd b87f cd3d 4f63 973d a4f9 f3bd
0.13646856 -0.0888725 -0.0071026934 -0.15585609 -0.016442038 0.06366807 -0.14545856 -0.11292817
0.023389248 0.08652309 0.00837516 0.013367459 -0.12545976 0.0110453265 -0.07033348 -0.06119869
0.058794912 -0.017974136 -0.051030193 0.099336825 0.01205177 0.09490112 0.014344314 0.02076526
0.1602348 -0.07376847 0.037131105 -0.031471975 -0.10622253 0.10034126 0.073919885 -0.119128495

mlp.4.weight f4 [1, 32]
00000000: 838a ad3d 9f34 1bbd b5c2 293d dfda 7a3d
00000010: 6698 2a3d 049e 08bd 214e aebc be00 33bd
00000020: b4dc b7bd c06c f03d 265d 95bd c24e f43d
00000030: 0244 643c 893d c03d f23e 0e3e ec1c 87ba
00000040: ca0e 8a3d 248d 173e a832 b03d ecec d1bb
00000050: cf4d a63d d20e d13d ba65 983d e512 153e
00000060: b086 213e ff7a 43bd 31fc 7abd 069a fc3b
00000070: 2659 c9bb f4b9 cc3c a43e ad3d 542e d6bd
0.08473685 -0.03789198 0.041445453 0.061243888 0.041649245 -0.03335382 -0.02127749 -0.04370188
-0.08977643 0.117394924 -0.07293157 0.11929084 0.01393223 0.09386737 0.13891199 -0.0010308302
0.06741102 0.14799935 0.08603412 -0.006406417 0.081203096 0.10207905 0.07441278 0.14557989
0.15774035 -0.04772472 -0.061275665 0.0077087907 -0.0061446605 0.024991013 0.084592134 -0.10458055
