ncf_model.pth (torch, 24338 bytes, 11 tensors)

P.weight f4 [4, 16]
0	0xbdb2bfb8	-0.08727974
1	0x3f5b65d8	0.85702276
2	0xbe1f1d7a	-0.15538588
3	0x3f149afb	0.5804898
4	0x3fb619dc	1.4226642
5	0x3e413f78	0.18871868
6	0xbe64fbe6	-0.22361717
7	0x3f2ed87b	0.68299073
8	0x3da7c4fd	0.081918694
9	0x3f969b82	1.1766207
10	0x3f83e0d0	1.0302982
11	0x3fc2b240	1.5210648
12	0x3fec428d	1.845781
13	0xbf31a11c	-0.6938646
14	0xbf9f61e2	-1.2451746
15	0x3ec137cb	0.3773788
16	0xbea94256	-0.33058423
17	0x3f4af3d5	0.7927831
18	0x4003b996	2.0582023
19	0xbf053758	-0.5203757
20	0x3ee54aaf	0.44783542
21	0x3f2d7bd8	0.67767096
22	0x3b8c48ce	0.00428114
23	0xbf81e635	-1.0148379
24	0xbf08ec6b	-0.53485745
25	0x3ec67bf9	0.3876646
26	0xbf1d9919	-0.61561733
27	0x3f5aefa5	0.8552192
28	0x3c1a28e4	0.009409163
29	0xbf2abc9c	-0.66694045
30	0xbf271e5d	-0.65280706
31	0x3f053e0b	0.52047795
32	0xbe21f862	-0.15817407
33	0x3fc3c4da	1.5294449
34	0xbf3f58ca	-0.74744856
35	0xbe9d5aa3	-0.30733213
36	0xbda2a188	-0.07940966
37	0x3e88ba06	0.26704425
38	0x3ef3e6c9	0.47637013
39	0x3e9a69f3	0.30158958
40	0xbebb62ac	-0.36598718
41	0xbdafd394	-0.08585277
42	0x404449ea	3.0670114
43	0x3fa05d70	1.2528515
44	0xbf7e07f8	-0.9923091
45	0xbefca676	-0.4934575
46	0xbf7b2a1b	-0.9811112
47	0xbf24abe1	-0.64324766
48	0x3f80453e	1.0021131
49	0xbe627ea0	-0.22118616
50	0x3fe91725	1.8210188
51	0xbf5a05a1	-0.8516484
52	0x3f2ade12	0.667451
53	0x3f5f9dda	0.8735024
54	0xbe8a14d6	-0.26969022
55	0x3fb36aa5	1.401692
56	0x3f7ded52	0.9919025
57	0xbf16722d	-0.5876797
58	0xbec9e7d9	-0.39434698
59	0xbf29d7f4	-0.66345143
60	0x3e8e7a87	0.27827856
61	0xc0141a76	-2.314115
62	0xbf2f8144	-0.6855662
63	0xbff59122	-1.9184916

user_emb.weight f4 [4, 16]
0	0x40006929	2.0064185
1	0xbed2d1b5	-0.4117562
2	0x3f6fd8fe	0.9369048
3	0xbfd4ac2b	-1.6615041
4	0xbfca7af3	-1.5818771
5	0xbee006c3	-0.4375516
6	0x3f17fafe	0.5936736
7	0xbf8b66ea	-1.0890782
8	0xbd31fd7e	-0.04345464
9	0x3f86e082	1.0537264
10	0x3ea941eb	0.33058104
11	0xbf2e769b	-0.6814973
12	0x3ec2d0d6	0.38049954
13	0xbebee598	-0.3728454
14	0x3ebdb08b	0.37048754
15	0xbf5f34c1	-0.8718987
16	0x3f32f16d	0.69899637
17	0xbf992854	-1.1965432
18	0x3f234a23	0.63785
19	0xbf424d62	-0.75899327
20	0x3e912b56	0.28353375
21	0xbf87b8f8	-1.0603323
22	0x400ede6b	2.2323253
23	0xbfc2e68c	-1.5226607
24	0x3ed5b345	0.41738334
25	0x3f1b4cd4	0.60664105
26	0x3e24a720	0.16079378
27	0x3f9a5e8b	1.2060102
28	0xbf0605a8	-0.5235238
29	0xbf14c8fe	-0.5811919
30	0xbec22523	-0.37918958
31	0xbf9122b8	-1.133872
32	0x3e4eeee3	0.20208316
33	0xbe142c74	-0.14470083
34	0xbde0ddcd	-0.10979805
35	0xbf6a43e1	-0.91509825
36	0x3f6bdc15	0.92132694
37	0x3f839b74	1.0281816
38	0xbe343fcc	-0.17602462
39	0x3f220a12	0.63296616
40	0xbf597025	-0.84936744
41	0x3f4d5af7	0.80216926
42	0xbf91a493	-1.1378349
43	0xbfc8c341	-1.5684587
44	0xbf1be389	-0.60894066
45	0x3f99a86e	1.2004526
46	0x3e8d2d31	0.2757354
47	0x3f3ceeb2	0.7380172
48	0xbf8bb568	-1.0914736
49	0xbc368d05	-0.01114202
50	0xbf47334b	-0.7781264
51	0x3f18a88f	0.596322
52	0x3f9e9d40	1.2391739
53	0x3eb8011c	0.35938346
54	0x3cb00c84	0.021490343
55	0xbda046ca	-0.07826002
56	0x3e8a01ce	0.26954502
57	0xbffa8e58	-1.957469
58	0x3f5c59b5	0.8607438
59	0xbf2fc3a9	-0.6865793
60	0xbddd7485	-0.1081324
61	0x3e1bfd83	0.15233426
62	0x3e4c1f5b	0.19933836
63	0xbde98d40	-0.114038944

Q.weight f4 [3, 16]
0	0xbebe4d8e	-0.37168545
1	0x3fccd2b6	1.6001804
2	0x3f337c35	0.701114
3	0x3ead13f3	0.33804283
4	0xbe8e4230	-0.27784872
5	0x3f1acacc	0.60465693
6	0xbf890635	-1.0705019
7	0xbdcc7f71	-0.09985245
8	0xbd77958e	-0.06044536
9	0xbf298626	-0.6622032
10	0x3fc0bcd5	1.5057627
11	0xbd026058	-0.03183016
12	0xbfe71fb6	-1.8056552
13	0x3d51992c	0.051171467
14	0x3f479180	0.7795639
15	0xbfbadf26	-1.459935
16	0x3f17f057	0.59351104
17	0x3ecd0bff	0.40048215
18	0xbd66adc4	-0.05631806
19	0x4055cc20	3.3405838
20	0x40083cdc	2.1287146
21	0x3f53e581	0.8277207
22	0xbf97b39b	-1.1851686
23	0x3f1040c5	0.5634883
24	0x3f4187ca	0.7559782
25	0xbf711a3e	-0.9418067
26	0x3e5aee8d	0.21380062
27	0xbf3bdddf	-0.73385423
28	0x401f4fe9	2.4892523
29	0x3f359c92	0.7094203
30	0xbef1e586	-0.47245425
31	0xbab08008	-0.0013465891
32	0xbeaf4ded	-0.3423914
33	0x3ed13c1d	0.40866175
34	0xbefe4caf	-0.4966788
35	0xbf2f22b6	-0.6841234
36	0x3f5247c9	0.82140785
37	0xbfac306b	-1.3452276
38	0x3e844b97	0.2583892
39	0xbf905bc8	-1.127801
40	0x3ed73899	0.42035368
41	0x3e9232e9	0.28554466
42	0x3f913aa8	1.1346025
43	0x3e4f362b	0.20235507
44	0xbfef5a76	-1.8699481
45	0xbfea16ea	-1.8288243
46	0x3d79a375	0.0609469
47	0x3e3c7806	0.1840516

event_emb.weight f4 [3, 16]
0	0xbfa3eafa	-1.2806084
1	0xbf9099c5	-1.1296927
2	0xbf4ee848	-0.80823183
3	0x400db3c2	2.2140965
4	0xbf489647	-0.78354305
5	0x3fed08d6	1.8518322
6	0xbf26054b	-0.64851826
7	0x3f08c608	0.5342717
8	0x3efaa28f	0.48952147
9	0xbf1d5ebb	-0.6147267
10	0x3ebe5555	0.37174478
11	0xbf62e12e	-0.88624847
12	0x3eb066a3	0.34453306
13	0x3fa7e498	1.3116636
14	0xbdc6c7ba	-0.097060636
15	0xbfa9119e	-1.3208501
16	0xbf8274c2	-1.0191882
17	0x3cd6398b	0.026150486
18	0xbec97e8c	-0.3935436
19	0xbd9f3baf	-0.077750556
20	0xbf9faa2d	-1.2473809
21	0x3e8afc9b	0.27145848
22	0xbf5ca353	-0.86186713
23	0x3e879df1	0.26487687
24	0xbfa7c84b	-1.3108
25	0x3fe11ada	1.758632
26	0xbf0031ef	-0.5007619
27	0xbf426d1d	-0.75947744
28	0x3f1600c7	0.58594936
29	0x3e2ab049	0.1666881
30	0xbfadd112	-1.3579428
31	0xbf4d889a	-0.8028656
32	0x3fb84036	1.4394596
33	0xbe513438	-0.20430076
34	0xbe8dfcec	-0.27732027
35	0x3ece888b	0.4033855
36	0xbf59bd20	-0.85054207
37	0xbd28c4d5	-0.04120334
38	0x3efbf7e4	0.49212563
39	0xbf872084	-1.0556798
40	0x3dae5925	0.08513097
41	0xbf876865	-1.0578734
42	0x3cdc69b4	0.026905872
43	0xc00928a1	-2.1431048
44	0xbf1e868c	-0.6192405
45	0x3feb6052	1.838877
46	0xbfc261f2	-1.518614
47	0xbe941e84	-0.28929532

mlp.0.weight f4 [64, 32]
0	0x3c8d81d8	0.017273828
1	0xbbdaf240	-0.0066817105
2	0x3d2a2df8	0.041547745
3	0xbdd357b0	-0.103194594
4	0xbca06318	-0.019578502
5	0x3e0c88d3	0.1372407
6	0xbce8cad0	-0.028417021
7	0xbe0891ce	-0.1333687
8	0x3e2586e5	0.1616474
9	0xbbd99960	-0.006640598
10	0xbda926fa	-0.08259387
11	0x3d7749a4	0.060372964
12	0xbe227ddb	-0.15868323
13	0x3d91af7c	0.07113549
14	0xbe25c335	-0.16187747
15	0xbdf2dce2	-0.11858536
16	0x3de09782	0.10966398
17	0xbe2e2fcb	-0.17010419
18	0x3e1f9571	0.15584351
19	0x3ba21540	0.004946381
20	0xbe20447c	-0.15651125
21	0x3e233f33	0.15942077
22	0x3c45d460	0.01207456
23	0xbdcb4ec5	-0.099271335
24	0x3d5f9a58	0.054590553
25	0x3e0702e5	0.13184698
26	0x3d0327bc	0.032020316
27	0xbc6bcf50	-0.014392689
28	0x3d5ea694	0.05435808
29	0xbc28cf30	-0.010303304
30	0x3a713c00	0.0009202361
31	0xbe0a7c0c	-0.13523883
32	0xbe1caa72	-0.15299395
33	0x3dbf5156	0.093416855
34	0x3e0e82fb	0.13917153
35	0xbddbaddc	-0.107265204
36	0xbdaf6c5f	-0.08565592
37	0x3e2e4591	0.17018725
38	0xbd5527c2	-0.05203987
39	0xbe10b9fe	-0.1413345
40	0xbde4c51d	-0.11170409
41	0xbe2f94dc	-0.17146629
42	0x3dad2d1a	0.08455868
43	0xba653f00	-0.00087450445
44	0x3cabde20	0.02097994
45	0x3bfe27e0	0.0077562183
46	0xbe2dcbc4	-0.16972262
47	0xbdc9700f	-0.098358266
48	0x3da50312	0.08057226
49	0x3d824b1c	0.06361982
50	0xbdeaa108	-0.114564955
51	0xbdf65ffa	-0.12030025
52	0x3da010b6	0.07815687
53	0x3d2dea58	0.042459816
54	0xbe09b13f	-0.1344652
55	0x3e033e17	0.12816654
56	0xbbe704e0	-0.0070501417
57	0x3db26682	0.08710958
58	0x3d625a44	0.055261865
59	0xbdf04562	-0.11731984
60	0x3c366d20	0.011134416
61	0x3babf4e0	0.0052476972
62	0x3dc649ee	0.0968207
63	0x3e05d6f7	0.13070284
64	0x3d99467a	0.074841455
65	0x3b9f21a0	0.0048563033
66	0xbde057c9	-0.10954244
67	0xbdbe5150	-0.09292853
68	0xbe2214a6	-0.15828189
69	0x3db057ca	0.086104944
70	0x3de60316	0.11231057
71	0x3dff9162	0.124789014
72	0x3d754b64	0.05988635
73	0xbdb608e6	-0.08888416
74	0x3e082179	0.13294019
75	0x3dff1b7e	0.124564156
76	0x3e231bcf	0.15928577
77	0x3c5e22e0	0.01355812
78	0xbe063334	-0.1310547
79	0x3dcd017e	0.1001005
80	0x3dc0f0de	0.09420942
81	0x3d7b6010	0.06137091
82	0xbd2427e8	-0.04007712
83	0xbda9bb04	-0.082876235
84	0x3ca58c90	0.020208627
85	0x3cc5fb78	0.024167761
86	0xbe0d4557	-0.13795982
87	0x3da63b4e	0.0811678
88	0xbdbed0ce	-0.0931717
89	0x3e05cd19	0.1306652
90	0x3da0e022	0.0785525
91	0xbe2654a8	-0.16243231
92	0xbd9ec18f	-0.07751762
93	0xbd0e0ab4	-0.034678176
94	0xbe15a316	-0.14612994
95	0x3e1a4f87	0.150694
96	0x3e25b60f	0.16182731
97	0x3e2bf0fb	0.16791146
98	0x3b734340	0.0037118942
99	0x3d49cb94	0.049266413
100	0x3e242bc3	0.16032319
101	0xbda8f2e7	-0.08249455
102	0xbd5682ee	-0.052370958
103	0xbdc42eae	-0.09579216
104	0xbd1aba48	-0.037775308
105	0x3e0f4247	0.13990127
106	0xbcd37708	-0.025813594
107	0x3d9ae852	0.07563843
108	0x3e17f7a7	0.14840566
109	0x3c0ae3b0	0.0084771365
110	0x3deea97a	0.11653419
111	0x3cf50f30	0.029914469
112	0xbdb7c0c9	-0.08972318
113	0x3c09cd20	0.008410722
114	0xbddf2413	-0.108955525
115	0x3e2fc355	0.17164357
116	0x3dd0895a	0.10182448
117	0x3e19d10f	0.15021156
118	0xbd85fad2	-0.06541981
119	0x3d60b130	0.05485648
120	0xbe0e1bfb	-0.13877861
121	0x3e31300b	0.17303483
122	0xbcf9fc58	-0.030515835
123	0xbdaf3c0f	-0.08556377
124	0xbe09fb71	-0.13474824
125	0x3d8b90be	0.06814717
126	0x3e2bbe2f	0.16771768
127	0x3c9e4c68	0.019323543
128	0x3d4877d4	0.048942402
129	0x3ddd0efa	0.10793872
130	0x3b1b6340	0.002371028
131	0xbdfbe020	-0.12298608
132	0xbba633a0	-0.005072072
133	0x3dbafe32	0.09130515
134	0x3e0dcfb5	0.13848765
135	0x3c0df7b0	0.00866501
136	0xbd847c93	-0.06469073
137	0x3e0098fd	0.1255836
138	0x3ce46ff0	0.027885407
139	0xbd9b70a8	-0.07589847
140	0xbd95880e	-0.07301341
141	0x3db1510e	0.08658038
142	0xbd7ab2b0	-0.061205566
143	0x3de8750a	0.113504484
144	0x3db7a9f2	0.08967961
145	0x3deeb28e	0.1165515
146	0xbdf54c35	-0.11977426
147	0x3d3af31c	0.045642003
148	0xbd514ac8	-0.051096708
149	0x3c1e79d0	0.009672597
150	0xbe2cc489	-0.16871847
151	0xbdab644c	-0.083687395
152	0x3e26a505	0.16273887
153	0x3b72f200	0.0037070513
154	0xbd95829b	-0.07300302
155	0xbd3e2d50	-0.046429932
156	0x3d9fd266	0.07803802
157	0x3db415b6	0.087932035
158	0xbd69ffa2	-0.057128556
159	0x3e322f3f	0.17400835
160	0xbc382f30	-0.011241719
161	0x3d97f7d6	0.07420318
162	0x3dd47166	0.103731915
163	0x3e001b99	0.12510528
164	0x3dfbfc2e	0.12303959
165	0x3d867c82	0.06566717
166	0xbe3326fd	-0.17495342
167	0xbbd25ea0	-0.0064199716
168	0x3e1f45bf	0.1555395
169	0xbdaf71f7	-0.08566659
170	0xbd82ddab	-0.06389936
171	0x3e1e4429	0.15455689
172	0xbe071b8f	-0.13194107
173	0x3de8c5e2	0.11365868
174	0xbc28e590	-0.010308638
175	0x3be5efa0	0.007017091
176	0x3e2c01f9	0.16797628
177	0x3e0b95c7	0.13631354
178	0xbd37f0d4	-0.044907406
179	0x3e20fecf	0.15722202
180	0x3d3bdc34	0.0458643
181	0xbe13c73d	-0.14431472
182	0x3e14b04f	0.14520381
183	0xbcb020b8	-0.021499977
184	0xbd11c2e8	-0.035586268
185	0x3e0a0257	0.13477455
186	0x3cef76f0	0.029231519
187	0xbd312608	-0.04324916
188	0xbd8cbbcc	-0.06871757
189	0xbce11c68	-0.027479365
190	0x3e09ca1d	0.13456006
191	0xbdf55cfa	-0.119806245
192	0xbcdf0af8	-0.02722691
193	0xbd5911fa	-0.05299566
194	0x3d62b83c	0.05535148
195	0x3e002f89	0.12518133
196	0x3d45b6e8	0.048270136
197	0xbe252eea	-0.16131178
198	0xbd4486d8	-0.04798016
199	0x3d007608	0.031362563
200	0xbe318aa3	-0.17338042
201	0xbe17793a	-0.14792338
202	0x3ba87fa0	0.005142167
203	0x3bf03d60	0.007331535
204	0x3d5abc5c	0.05340229
205	0xbdc25060	-0.094879866
206	0xbccf5930	-0.025311083
207	0x3c7fb380	0.015606761
208	0x3e0688fb	0.13138191
209	0xbdcad8ea	-0.09904654
210	0x3dc6a39a	0.09699173
211	0x3dba257a	0.09089179
212	0xbd70267e	-0.05863046
213	0xbd3e5b38	-0.04647371
214	0x3e1d3431	0.1535194
215	0xbd8cf5e7	-0.0688284
216	0xbd4870c4	-0.048935667
217	0xbdffaac6	-0.12483744
218	0xbe30737d	-0.17231555
219	0x3b98c260	0.004661843
220	0xbd81558e	-0.063151464
221	0x3e1432c3	0.14472489
222	0xbb9ba2e0	-0.004749641
223	0xbdc871fd	-0.097873665
224	0xbd7b5b94	-0.061366633
225	0xbdd50c95	-0.104027905
226	0x3dcafde2	0.099117056
227	0xbd51f844	-0.051262155
228	0x3dfe51e6	0.12417965
229	0xbe2ddd8a	-0.16979042
230	0x3cf54e60	0.029944599
231	0xbd5722c2	-0.052523382
232	0xbcb19b48	-0.02168049
233	0x3e1a9723	0.15096717
234	0xbd078ec0	-0.03309512
235	0xbe20386e	-0.15646526
236	0xbdc70ea8	-0.09719592
237	0xbdf095e8	-0.11747342
238	0xbdabb430	-0.083839774
239	0x3d923a06	0.07139973
240	0x3db5e21a	0.08881016
241	0x3db3f652	0.08787216
242	0xbdc70b5a	-0.09718962
243	0x3e2257af	0.15853761
244	0x3cc916e8	0.024547055
245	0xbd3ef5ac	-0.04662101
246	0xbdb460c5	-0.0880752
247	0x3e0f0379	0.13966168
248	0xbe022e68	-0.12713015
249	0x3dad592a	0.08464272
250	0xbcda9f40	-0.026687264
251	0xbe025df4	-0.12731153
252	0xbdb08caf	-0.08620583
253	0x3cd70a28	0.02624996
254	0x3e198781	0.14993097
255	0xbd7f75ca	-0.06236819

mlp.0.bias f4 [64]
0	0xbe270140	-0.1630907
1	0xbdc692c2	-0.096959606
2	0xbcc57430	-0.024103254
3	0x3dde3c9e	0.108514056
4	0x3e0982e9	0.13428845
5	0xbcbb2fe0	-0.022849977
6	0xbd88f825	-0.06687955
7	0xbe324eef	-0.17412923
8	0xbdd4c0de	-0.10388349
9	0x3d8cdc44	0.0687795
10	0xbb41fe00	-0.0029600859
11	0xbda43bdf	-0.08019232
12	0xbe212730	-0.15737605
13	0x3c60fc80	0.013732076
14	0x3e0a87e9	0.13528408
15	0xbce57868	-0.028011516
16	0xbe0bb04d	-0.13641472
17	0x3c65bf60	0.014022678
18	0xbdca4615	-0.09876648
19	0x3d19c1b8	0.03753826
20	0x3e0d7a07	0.13816081
21	0x3d7d9748	0.06191185
22	0xbe24c435	-0.16090472
23	0x3cbbbd60	0.02291745
24	0xbcac7628	-0.021052435
25	0xbdf5bdfa	-0.11999126
26	0x3d94e2ba	0.07269807
27	0x3de2417a	0.11047645
28	0xbde3c151	-0.111208566
29	0xbd724e9c	-0.059157
30	0xbdeac649	-0.11463601
31	0xbdd2ac86	-0.102868125
32	0x3db4c20a	0.088260725
33	0x3bd70160	0.006561443
34	0xbc228800	-0.00992012
35	0xbded1672	-0.11576547
36	0xbd2befd4	-0.041976765
37	0xbd984ef3	-0.07436933
38	0x3d45ee3c	0.0483229
39	0x3e299ff9	0.16564931
40	0xbe2b40d3	-0.16723947
41	0x3e30d7cd	0.17269821
42	0x3d2d80bc	0.0423591
43	0xbb666f00	-0.0035161376
44	0x3e1b86dd	0.15188165
45	0x3d40b9ac	0.04705207
46	0xbdacd95f	-0.08439898
47	0x3d5025b0	0.05081719
48	0xbcaf4418	-0.021394774
49	0xbc14f600	-0.009091854
50	0x3d5154bc	0.0511062
51	0xbe2292f5	-0.15876372
52	0x3dda2c1a	0.10652943
53	0xbe29058e	-0.16506025
54	0x3bfac220	0.007652536
55	0xbdf362fd	-0.11884115
56	0xbd63c5ae	-0.055608444
57	0x3e2b4b5d	0.16727968
58	0xbd43ee04	-0.04783441
59	0xbe21ccdb	-0.15800802
60	0x3de64826	0.1124423
61	0x3e1ab4ef	0.15108083
62	0xbd5ea600	-0.05435753
63	0x3defd572	0.11710633

mlp.2.weight f4 [32, 64]
0	0x3d1346b4	0.0359561
1	0x3dee8800	0.11647034
2	0xbdbcdd7c	-0.09221932
3	0xba3c7d00	-0.00071902573
4	0x3de8be6a	0.113644436
5	0xbd859a66	-0.0652359
6	0x3cfa2600	0.030535698
7	0xbad2b500	-0.0016075671
8	0xbd942c98	-0.07235068
9	0x3d8adda6	0.06780557
10	0x3dd04edc	0.10171291
11	0x3d122ff0	0.035690248
12	0x3d0902d4	0.033449963
13	0xbd97c49c	-0.07410547
14	0x3dceeb04	0.101034194
15	0x3d72f294	0.05931337
16	0xbcc0b460	-0.02352351
17	0x3cc3ea98	0.023915574
18	0x3c216ba0	0.00985232
19	0xbdfe6172	-0.1242093
20	0x3dec05dc	0.11524555
21	0xbdc7a61e	-0.09748481
22	0xbdea71b8	-0.114474714
23	0x3d86480a	0.06556709
24	0x3d5c9dcc	0.053861424
25	0xbda2993a	-0.07939382
26	0xbda2eba6	-0.079551026
27	0x3da38cb2	0.0798582
28	0x3dbaabae	0.091147766
29	0x3dfc1d1e	0.12310241
30	0x3cb7f2b0	0.02245459
31	0xbde61846	-0.112350985
32	0x3db94ee6	0.09048252
33	0xbca41b10	-0.020032436
34	0xbd8f9e8c	-0.07012662
35	0xbcd040d0	-0.02542153
36	0x3d5d64c0	0.05405116
37	0x3d10e5c4	0.03537537
38	0x3dc87146	0.0978723
39	0x3d8fcf74	0.070219904
40	0x3d696c58	0.05698809
41	0xbdf4a070	-0.119446635
42	0x3dc2e638	0.09516567
43	0x3de5053a	0.111826375
44	0x3dc08a8e	0.09401427
45	0xbddf92f2	-0.109166995
46	0x3b9a73e0	0.0047135204
47	0x3df31540	0.118692875
48	0xbd3e7980	-0.04650259
49	0x3c821758	0.015880272
50	0x3b863420	0.0040955693
51	0xbdae6f7e	-0.08517359
52	0x3d98592c	0.07438883
53	0xbd80813c	-0.062746495
54	0xbc222f00	-0.009898901
55	0x3caff9e0	0.021481454
56	0xbd741a68	-0.059595495
57	0xbdf55662	-0.11979367
58	0x3cb87ee0	0.022521436
59	0xbdf2c900	-0.11854744
60	0xbd4bf08c	-0.04978995
61	0xbcd82e80	-0.02638936
62	0xbda6947c	-0.0813379
63	0xbd8bd914	-0.06828514
64	0xbdaca942	-0.08430721
65	0xbded2828	-0.11579925
66	0x3d343d78	0.044003934
67	0xbd569a74	-0.05239339
68	0x3cc59a80	0.024121523
69	0xbd94dc9c	-0.072686404
70	0xbc80a308	-0.01570274
71	0xbdb38c44	-0.08766988
72	0xbb38e200	-0.0028210878
73	0x3c4c60f0	0.012474284
74	0xbc81d3f8	-0.015848145
75	0xbd1d9bbc	-0.038478598
76	0x3d1d2ab4	0.038370803
77	0xbc582010	-0.013191238
78	0x3d83f104	0.064424545
79	0xbd810bdc	-0.0630109
80	0x3ceab110	0.028648883
81	0x3db4e966	0.0883358
82	0xbcae17f8	-0.021251664
83	0xbdd1d76c	-0.102461666
84	0xbdba575e	-0.09098695
85	0x3df1f17c	0.118136376
86	0xbd790f58	-0.06080565
87	0xbde64b4e	-0.11244832
88	0xbdab7b18	-0.08373088
89	0x3d682cd0	0.05668336
90	0x3c2b16d0	0.010442451
91	0xbd94a500	-0.07258034
92	0x3d446338	0.047946185
93	0xbd45662c	-0.04819314
94	0x3cc510e8	0.024055913
95	0xbd531c20	-0.051540494
96	0x3db939b8	0.09044212
97	0xbbbb83a0	-0.005722478
98	0x3dd741e6	0.10510616
99	0xbc441640	-0.011968195
100	0xbceccce0	-0.028906286
101	0xbda13bba	-0.0787272
102	0xbd983ed4	-0.074338585
103	0xbc814da8	-0.0157841
104	0xbd83782e	-0.06419407
105	0xbcef47a0	-0.029208958
106	0x3b2dbb80	0.0026509464
107	0xbd83b9aa	-0.06431897
108	0xbdf5aa98	-0.11995429
109	0xbd29e47c	-0.041477665
110	0xbcec0ab0	-0.02881369
111	0x3dfef31a	0.12448712
112	0xbddf0f8e	-0.10891639
113	0x3d58ff90	0.0529781
114	0xbcee5340	-0.029092431
115	0x3a925000	0.0011162758
116	0xbcb3ebb0	-0.02196297
117	0x3d6640d0	0.056214154
118	0x3c7834a0	0.0151492655
119	0xbcb2de38	-0.021834478
120	0xbd8e9796	-0.069625065
121	0xbdb1e420	-0.086860895
122	0x3d9e2d54	0.077234894
123	0xbd859d48	-0.0652414
124	0x3cd098c8	0.025463477
125	0xbdf380c2	-0.11889793
126	0x3de2fef8	0.11083788
127	0xbde4aeb0	-0.111661315
128	0xbb255840	-0.0025229603
129	0x3d091514	0.033467367
130	0x3c67d7e0	0.01415059
131	0x3d39b8f8	0.045342416
132	0x3d0218fc	0.03176211
133	0x3d63f9b4	0.055658057
134	0xbd7449a0	-0.059640527
135	0xbda3fc92	-0.08007158
136	0xbd999452	-0.07498993
137	0xbd4d0d84	-0.050061718
138	0x3d070ff4	0.0329742
139	0xbdafb2f4	-0.085790545
140	0xbd9bd442	-0.07608844
141	0xbdcf81fe	-0.10132216
142	0x3d97e38a	0.074164465
143	0x3db9759e	0.09055637
144	0xbc352190	-0.011055365
145	0x3d266850	0.040626824
146	0x3c548c00	0.012972832
147	0x3dbd5a64	0.09245756
148	0xbb209ec0	-0.0024508685
149	0xbd47deb0	-0.048796356
150	0x3bf072e0	0.007337913
151	0xbb60e180	-0.0034314096
152	0x3dd82d96	0.1055557
153	0x3d2bef40	0.041976213
154	0x3d88c664	0.06678465
155	0x3d5358b4	0.051598266
156	0x3d58b144	0.05290343
157	0xbcc6e498	-0.024278924
158	0xbc266670	-0.010156259
159	0xbd0d04b0	-0.0344283
160	0xbdaff768	-0.08592111
161	0xbdd7db48	-0.105398715
162	0x3d80b354	0.06284204
163	0xbd4a47e4	-0.049384966
164	0xbbab7d80	-0.0052334666
165	0xbd285648	-0.04109791
166	0x3cb04a20	0.02151972
167	0xbdd9b612	-0.1063043
168	0x3db906e0	0.090345144
169	0xbdc97590	-0.098368764
170	0x3d172940	0.036904573
171	0x3da2cfce	0.07949792
172	0x3dce0892	0.100602284
173	0xbd7267d8	-0.059181064
174	0x3d9f98fa	0.0779285
175	0xbdb9eb8a	-0.09078129
176	0xbdde71d8	-0.10861558
177	0x3cec4598	0.028841779
178	0x3cf29270	0.029610842
179	0xbca80610	-0.020510703
180	0x3d85aa2a	0.06526597
181	0xbda64b30	-0.0811981
182	0x3db50184	0.0883818
183	0x3ce78378	0.028260931
184	0xbdc0ac48	-0.0940786
185	0x3cefe780	0.029285192
186	0xbd450d24	-0.048108235
187	0xbd97b2de	-0.07407163
188	0xbd8e673c	-0.06953284
189	0xbda886f2	-0.08228864
190	0xbbd18420	-0.0063939244
191	0xbd307074	-0.043075994
192	0x3daa6b7a	0.08321281
193	0xbdde9d86	-0.10869889
194	0xbd81cf26	-0.063383386
195	0xbd7510c8	-0.059830457
196	0x3df8b102	0.121431366
197	0xbde9e68a	-0.11420925
198	0x3c062f50	0.008189991
199	0xbdd3aa2c	-0.10335192
200	0x3d493578	0.049123257
201	0xbc75d950	-0.015005425
202	0xbda0574c	-0.078291506
203	0xbcbdf900	-0.023190022
204	0xbdbf58d4	-0.093431145
205	0x3d4dde9c	0.050261125
206	0xbdb10b5c	-0.08644745
207	0x3dd84530	0.105600715
208	0x3dcd63ca	0.10028799
209	0x3d150388	0.03638032
210	0xbc889e48	-0.016677037
211	0xbd314f3c	-0.043288454
212	0xbcc80798	-0.024417683
213	0xbdd94ada	-0.1060998
214	0x3da572d4	0.08078542
215	0xbdf60408	-0.12012488
216	0xbd7457e8	-0.059654146
217	0xbd9aec9a	-0.075646594
218	0x3d95b374	0.073096186
219	0xbbabd9c0	-0.0052444637
220	0xbdfea458	-0.1243369
221	0x3d02a194	0.031892374
222	0x3db44ddc	0.08803913
223	0xbc1fe520	-0.0097592175
224	0xbd99ed94	-0.075160176
225	0xbd5ed678	-0.054403752
226	0xbdd61e7e	-0.10455035
227	0x3d496f08	0.049178153
228	0x3c910d40	0.017706513
229	0x3dc77740	0.09739542
230	0x3dd2ec48	0.10298973
231	0x3c07a7c0	0.008279741
232	0x3c7d4b20	0.015459806
233	0xbdddaa64	-0.10823515
234	0x3d48f6c8	0.049063474
235	0xbde44e44	-0.111477405
236	0x3dc27740	0.094954014
237	0xbd507f8c	-0.05090289
238	0x3d92d50e	0.07169543
239	0x3d73d5bc	0.059530005
240	0xbc49b530	-0.012311265
241	0x3daba776	0.0838155
242	0xbc310d40	-0.010806382
243	0x3d455de4	0.048185244
244	0xbda177c4	-0.078841716
245	0xbd8fa4a6	-0.07013826
246	0xbda22646	-0.07917456
247	0xbd4859b8	-0.048913687
248	0x3da45716	0.08024423
249	0x3ddf44a6	0.109017655
250	0xbd7be4d8	-0.06149754
251	0xbd74a0a4	-0.05972351
252	0x3a889d00	0.0010422766
253	0x3deb3cd8	0.114862144
254	0x3da82ba4	0.08211449
255	0x3befd120	0.007318631

mlp.2.bias f4 [32]
0	0x3dec7756	0.11546199
1	0x3dac7616	0.084209606
2	0x3ce00860	0.027347744
3	0x3ccd2b80	0.025045156
4	0x3d807a4a	0.06273325
5	0xbdd7517c	-0.10513589
6	0xbc9ace68	-0.01889725
7	0xbc38f040	-0.011287749
8	0xbd43978c	-0.04775195
9	0xbde9f2ce	-0.114232644
10	0x3dfad882	0.12248327
11	0xbc2f8e10	-0.010715023
12	0xbd104210	-0.035219252
13	0x3d9f0000	0.07763672
14	0x3d762dcc	0.06010227
15	0x3d6b1b1c	0.0573989
16	0x3dd3ac52	0.10335602
17	0x3dcc2834	0.09968606
18	0x3df84a02	0.12123491
19	0xbdbbac48	-0.091637194
20	0xbdd72d6c	-0.105067104
21	0x3df13a26	0.11778669
22	0x3d6556b0	0.055990875
23	0xbd2996f4	-0.041403726
24	0xbd259954	-0.04042943
25	0x3d211820	0.039329648
26	0x3dc535bc	0.0962939
27	0x3d755028	0.059890896
28	0xbcb37868	-0.021908
29	0x3d239660	0.03993833
30	0x3d23ed58	0.04002127
31	0xbcebcc58	-0.028783962

mlp.4.weight f4 [16, 32]
0	0xbdc1af52	-0.09457268
1	0xbe0e4ee7	-0.13897286
2	0x3e135101	0.1438637
3	0xbe22f60d	-0.15914173
4	0xbc0de330	-0.008660123
5	0xbdb901ef	-0.09033572
6	0xbdde69c0	-0.10860014
7	0x3d959bcc	0.073051065
8	0x3cc33018	0.023826644
9	0x3db59cc2	0.0886779
10	0x3dfcc8fe	0.12343024
11	0x3e2620d7	0.16223465
12	0xbdaf0150	-0.08545172
13	0x3de57cca	0.11205442
14	0x3e052499	0.13002242
15	0x3df06656	0.11738269
16	0xbda5d056	-0.080963776
17	0x3e09bcf1	0.13450982
18	0xbdafd0b7	-0.08584731
19	0x3dc582f2	0.096441165
20	0x3dcf9232	0.101353064
21	0x3dae4752	0.08509697
22	0xbda704d0	-0.08155215
23	0xbd7e70d2	-0.062119313
24	0xbdcc836c	-0.09986004
25	0xbe17d9b5	-0.14829142
26	0xbddf6b48	-0.10909134
27	0xbdef8c6c	-0.11696705
28	0xbdcf2c06	-0.10115819
29	0x3dd79b7e	0.10527705
30	0x3e16bcfd	0.14720531
31	0x3cdcd308	0.026956096
32	0xbd890d23	-0.06691959
33	0x3db37a12	0.087635174
34	0xbd399afc	-0.04531382
35	0x3dc86f26	0.09786825
36	0x3d499cbc	0.04922174
37	0xbe28bf4f	-0.16479228
38	0xbe2592a9	-0.16169228
39	0x3e2bb7cb	0.1676933
40	0x3e2ef243	0.17084603
41	0x3d8cdc52	0.0687796
42	0xbe184b3a	-0.14872447
43	0xbd9526b2	-0.07282771
44	0xbdf16b7a	-0.11788078
45	0x3d8f8804	0.07008365
46	0x3e0f002b	0.13964908
47	0xbdd37130	-0.10324323
48	0x3e34a495	0.17640908
49	0x3ded214a	0.11578615
50	0x3dcf0ace	0.10109483
51	0x3e1b6e0f	0.15178703
52	0x3e22339b	0.15839998
53	0xbd83bf45	-0.06432966
54	0x3c803e50	0.015654713
55	0x3d93d064	0.07217482
56	0x3d89ec60	0.06734538
57	0xbe1f9672	-0.15584734
58	0xbdefcac4	-0.11708596
59	0xbdc0d311	-0.09415258
60	0xbc0aeca0	-0.008479267
61	0xbdd0feac	-0.10204825
62	0x3e139ee9	0.14416088
63	0x3e2f743f	0.17134188
64	0xbc6a6b00	-0.014307737
65	0xbbbc4c80	-0.005746424
66	0x3ca37780	0.019954443
67	0x3b67bc40	0.0035360008
68	0xbd32ecf0	-0.043682992
69	0x3dec8c8a	0.11550243
70	0x3e038a67	0.12845765
71	0xbd729480	-0.059223652
72	0xbe230744	-0.1592074
73	0x3d4c9050	0.049942315
74	0x3d51c364	0.05121173
75	0x3e095ed1	0.13415076
76	0xbe2d65c4	-0.16933352
77	0xbe06e948	-0.13174927
78	0x3e1a9f9f	0.15099953
79	0x3cc27ca0	0.023741066
80	0x3dddf362	0.10837437
81	0xbc47d6a0	-0.012197167
82	0xbd953af5	-0.07286636
83	0xbe09fce8	-0.13475382
84	0xba8fcc00	-0.0010970831
85	0x3e2c7b67	0.1684395
86	0x3d66f5c0	0.05638671
87	0xbddaa810	-0.10676587
88	0x3d4636f4	0.04839225
89	0x3e1ff881	0.1562214
90	0x3e200ab5	0.15629084
91	0x3e00f6ab	0.12594096
92	0xbd000ec8	-0.031264096
93	0xbddacbfe	-0.1068344
94	0xbe1db6b5	-0.15401728
95	0xbda61ce2	-0.08110978
96	0xbde40ac2	-0.111348644
97	0xbe119b2e	-0.14219353
98	0x3d7270f4	0.05918975
99	0x3e178795	0.14797814
100	0x374a8000	1.2069941e-05
101	0x3da1301a	0.07870503
102	0x3d4df834	0.050285533
103	0x3d2c0290	0.04199463
104	0x3d7f7768	0.062369734
105	0xbb909b20	-0.0044130236
106	0x3c440ff0	0.01196669
107	0x3e0db3dd	0.13838144
108	0x3d378450	0.044803917
109	0x3d97ed66	0.07418327
110	0xbb240d40	-0.0025032312
111	0xbd962d5f	-0.073328726
112	0x3e12d0b3	0.14337425
113	0xbe25820e	-0.16162893
114	0xbdd49b94	-0.10381237
115	0x3e24b4a9	0.16084541
116	0xbd266478	-0.04062316
117	0xbde538e7	-0.11192494
118	0x3d1e1c24	0.038601056
119	0x3c3f0230	0.011658236
120	0x3d19764c	0.037466332
121	0x3e218701	0.15774156
122	0xbd2bd730	-0.041953266
123	0x3d2ab244	0.041673914
124	0x3e1514a3	0.14558654
125	0x3e0c8b91	0.13725115
126	0xbd50346c	-0.050831243
127	0xbd2eb1b4	-0.04264994
128	0xbdfff94c	-0.124987215
129	0xbd5d60e2	-0.054047473
130	0xbdc22d1f	-0.094812624
131	0x3e306103	0.17224507
132	0xbd56bdc6	-0.052427076
133	0x3e0b9545	0.1363116
134	0xbe1921ab	-0.1495425
135	0xbb152540	-0.0022757798
136	0xbd8bb266	-0.06821136
137	0xbdcadc2a	-0.09905274
138	0x3d89ade2	0.06722619
139	0xbd80dea4	-0.06292465
140	0x3e2a53c1	0.16633512
141	0xbd172604	-0.03690149
142	0x3d1c8f40	0.03822255
143	0x3e28ecf3	0.16496639
144	0xbdce7b1b	-0.10082074
145	0x3e25b407	0.16181956
146	0x3c46fb10	0.012144819
147	0x3e1ad137	0.15118872
148	0x3e000e49	0.1250545
149	0xbd22c218	-0.039735883
150	0xbe2555c4	-0.16145998
151	0xbdb5d5e9	-0.08878691
152	0xbdc24784	-0.09486297
153	0xbe03924d	-0.12848778
154	0x3d73db3c	0.05953525
155	0x3da3e022	0.08001734
156	0x3ccafb28	0.024777964
157	0xbd517f28	-0.051146656
158	0xbd06fe9c	-0.03295766
159	0xbe2ff02f	-0.17181467
160	0xbe33f434	-0.17573625
161	0x3e2a8dff	0.1665573
162	0xbd9bcc01	-0.0760727
163	0x3d562154	0.052277878
164	0xbdf8121c	-0.12112829
165	0x3cb35a40	0.02189362
166	0x3e245537	0.16048132
167	0xbcf6cd88	-0.030127302
168	0xbc99d840	-0.018779874
169	0x3d6a8f94	0.057265833
170	0xbd137d98	-0.036008447
171	0xbdc585ef	-0.096446864
172	0x3c7687c0	0.015047014
173	0xbd4ee360	-0.05050981
174	0x3dec289e	0.115311846
175	0xbe012998	-0.12613523
176	0xbde4c594	-0.111704975
177	0xbd133168	-0.03593579
178	0xbccfebe0	-0.025381029
179	0x3ba2bae0	0.004966125
180	0x3d1c87ec	0.038215563
181	0xbd0d567c	-0.034506306
182	0xbbb8a040	-0.0056343377
183	0xbd18a9b4	-0.037271217
184	0xbddbfdc9	-0.10741765
185	0xbe1be6ff	-0.15224837
186	0x3e0dd25b	0.13849775
187	0xbd8c06de	-0.06837247
188	0x3d9bb33e	0.07602547
189	0xbd130c18	-0.035900205
190	0xbd212e18	-0.0393506
191	0xbde904ff	-0.11377906
192	0x3cb54b08	0.022130504
193	0xbe04e3f8	-0.12977588
194	0x3d7b3e5c	0.061338767
195	0xbdfa7eaa	-0.122311905
196	0x3dd48ff6	0.10379021
197	0x3c7ecea0	0.015552193
198	0x3bbc0960	0.0057384223
199	0x3c4e2d00	0.012583971
200	0xbdfa5d35	-0.12224809
201	0xbcf69a00	-0.03010273
202	0xbd1bedd0	-0.038068593
203	0x3e21a8e9	0.1578709
204	0xbb9376e0	-0.004500255
205	0xbcbba368	-0.022905067
206	0xbd330aec	-0.043711588
207	0xbdafc52e	-0.08582531
208	0x3d359f0c	0.044341132
209	0xbdfac2e6	-0.12244205
210	0x3d9ee5ae	0.07758652
211	0xbd2edc20	-0.042690396
212	0xbd087958	-0.033318847
213	0xbc3c0560	-0.011475891
214	0x3e2785b1	0.16359593
215	0xbda020fe	-0.07818793
216	0xbd0b3ebc	-0.033995375
217	0xbd350844	-0.044197336
218	0x3df3da92	0.11906923
219	0xbdbbecd4	-0.09176031
220	0x3de525c2	0.11188842
221	0x3dc18f46	0.09451155
222	0xbcfefd70	-0.031126708
223	0x3ca4d7b0	0.020122379
224	0x3dcb04ce	0.09913026
225	0xbcff73a0	-0.031183064
226	0x3e17d471	0.14827134
227	0xbdb7c787	-0.08973604
228	0x3d128a7c	0.0357766
229	0x3e0101e9	0.12598385
230	0xbe0fe648	-0.14052689
231	0xbd7a6614	-0.061132506
232	0xbdf69cde	-0.12041639
233	0x3e005385	0.1253186
234	0xbe0511c9	-0.12995066
235	0x3d86767c	0.06565568
236	0x3d6d9f1c	0.058013067
237	0x3e1a0359	0.1504034
238	0xbdca1142	-0.09866573
239	0x3dc4297a	0.095782235
240	0xbcb535a8	-0.022120312
241	0xbbbfdaa0	-0.0058549196
242	0x3e298abf	0.16556834
243	0xbe266809	-0.16250624
244	0xbc1f2750	-0.009713963
245	0xbe0fc374	-0.14039403
246	0x3e289d75	0.16466315
247	0x3daf1a22	0.08549906
248	0xbd7f9c74	-0.062405065
249	0xbdfc0cb6	-0.12307112
250	0x3e1e27fb	0.15444939
251	0xbdaaf7b3	-0.08348026
252	0x3e2388ad	0.15970106
253	0xbc32ef10	-0.010921255
254	0xbdc6ab19	-0.09700603
255	0xbd090b84	-0.033458248

mlp.4.bias f4 [16]
0	0xbd96e6c7	-0.07368236
1	0xbdcea207	-0.10089498
2	0x3e2ad1bb	0.16681568
3	0x3d422810	0.047401488
4	0x3d2a8938	0.04163477
5	0x3e290075	0.1650408
6	0xbc559890	-0.013036862
7	0xbdd73634	-0.10508385
8	0xbe094700	-0.1340599
9	0x3dedb7de	0.116073355
10	0xbce47c50	-0.027891308
11	0x3d9c6a7a	0.07637496
12	0x3e0c05a7	0.13674031
13	0x3d84c4aa	0.06482823
14	0x3d798bf0	0.06092447
15	0x3d9b9326	0.07596426

prediction_layer.weight f4 [1, 32]
0	0xbd54e320	-0.051974416
1	0xbe094bee	-0.13407871
2	0x3dd72592	0.10505213
3	0xbc8f8a50	-0.017522007
4	0x3be5e700	0.0070160627
5	0x3c9a12b8	0.018807754
6	0xbdfa5968	-0.12224084
7	0x3e0e0135	0.13867648
8	0x3d9aad1e	0.07552551
9	0xbd74959e	-0.059713
10	0x3d8aaf06	0.06771664
11	0xbe00e003	-0.12585454
12	0x3d24fc54	0.0402797
13	0x3e1412b5	0.14460261
14	0x3db77da6	0.089595124
15	0xbe19f16e	-0.15033504
16	0x3c137c20	0.009001762
17	0xbe0cd9a2	-0.13754895
18	0x3db4ef1a	0.088346675
19	0x3e0ebe8f	0.1393988
20	0x3ddfa1e6	0.109195516
21	0x3e065b43	0.13120751
22	0x3df2d03e	0.11856125
23	0xbd4c34f4	-0.049855188
24	0x3d975db6	0.07390921
25	0x3d9af35e	0.0756595
26	0xbe29e0d0	-0.16589665
27	0xbc6cd970	-0.014456138
28	0x3d1c00e0	0.038086772
29	0xbd9ba0b7	-0.07599013
30	0x3c4b9c20	0.01242736
31	0x3d1d99c8	0.038476735
