ncf_model.pth (torch, 25106 bytes, 11 tensors)

P.weight f4 [7, 16]
000000 9a 16 ea bf 5c 84 00 3f 3f 74 96 3f b7 c0 c2 be
       -1.8288147 0.50201964 1.1754225 -0.38037655
000010 f3 6a d1 3f 08 9a 4f 3f 35 01 cd be e3 41 fe 3e
       1.6360763 0.8109441 -0.40039983 0.49659643
000020 93 d8 0d bf c0 a2 80 3a 22 58 ac 3f 20 12 42 3f
       -0.5540859 0.0009814128 1.3464396 0.75808907
000030 f0 15 a1 3f 51 c1 4a 3f 35 e8 0c 40 fe b2 dc 3e
       1.258482 0.7920123 2.2016728 0.4310531
000040 0e 2c 4e bf 9a 1a 27 3f 28 a9 f2 be e3 b9 b8 be
       -0.8053597 0.65274966 -0.4739468 -0.3607932
000050 41 37 ec bd a8 15 a2 be f5 5e 5d bf e0 a7 83 be
       -0.11533976 -0.31657147 -0.8647302 -0.25714016
000060 1b 1e cb 3f 8c 08 04 3f 77 cb 04 be 9b b8 19 be
       1.5868562 0.5157554 -0.1296824 -0.15011828
000070 59 b4 b1 3f 2a e6 be bf 00 0f fb 3c fe d6 e7 be
       1.3883163 -1.491399 0.030646801 -0.45281214
000080 73 ab 5b bf fa e7 9e bf eb a7 9b bf 31 93 fc be
       -0.85808486 -1.2414544 -1.216062 -0.49331048
000090 a4 65 90 3e cc af a3 3e c8 b0 0e bf 82 1b 77 3c
       0.28202546 0.3197006 -0.55738497 0.015082242
0000a0 f5 71 9f bf b2 b8 32 bf 2f 26 7a bf 17 9a 92 bc
       -1.2456652 -0.6981307 -0.97714514 -0.017895741
0000b0 40 4e 6a be 19 95 18 c0 0f 5e 3e bf d0 21 55 be
       -0.22881413 -2.3841002 -0.7436227 -0.2081368
0000c0 cb 69 34 bf d0 ca 62 3f 24 15 b7 3b 1e 37 8f bf
       -0.7047393 0.8859072 0.005587237 -1.1188695
0000d0 49 26 7b be 98 d7 a2 be 94 38 87 be 92 2b e6 be
       -0.24526323 -0.3180511 -0.26410353 -0.44955117
0000e0 26 9c 02 3f 2f 30 d6 3f d3 9b c2 be 17 37 14 bf
       0.51019514 1.6733454 -0.3800951 -0.5789656
0000f0 5c 0c 64 3f 1d 37 77 3e e5 8f cd be a5 ab 6a bf
       0.8908136 0.24142118 -0.40148845 -0.9166816
000100 37 f7 27 3c 17 51 83 3f e1 58 c0 be c6 3d 3a bf
       0.010251812 1.0259122 -0.3756781 -0.7275051
000110 ac bf e2 be 5e cb ba 3d ee f3 18 3d e0 d1 99 bf
       -0.4428686 0.091208205 0.037342004 -1.2017174
000120 1d fe 98 bf 4a 59 3f 3f cc b7 59 bf f0 b5 d9 3f
       -1.1952549 0.7474562 -0.85046077 1.7008648
000130 76 e1 cf bf 9d eb d0 3f 55 28 40 3e 52 36 e6 be
       -1.624068 1.6321903 0.18765385 -0.44963318
000140 9d 3b e5 3e 75 c0 b5 be 45 1a 82 3e 84 0b 4e bf
       0.44772044 -0.35498396 0.25410667 -0.8048632
000150 b6 98 0d 3f 2b 78 1e bf ef a3 9c bd 8e 2f a9 be
       0.55311143 -0.6190211 -0.07648455 -0.33044094
000160 0a 75 89 be 68 8b 56 3f b5 3a e2 3e 0c 66 1a 3d
       -0.26847106 0.8380647 0.44185415 0.037694976
000170 2f a6 5e 3e 0e cc 8d 3f 8d 2b 16 3f 90 21 bc be
       0.21743082 1.1077898 0.58660203 -0.36744356
000180 d0 e5 80 bf 4b 4f 92 be a3 3e 7e bf b5 70 6d bf
       -1.0070133 -0.2857612 -0.99314326 -0.927501
000190 04 6a 86 bf 88 24 f1 3e ec 73 01 3f ef 29 97 be
       -1.0501103 0.47098184 0.5056751 -0.2952418
0001a0 ba 9c 77 bf d3 c9 3f 3e f0 76 10 3f b6 f6 9d bd
       -0.9672352 0.18729334 0.56431484 -0.07713072
0001b0 b9 03 83 bf 71 73 87 bf 08 05 9d bf d6 ff 99 bf
       -1.0235511 -1.0582105 -1.226716 -1.20312

user_emb.weight f4 [7, 16]
000000 65 23 db 3e b7 97 8d 3f b7 85 fc bf 36 a1 18 bf
       0.4280044 1.1061925 -1.9728307 -0.5962099
000010 65 24 a6 bd d7 a3 92 bb 0e 59 8c 3f 81 a2 f5 3f
       -0.081124105 -0.0044750976 1.0964677 1.9190217
000020 a6 fa a9 bf 1e c8 d8 bf 11 ac 98 3f 91 68 77 bf
       -1.3279617 -1.6936071 1.192751 -0.9664393
000030 8a a0 91 bf 5c 19 47 bf 2d fe 5c 3f 77 c6 5b 3d
       -1.1377118 -0.7777307 0.8632534 0.053656068
000040 df b2 d4 bf 0b 63 3d 3f 7b 28 98 3e 01 ba c7 3e
       -1.6617087 0.7397925 0.29718384 0.39009097
000050 dd c9 a4 be e1 42 bf 3e b6 21 64 bf 48 59 3a bf
       -0.3218526 0.37355712 -0.8911394 -0.7279248
000060 04 a2 b5 bf 13 f3 17 3f cb 9e 9c 3f 6d c2 7a 3e
       -1.4190068 0.59355277 1.223596 0.2448823
000070 b4 03 ae be a2 a6 4b 3f 81 3c 53 3e f6 f3 f0 3f
       -0.339872 0.79551136 0.20628549 1.8824451
000080 91 0b 9e bf 84 5a f7 bf d7 e9 4d be 19 73 a6 3f
       -1.234728 -1.9324498 -0.20108734 1.3003875
000090 81 d2 5f 3d 14 64 b0 be cd 24 28 3f 6b 4e f5 bf
       0.05464411 -0.34451354 0.65681154 -1.9164556
0000a0 08 32 fe 3e e7 32 b0 bd 94 97 3f bf 63 6d 14 3d
       0.49647546 -0.08603459 -0.74840665 0.03623713
0000b0 85 34 dc be 7a 4b dd 3f 7b 62 a7 3e d5 d6 b4 3e
       -0.4300882 1.7288659 0.32692322 0.35320154
0000c0 08 db 93 bf 99 cd 79 bf 15 f8 f9 bf 86 2f 1e c0
       -1.1551218 -0.9757934 -1.9528834 -2.4716506
0000d0 a6 8e 9a bd 6d 08 8f 3f c5 ab 1d be 6b 41 6d be
       -0.07546739 1.1174446 -0.15397556 -0.23169486
0000e0 c0 97 12 bf ba de 2d bf 77 8d 6c 3f 8e 7f f6 3f
       -0.572628 -0.6791798 0.9240336 1.9257677
0000f0 ae d4 e9 3d 5c 95 06 3f 4a b3 b2 bf e3 78 14 40
       0.114175186 0.52571654 -1.3960965 2.3198783
000100 1d 59 0f bf 09 d6 9a 3f 09 46 c5 3e 7d f8 5e be
       -0.5599535 1.2096568 0.38529995 -0.21774478
000110 2b d7 c5 bd 99 d9 19 40 e9 6b 1a 3d 66 62 f1 3e
       -0.09660181 2.403906 0.037700567 0.47145385
000120 4f 4a 8f bf f8 80 eb bd 18 8d c5 be 75 9e b5 be
       -1.1194552 -0.11499208 -0.38584208 -0.35472456
000130 85 14 03 40 00 8d f0 be 3e 44 5b 3e f9 f4 4b be
       2.0481274 -0.46982574 0.21412751 -0.19917668
000140 ed 14 93 3f 21 e3 6e bf 32 33 90 be 61 2f 35 c0
       1.1490761 -0.9331532 -0.2816406 -2.8310168
000150 8f f3 8b bf 43 71 24 40 02 89 cd be 76 f1 d1 bd
       -1.0933703 2.569413 -0.4014359 -0.10251133
000160 94 fe de bf 79 26 9b 3f ce 27 f8 3e a4 8b 23 3f
       -1.7421441 1.2121116 0.4846787 0.6388495
000170 32 59 17 3f e3 a7 15 3f b9 b2 5d 3f f5 d1 9a 3e
       0.59120476 0.584593 0.86600834 0.3023831
000180 22 23 1b 3f dc 09 51 3f 5a e1 0a 3f 99 60 01 bf
       0.60600483 0.8165567 0.5425011 -0.5053802
000190 66 5c 07 3f 31 7a 34 bf 5d 4e 09 3f 00 38 8e 3f
       0.52875364 -0.7049895 0.536352 1.111084
0001a0 40 ff 1c 3e 80 a7 97 be b7 9c bd bf 53 d3 aa 3e
       0.15331745 -0.2961998 -1.481345 0.33364353
0001b0 be c3 53 3f be e9 f3 3e 11 24 08 3e aa ee 14 be
       0.82720554 0.4763927 0.13295008 -0.14544168

Q.weight f4 [6, 16]
000000 96 73 5d 3f 01 1b ca bf a0 bf c1 3e a1 ee 81 bf
       0.86504495 -1.5789491 0.3784151 -1.0150949
000010 8c 77 cd bf a7 49 10 bf ab e7 75 be 07 1f d6 3f
       -1.6052108 -0.56362385 -0.24014156 1.6728219
000020 29 7a 24 3f 03 6a 9c be 80 da d8 bf e6 32 1a bf
       0.642489 -0.3054963 -1.6941681 -0.60233915
000030 3e bc e9 3e eb d9 b9 be dd f3 da be cf 9c 2b bf
       0.4565143 -0.3629907 -0.42764178 -0.67036146
000040 73 dd 37 c0 9f 45 06 3f f7 eb be 3f 9b 6c bf 3f
       -2.8728912 0.52449983 1.4915761 1.4955019
000050 06 81 f8 3e b6 cb 08 bf 9c 85 0b bf 76 49 8d bf
       0.48535937 -0.5343584 -0.54500747 -1.1038043
000060 69 bd 25 3f 64 77 d7 bf 6e 2a 9d bf da b0 f3 bf
       0.6474214 -1.683331 -1.2278574 -1.9038346
000070 a2 db d2 3e a6 77 0e bf b4 dc d8 3f 3d 7a b2 3f
       0.41183192 -0.5565132 1.6942353 1.3943554
000080 35 07 cf bf 19 9d 9f be 3d ec dd be cc 73 26 bf
       -1.6174074 -0.31174543 -0.43344298 -0.6502044
000090 35 05 31 be 91 e1 f8 3e 3d 76 b2 3f 87 6c b4 bf
       -0.17287143 0.48609594 1.3942333 -1.409562
0000a0 4f 5d cd bf cb 4e 41 bf 86 95 04 c0 c2 f6 f4 bf
       -1.60441 -0.75510854 -2.0716262 -1.9137805
0000b0 83 f3 05 40 77 79 03 c0 63 0f 97 3e 6d 79 4f be
       2.0929878 -2.0542886 0.29503927 -0.20261164
0000c0 4e 76 55 bf 6e 35 9c 3e 88 ba 13 3f 1b e5 a2 3e
       -0.83383644 0.30509514 0.577065 0.3181542
0000d0 c6 1c 86 3f 96 ae 79 3f b4 c3 b2 3d 99 5a 92 3e
       1.0477531 0.9753202 0.08728734 0.28584746
0000e0 15 74 5e bf 0e 7b f4 3e 84 44 d3 be 48 ca 82 3f
       -0.8689588 0.47750133 -0.4126321 1.0217981
0000f0 72 5c 3a bf 71 9b b6 bf 87 83 00 3f ef 89 58 bf
       -0.7279731 -1.4266187 0.50200695 -0.8458547
000100 03 e3 70 3f 41 8a cc 3e 2d d2 68 3e 72 a1 48 bf
       0.9409639 0.3994923 0.22736426 -0.78371346
000110 af 73 ab bf ea e6 cb 3e 8e d0 3b 3f cb 3c da 3d
       -1.3394679 0.3982461 0.73365104 0.106561266
000120 b6 85 8a bf 84 68 7e 3f ba 0e 28 be 4f 68 74 3f
       -1.0822055 0.9937823 -0.16411868 0.9547166
000130 85 7c 07 bf 4b cc b6 3f d2 29 ad 3d eb 84 32 3f
       -0.52924377 1.4281095 0.08455242 0.69734067
000140 9d 31 a9 3e 39 0e bc 3e 9b b5 06 3f 6c 36 94 bf
       0.33045664 0.367296 0.5262086 -1.1579108
000150 b5 67 8d 3f 57 ff 3d 3f dc c1 5f bd 82 d8 7b 3e
       1.1047274 0.7421774 -0.054628238 0.2459431
000160 3c 0e 1a bf a5 59 6e be 00 48 55 3f 6e cb bd bf
       -0.6017797 -0.23276384 0.8331299 -1.4827707
000170 06 4a 39 3f 4e 86 3c bd 42 dc 14 3f 44 4d 9a bd
       0.72378576 -0.04602652 0.58148587 -0.075342685

event_emb.weight f4 [6, 16]
000000 b9 6d 8f bd 68 65 70 3e 97 7c ed 3e 07 46 f8 be
       -0.0700335 0.23476183 0.46384117 -0.48490927
000010 58 81 d6 be 23 82 67 bf 09 d9 d7 3e 20 55 2d 3f
       -0.41895556 -0.9043295 0.42157772 0.67708015
000020 e1 48 ac 3f 52 d0 15 3e 45 b8 5b bf 2f f3 40 3e
       1.3459741 0.14630249 -0.8582805 0.18842767
000030 cc 86 a6 bf f5 46 18 c0 85 bd 05 bf 8a d4 50 3e
       -1.3009887 -2.3793309 -0.5224231 0.20393577
000040 e2 2b 12 bf 1e cf 76 3e 38 9c 8b 3f 88 c5 d1 bf
       -0.5709821 0.24102446 1.0907049 -1.6388407
000050 29 13 08 bf 5e e1 96 bf ba e8 04 bd 1a 33 94 bf
       -0.53154236 -1.1787527 -0.032448508 -1.1578095
000060 3d 44 38 bf f4 bf 11 bf 15 dd bc bf 98 7d 89 3f
       -0.71979123 -0.5693352 -1.4754969 1.0741453
000070 94 f1 8c 3f 35 4a d5 3f cf ce a7 bf c8 11 f5 3e
       1.1011224 1.6663271 -1.3109988 0.4786513
000080 b7 fd 6d 3f 6b 9e ed be c2 01 26 c0 45 fd de bd
       0.92965263 -0.46409926 -2.5938573 -0.10888151
000090 c8 8d 2d 40 a2 c5 91 3e 5d 22 9f 3f 7e 7f eb bd
       2.7117786 0.28471094 1.2432362 -0.114989266
0000a0 95 6e 0f 3d 30 0c 75 bf 3e 9f 1e be 23 28 6b 3e
       0.03501757 -0.9572172 -0.15490434 0.2296453
0000b0 77 db a4 bf 77 18 25 40 57 1c 04 3e 58 1b 0a bf
       -1.2879475 2.5796182 0.12901436 -0.53947973
0000c0 43 4c 02 40 3f 7d b0 bf ac 09 8d bf e5 b8 ac be
       2.0359046 -1.3788222 -1.1018577 -0.33734813
0000d0 f8 63 ab bf 56 07 ea 3d 71 2f b3 be 4b 5d d6 3f
       -1.3389883 0.114271805 -0.34997132 1.6747221
0000e0 d5 ef 7c bf 64 1f 50 be 6e 55 fd be 64 e0 1b bf
       -0.98803455 -0.20324475 -0.4947924 -0.6088927
0000f0 95 cb 71 bf 14 c4 cd 3f 1b fd 49 3f 60 ed 07 40
       -0.94451267 1.6075463 0.78901833 2.1238632
000100 bb 76 83 bf 73 a7 29 3f fb b9 65 3f c8 a4 07 3e
       -1.0270609 0.6627113 0.8973691 0.13246453
000110 de 87 e3 bf a7 f2 80 3f 70 2c 90 bf a0 c3 d5 3f
       -1.7775838 1.0074052 -1.1263561 1.6700325
000120 8a 53 aa bf a4 93 92 3e 57 41 51 bf ab 05 6f 3f
       -1.3306744 0.28628266 -0.81740326 0.93368024
000130 5b f4 9e 3f a7 0e 14 bf c9 a3 a2 3f 12 f6 48 3e
       1.2418321 -0.5783486 1.2706233 0.19625118
000140 56 56 3d be 56 07 c9 bf 50 6c 68 3d 96 90 2c 40
       -0.18489966 -1.5705364 0.05674392 2.6963248
000150 18 0a 79 3e 59 fd 9f 3e c2 08 e5 be 1f 15 6c 40
       0.24320257 0.31247976 -0.44733244 3.6887891
000160 b6 84 9f 3f fa ed 60 3f 25 b4 ea 3e 24 42 40 3f
       1.2462375 0.87863123 0.45840564 0.7510092
000170 f8 53 68 3f a8 69 0d bd 75 c2 bd 3f 69 39 6e 3f
       0.90753126 -0.03452459 1.4824969 0.9305635

mlp.0.weight f4 [64, 32]
000000 22 a5 c0 3d 7d 4a 19 be 1e 2c 95 bd 67 bc 26 be
       0.094064966 -0.14969821 -0.07283805 -0.16282807
000010 fe 56 aa 3d de 06 e3 3d 2d 42 10 be 8e 5f a3 bd
       0.08317374 0.11085294 -0.14087744 -0.0797721
000020 56 00 88 bd cc c3 43 3d 48 20 fa bc 12 16 d4 3d
       -0.06640689 0.04779415 -0.030532971 0.10355772
000030 b2 88 92 3d de 07 e2 3d c1 14 a3 bd 6e c7 c9 bd
       0.07154979 0.11036657 -0.07962943 -0.09852491
000040 80 d0 12 bc d8 8b cd 3c 21 f2 b7 bd 08 5b 54 3d
       -0.008960843 0.025091097 -0.08981729 0.051844627
000050 f6 4b 99 bd ee d1 97 3d a7 a9 11 3e 53 25 a4 bd
       -0.074851915 0.07413088 0.14224873 -0.080149315
000060 11 19 33 3e ea 65 b0 3d 86 ca fd 3d a3 03 1e 3e
       0.17490031 0.086131886 0.12392144 0.15431075
000070 42 19 e8 3d 58 de 86 3c 78 e7 02 be b1 bd 2b 3e
       0.113329425 0.016463444 -0.12783611 0.1677158
000080 80 a5 c9 bd 9a 61 b5 3d d1 49 0e be 43 aa 17 be
       -0.0984602 0.08856507 -0.13895346 -0.14811043
000090 63 35 db bd d8 c0 b0 bd 69 f2 13 3e 98 f1 e4 bc
       -0.10703542 -0.08630532 0.14447941 -0.027947232
0000a0 6e 4d 98 3d e0 ce d2 bc c9 80 d8 bd 30 68 6c 3c
       0.074366435 -0.025733411 -0.10571439 0.014429137
0000b0 14 57 64 3d ce 29 b6 3d d0 5e 1d be 1f 1a 27 3e
       0.055747107 0.08894692 -0.153682 0.16318558
0000c0 95 d1 a4 bd 80 6d 5f 3b 82 8c 07 be cf cd 27 be
       -0.08047787 0.0034092367 -0.13237193 -0.16387103
0000d0 48 12 f0 3c 34 a3 4b bd 98 5c 27 bd 52 65 e9 3d
       0.029305592 -0.04971619 -0.04085979 0.113962784
0000e0 a0 ed b4 3c e0 3d 86 3d 56 4b ad bd ca 5d ee 3d
       0.022085965 0.065547705 -0.08461635 0.116389826
0000f0 8b 0d 16 be 3d 83 1a 3e a5 58 80 bd e9 a4 16 3e
       -0.14653604 0.15089126 -0.062669076 0.14711346
000100 16 80 b4 3d 58 c9 d6 bc 08 cb bb bc 7e 49 05 be
       0.08813493 -0.026219055 -0.022923961 -0.13016316
000110 c0 f8 54 bc 2c 94 34 be 18 9d 1c be 70 27 d0 bc
       -0.01299876 -0.17634648 -0.15294302 -0.02540943
000120 b2 75 24 be a9 b9 30 3e 94 51 8c 3d 78 61 4a 3d
       -0.16060522 0.17258324 0.06851497 0.04940936
000130 6a ec f2 3d 8c 6f 73 3d 62 46 30 be a8 d5 2e bd
       0.11861499 0.05943255 -0.17214349 -0.042684227
000140 48 bf 00 be 80 80 48 3c 64 21 88 3d d5 cf 07 be
       -0.12572968 0.012237668 0.06646994 -0.13262875
000150 72 0a dc 3d 97 52 31 3e f8 d7 a8 bc a0 92 ce 3b
       0.1074418 0.17316662 -0.020610794 0.0063041
000160 be ba 70 bd ac eb f5 bd cf 3a b3 bd 19 23 21 3e
       -0.05877184 -0.120078415 -0.08751451 0.15736045
000170 66 b9 d4 3d 10 46 15 bc 6b 38 1c 3e 96 b7 d1 3d
       0.103869244 -0.0091109425 0.15255897 0.10240094
000180 42 1a ac 3d 50 00 a3 bc db 81 d2 bd d3 df 86 bd
       0.08403446 -0.01989761 -0.10278674 -0.0658566
000190 6a 89 95 bd 73 d7 28 be 00 45 9a 3b 5a 33 f5 3d
       -0.073016 -0.16488437 0.0047079325 0.11972685
0001a0 80 0e e1 3c 54 76 f8 bd a2 ef 8f 3d 0b fb 26 3e
       0.027472734 -0.12131944 0.07028128 0.16306703
0001b0 8c f6 a2 bd 99 1c 09 be f1 00 80 bd 32 2d 59 bd
       -0.07957181 -0.13389815 -0.062501796 -0.053021617
0001c0 bf ed 04 be a7 b1 25 3e c9 9f 05 3e e1 40 1a 3e
       -0.12981318 0.1618105 0.13049234 0.15063812
0001d0 2a 3b f7 3d 64 07 43 bd e0 3c 81 bd d0 0a 4c 3d
       0.120718315 -0.04761447 -0.06310439 0.049815
0001e0 ca 82 19 be b1 27 bc bd 4c ad 3a 3d 29 2e 85 bd
       -0.14991298 -0.09187258 0.045575425 -0.06502945
0001f0 f8 58 b2 3c 7e 27 a3 3d 4e 2c bd bd 49 b2 0f 3e
       0.02177094 0.07966517 -0.09236966 0.14032854
000200 fb d0 0d 3e b1 cd 26 3e a9 d2 96 bd 04 45 84 3d
       0.13849251 0.16289403 -0.07364399 0.06458476
000210 d1 27 32 3e 97 27 e7 bd 43 b7 af bd 0a d0 e1 3d
       0.17398001 -0.11286848 -0.08579876 0.110260084
000220 d8 fb f1 bd d0 f5 37 3c 4a e8 b5 3d 58 0d 00 bd
       -0.118156135 0.01122804 0.08882196 -0.031262726
000230 7a 68 b6 3d c9 c0 8d bd 52 c5 86 bd 68 fb f8 3c
       0.08906646 -0.069215365 -0.065806046 0.030393317
000240 5c 3b 04 3d f3 db 31 3e 08 45 a8 bc ff 5e 93 bd
       0.032283172 0.1736906 -0.02054073 -0.071958534
000250 e8 7b 50 bd 71 91 26 3e df 71 27 3e b8 5a 9d 3c
       -0.050899416 0.16266419 0.16352032 0.019208297
000260 54 e3 3f 3d 9f 54 05 3e a5 bc 06 3e 60 01 ed bd
       0.046847656 0.13020562 0.131579 -0.11572528
000270 0e 74 b4 3d f3 ab 33 be d6 ea 66 bd c9 6f af bd
       0.08811198 -0.17546062 -0.0563763 -0.08566243
000280 34 2f 08 be a0 7a 83 bd f4 6c ae bd 40 47 d3 3c
       -0.13299257 -0.06419873 -0.08516875 0.02579081
000290 36 4d ff 3d 8b 29 0e 3e b0 60 8e 3d ce cf 9c 3d
       0.12465899 0.13883035 0.069520354 0.07656823
0002a0 48 ed 73 bd f9 79 a9 bd 3e 47 1f be 95 2a 15 3e
       -0.05955246 -0.082752176 -0.1555452 0.14567025
0002b0 78 cc a1 bc c4 6b 75 3d d1 6a db bd f3 ce 2a 3e
       -0.019750819 0.059917226 -0.10713733 0.16680507
0002c0 66 a2 a7 bd 68 0c bd 3c 35 0a 2e 3e 8e e0 e8 3d
       -0.08185272 0.023077205 0.16996081 0.113709554
0002d0 78 dc 45 bd 72 70 07 be d8 93 19 be c8 45 99 bc
       -0.04830596 -0.13226488 -0.14997804 -0.018710032
0002e0 bc 0d 13 be df 6d 1e be 48 1a 88 3c fa 53 b4 3d
       -0.14360708 -0.154716 0.016614094 0.0880508
0002f0 e6 7e cc 3d 53 88 07 3e 68 b9 df bc 8f 3c f8 bd
       0.099851415 0.13235597 -0.027310088 -0.12120926
000300 e3 21 09 3e 81 e7 28 3e 3f f6 23 be 61 de 11 be
       0.13391833 0.16494562 -0.16011904 -0.14244987
000310 e8 62 ee bd 54 99 53 bd 0c c6 17 be de c9 c1 3d
       -0.116399586 -0.051659897 -0.14821643 0.09462331
000320 63 57 2c be 89 1d 14 3e 42 45 ea 3d d8 f7 41 bd
       -0.1683021 0.14464392 0.11438991 -0.047355503
000330 f0 f5 8e 3c 0a f9 bc 3d 18 7e d3 3c 25 7a 33 be
       0.017451257 0.09227188 0.025816962 -0.17527063
000340 a0 b9 10 3d da 36 bf 3d 76 ef cf 3d 23 de 2a be
       0.035333276 0.09336634 0.101530954 -0.16686301
000350 5d a7 2e 3e 62 b3 ec 3d 99 f8 00 3e fa df e7 3d
       0.17056032 0.11557652 0.12594832 0.11322017
000360 ac a5 44 3d c3 47 95 bd d8 06 31 bd c6 cc 21 be
       0.04800956 -0.07289078 -0.043219417 -0.15800771
000370 58 f1 20 3d 68 1e d4 bd 85 11 2e be fc 4d 18 bd
       0.039292663 -0.10357362 -0.1699887 -0.037183747
000380 c0 bd 53 bc d6 43 d9 bd 2b ed 1c 3e 2f 26 01 3e
       -0.012923658 -0.10608642 0.15324847 0.12612222
000390 66 a9 f6 bd 0e ca 1c be bd 2a 24 3e ff ac 0e 3e
       -0.12044029 -0.15311453 0.16031928 0.1393318
0003a0 99 57 0d 3e f5 2e 26 be f3 f8 0a 3e f8 0b c5 3c
       0.13802947 -0.1622885 0.13571529 0.024053559
0003b0 be b3 e1 3d 6e 16 b9 3d 22 38 99 3d 70 9e 3a 3c
       0.11020611 0.09037481 0.074814096 0.0113903135
0003c0 ca a0 23 be a5 d2 de bd 9d 88 b3 bd 33 da 97 bd
       -0.15979305 -0.10880021 -0.08766291 -0.07414665
0003d0 14 48 00 bd 39 ad 2e be 4a 52 fc 3d 79 9f c0 bd
       -0.03131874 -0.17058267 0.12320383 -0.09405417
0003e0 f8 ff 24 bd aa b7 91 3d aa 4f d1 3d 22 dc 05 be
       -0.040283173 0.07115109 0.10220273 -0.13072255
0003f0 24 ab df bd 7d 89 34 be 86 d3 df bd d7 a0 07 3e
       -0.10921314 -0.17630573 -0.10929017 0.1324495

mlp.0.bias f4 [64]
000000 54 a3 ec bd c6 3a c1 3d 2f 8a db bd ae df ff 3d
       -0.1155459 0.09435038 -0.10719716 0.124938354
000010 52 b7 ad 3d ab b3 13 3e 8a 3c f6 3d 3c 7e a3 bd
       0.08482231 0.14424007 0.12023266 -0.07983062
000020 d6 a7 14 be 40 f0 56 bc da cd bc 3d c0 ae 7c bb
       -0.1451715 -0.0131188035 0.092189506 -0.0038556308
000030 ff 25 0a 3e 94 fd 53 bd e6 e1 e2 3d 8c 29 83 3d
       0.13491057 -0.051755503 0.11078243 0.06404409
000040 e8 bf 11 be ce d6 33 be c5 44 11 3e 7a 25 a3 3d
       -0.14233363 -0.1756241 0.1418639 0.079661325
000050 c1 49 01 3e 1f f1 9e bd f0 e1 1f be 04 b3 11 bd
       0.12625791 -0.07760834 -0.15613532 -0.035571113
000060 e5 2f 9c bd ab 98 12 3e 54 75 53 3d 45 ab 2e 3e
       -0.07626323 0.1431605 0.051625565 0.17057522
000070 00 f1 19 bd 36 28 00 be f8 f5 e8 3c 80 68 f3 bb
       -0.03758335 -0.1251534 0.0284376 -0.007428229
000080 b8 22 a2 bc 37 21 1e be b4 5b 14 be 7d 43 26 3e
       -0.019791946 -0.15442358 -0.14488107 0.16236682
000090 68 a8 fe 3c 82 c5 0a be c4 b1 2e 3d 66 94 96 3d
       0.031086162 -0.13551906 0.04265 0.073525235
0000a0 56 bd 83 bd ef e8 ba bd 57 2d 29 3e 82 2a d6 bd
       -0.06432597 -0.0912646 0.16521202 -0.104573265
0000b0 b4 c0 6c 3d 24 9c a8 bd 27 7d 05 3e 95 cf 33 3e
       0.057800964 -0.082329065 0.13036023 0.17559655
0000c0 af 06 27 3e ae eb 7e bd 8b bc df bd 1e 4a e7 3d
       0.16311143 -0.06223648 -0.109246336 0.112934336
0000d0 47 d4 1a be a3 66 fb bd 71 d7 b2 bd e8 ba 2c be
       -0.1512004 -0.12275436 -0.087324984 -0.16868174
0000e0 33 00 0b 3e e0 32 2c be 5b c7 de bd ba d6 f9 3d
       0.13574295 -0.16816282 -0.10877868 0.12199159
0000f0 01 d4 2d be 50 21 f2 bd 70 af 0a be 80 53 18 bd
       -0.16975404 -0.1182276 -0.13543487 -0.037189007

mlp.2.weight f4 [32, 64]
000000 2c 34 9c 3d 6c a5 2f bd 68 f0 88 3d 00 7a 90 ba
       0.076271385 -0.042882368 0.06686479 -0.0011022687
000010 fc a5 4a bd d0 2e 61 bc a0 8e bf bd a8 b6 c6 3d
       -0.0494747 -0.013744071 -0.093533754 0.09702808
000020 d4 a3 8a bd d0 a4 b1 bc 50 25 ed bc 52 47 d8 bd
       -0.06769529 -0.021685034 -0.028948456 -0.10560478
000030 7c d8 cd 3d 00 3f 5d bd 18 51 cf bc 78 28 c0 3c
       0.10051057 -0.05401516 -0.025307223 0.023456797
000040 60 86 77 bd a8 b3 9a bc ac df 79 bd a0 b6 be 3d
       -0.060430884 -0.018884495 -0.061004326 0.09312177
000050 4a ee 81 bd 26 b2 f4 3d 4a 5a 80 3d ac 78 3f 3d
       -0.06344278 0.119480416 0.06267221 0.04674594
000060 c0 3c cd bc f4 3a df 3d 00 a4 57 3a f2 70 b3 bd
       -0.025053382 0.10899916 0.0008226037 -0.08761777
000070 80 9b 1f bd 6e f0 ca bd 94 0d f8 bd 62 68 8b bd
       -0.038966656 -0.099091396 -0.12111965 -0.06807019
000080 78 7f de bc 84 a1 62 bd a8 63 41 bd c8 97 96 bc
       -0.027160391 -0.055329815 -0.04721418 -0.018382922
000090 48 aa b7 3c 84 e4 9c 3d 54 e6 7c bd 90 dc 34 bc
       0.022420064 0.076607734 -0.061743096 -0.011038914
0000a0 e6 1c b5 bd fe 43 e4 3d b0 bb 5f bd b8 94 29 bd
       -0.088434026 0.11145781 -0.054622352 -0.041401595
0000b0 18 64 9f 3c 00 53 22 3a f2 ba 86 bd a6 4b ff 3d
       0.019456908 0.00061921775 -0.06578626 0.12465601
0000c0 10 8e 70 bd c2 18 fb bd 10 b7 73 3c a4 3f 9a bd
       -0.05872923 -0.122605816 0.0148751885 -0.0753167
0000d0 e0 75 e7 bd 82 7b a6 bd c4 7e 4d bd cc d5 16 bd
       -0.1130178 -0.08129026 -0.05016972 -0.036824986
0000e0 a0 57 43 bd 34 cf 04 bd 54 84 f5 bd b6 c4 80 3d
       -0.047690988 -0.032424167 -0.1198813 0.0628752
0000f0 62 70 d5 bd f0 ff a7 bc c2 ea ec bd c4 af 0c 3d
       -0.10421826 -0.020507783 -0.11568214 0.03434731
000100 08 c1 23 3d 5c d0 f1 3d f4 dc 01 bd a8 d6 d5 bd
       0.03997901 0.118073195 -0.031704858 -0.10441333
000110 b0 4b d8 3d 4e f9 f1 bd 60 b0 41 bd 78 41 07 3d
       0.10561311 -0.11815129 -0.047287345 0.03302142
000120 82 ed f8 bd 10 22 ae 3d 28 85 3d 3d d0 26 6b bd
       -0.12154676 0.08502591 0.046269566 -0.05741006
000130 3e ba ad 3d 70 d1 5c 3c a8 73 ae bc 40 5d 29 bb
       0.084827885 0.013477668 -0.021295384 -0.0025842935
000140 a8 6a d4 3c 60 25 d6 bb 08 9d d2 3c 00 73 0a 3d
       0.025929764 -0.006535217 0.025709644 0.03380108
000150 08 2a 07 bd d6 e9 8e bd 38 09 43 bd 98 15 8e bc
       -0.03299907 -0.069781944 -0.047616214 -0.017344281
000160 fc 63 ee bd f2 d4 d7 3d be 84 99 3d 48 fd 35 3d
       -0.11640164 0.10538663 0.07496022 0.044431
000170 5a f9 b7 bd c0 8c e3 3d 14 7b 16 bd e8 a6 2c 3d
       -0.08983107 0.1111083 -0.03673847 0.04215136
000180 ac 81 f7 bd 00 83 d4 bd c4 8d 23 bd 26 ba dc bd
       -0.1208528 -0.10376549 -0.03993012 -0.107776925
000190 84 8a fd 3d 56 0a 82 bd 2c 2d 3f 3d b8 3d 46 3d
       0.123799354 -0.06349628 0.04667394 0.048398703
0001a0 be 75 c6 3d 26 0b a4 3d a8 e5 84 3d 92 4b 82 3d
       0.09690426 0.08009939 0.06489116 0.0636207
0001b0 16 90 cc bd 74 f5 f9 bd d4 44 85 3d 74 19 d4 bd
       -0.0998842 -0.122050196 0.065072685 -0.10356417
0001c0 26 1b 83 bd d4 5d 4c 3d 30 c8 2d 3c 50 ad dc bd
       -0.064016625 0.04989417 0.01060681 -0.10775244
0001d0 a8 af a9 3c 38 32 80 bd bc 72 48 bd 40 a4 3a 3c
       0.020713642 -0.062595785 -0.048937544 0.011391699
0001e0 56 3f 88 bd 6c fb 5c bd 50 99 2e 3d 80 f2 54 bb
       -0.06652705 -0.053950712 0.04262668 -0.0032493174
0001f0 72 f6 e0 3d 0a 0f 9a bd f0 3d 9b bc ae 5b bb 3d
       0.10984506 -0.075224 -0.018950433 0.09148346
000200 e8 df dd 3d 90 f1 c5 bc 38 9b 6d bd c8 5e de 3d
       0.10833722 -0.024163038 -0.058009356 0.10857922
000210 1e f9 d6 3d 42 ba ee 3d dc 34 8b 3d f0 58 b8 3c
       0.10496734 0.116566196 0.067971915 0.022503346
000220 20 e6 83 3d 5c 71 72 bd b2 87 d1 bd 78 be 92 3c
       0.06440377 -0.05919014 -0.1023096 0.017913088
000230 50 18 b0 3d 94 2c b8 bd d8 91 1d 3d b6 47 a6 3d
       0.08598387 -0.089928776 0.038469166 0.081191465
000240 28 67 8d 3c 80 88 34 bb e8 3d f1 bd d6 d5 a6 bd
       0.017261103 -0.002754718 -0.11779386 -0.08146255
000250 88 47 bc bc ee 81 92 3d 30 35 e6 3d 5e ff 98 3d
       -0.022983328 0.07153688 0.112406135 0.074705824
000260 bc 71 8f bd 74 7b d3 bd 26 ac a2 3d 92 f5 fb bd
       -0.07004115 -0.10326281 0.07942991 -0.12302698
000270 00 8e a8 bd 40 fa fd 3c d2 48 8d bd 10 00 c3 3c
       -0.08230209 0.031003118 -0.06898655 0.02380374
000280 f8 11 a0 bc 58 17 87 3d 24 20 b2 bd 68 21 08 3d
       -0.019539818 0.06596249 -0.086975366 0.033234984
000290 50 b2 5e 3c 94 ce 78 bd b4 a9 04 3d ca 9d 96 3d
       0.013592318 -0.060743883 0.032388404 0.073543146
0002a0 88 b5 7e bd 00 15 eb 3a 80 7b 02 3b 38 5c a2 bd
       -0.06218484 0.0017935336 0.0019910038 -0.079277456
0002b0 50 d5 cb bc 34 98 17 3d 5c 8b cc 3d 2c c8 77 bd
       -0.024881989 0.037010387 0.09987518 -0.060493633
0002c0 bc ef ee bd f0 af 55 3d a6 2e ff 3d 82 97 f5 bd
       -0.116668195 0.05216974 0.12460069 -0.119917884
0002d0 e0 26 40 bd 60 c5 c7 3c a4 58 19 bd 12 f9 f1 bd
       -0.046912074 0.024386108 -0.03743805 -0.118150845
0002e0 80 06 cb bb b8 65 70 3d e4 a8 d6 3d 0c 86 51 bd
       -0.006195843 0.058690757 0.10481432 -0.051153228
0002f0 28 f7 6e bd 12 e3 9a bd 90 1e db bd 0c 61 f8 bd
       -0.058341175 -0.075628415 -0.10699189 -0.12127885
000300 54 a6 5f 3d 80 e8 5b bb 60 f9 6e 3c 8e e6 b7 3d
       0.054601982 -0.003355533 0.014585823 0.08979522
000310 a0 64 87 bd 48 47 61 3d c0 d9 9b bd b8 da a4 bd
       -0.066109896 0.05499962 -0.07609892 -0.0804953
000320 00 27 ad ba 48 67 c0 3c 28 97 9f 3d 36 5e 82 3d
       -0.0013210475 0.023486748 0.07792503 0.063656256
000330 ca c8 c5 bd a4 72 ce bd f0 86 92 3d 7a b0 c5 3d
       -0.09657438 -0.1008046 0.071546435 0.09652801
000340 40 c2 28 bc c4 77 ac bd 98 ab ac bc ae 37 97 bd
       -0.010300219 -0.08421281 -0.021077916 -0.07383667
000350 50 db 48 bd 48 56 90 3d 72 46 d5 bd aa 44 88 3d
       -0.049037278 0.07047707 -0.10413827 0.06653722
000360 08 d0 76 3d ea 30 dc bd 04 cf 50 bd d0 70 bc 3d
       0.060256988 -0.10751517 -0.050978675 0.09201205
000370 f0 ba 49 3d a4 2f 20 bd 58 a9 d5 3c 44 8b de bd
       0.049250543 -0.039107934 0.026081726 -0.108664066
000380 80 2f 19 bb 3a 0c 85 3d 9c 23 3a bd 70 d7 9f bc
       -0.002337426 0.06496473 -0.045444116 -0.019511908
000390 10 ec 4f bc ec 7f f9 3d dc 46 5e bd 60 03 38 3d
       -0.012690559 0.12182602 -0.054266796 0.044925094
0003a0 60 d3 e3 3c 8c 78 32 bd be df e5 bd 22 a5 fa 3d
       0.027810752 -0.043571994 -0.11224316 0.12238528
0003b0 b8 19 a2 3d c8 68 16 bd 84 f5 9e bd 82 4f f8 bd
       0.07915062 -0.03672102 -0.07761672 -0.1212454
0003c0 80 97 e9 bb c8 7f f6 3c 70 52 c3 3c 20 17 68 3d
       -0.007128656 0.030090228 0.02384302 0.05666268
0003d0 42 3b a8 3d 68 74 bb bd de bc a6 3d d8 e8 78 bd
       0.082144275 -0.09153062 0.08141492 -0.060768932
0003e0 80 20 d0 ba c4 64 ad 3d 06 44 fb bd 4c 52 a7 3d
       -0.0015878826 0.08466485 -0.12268834 0.08169994
0003f0 98 5b 7a 3d 44 32 c2 bd e0 3b 35 3d e0 cb 9c 3b
       0.061122507 -0.09482244 0.044246554 0.004785046

mlp.2.bias f4 [32]
000000 3e f0 b2 bd 90 fa 3f bd 40 1c ca 3b 08 be ab bd
       -0.08737229 -0.046869814 0.0061679184 -0.08385855
000010 9c f8 2e 3d 7c 69 e3 bd 14 d9 33 bd ba 5c a7 bd
       0.04271756 -0.11104104 -0.043908194 -0.08171983
000020 fe 5e d0 bd b4 d4 ee bd a0 ce a7 3d 20 2d b6 bd
       -0.10174368 -0.11661664 0.081937075 -0.08895326
000030 06 2e e6 3d 64 23 d9 3d 60 1e 7a 3d a8 33 ff bd
       0.11239247 0.10602453 0.061064124 -0.124610245
000040 9c 10 6a bd b2 90 c5 bd ce fb 84 3d 60 b9 0e 3c
       -0.057144746 -0.09646739 0.064933404 0.008711189
000050 18 34 d5 3c 0c 89 be bd c8 ec a9 3c 80 f2 87 bb
       0.026025817 -0.09303483 0.020742789 -0.0041487813
000060 50 dd e7 bd be 5b e2 bd 52 e0 ee 3d 40 5a 99 bd
       -0.11321509 -0.11052655 0.116638795 -0.07487917
000070 00 3d 7d 3a fc d0 c5 bd cc 73 f9 bd b4 a1 0e 3d
       0.0009660274 -0.09659001 -0.121802896 0.03482218

mlp.4.weight f4 [16, 32]
000000 28 79 d5 3c 7c 90 02 be 5c 8a 87 3d 15 63 2d be
       0.026058748 -0.12750429 0.06618187 -0.16932328
000010 d0 ae 69 bc b5 29 28 3e a2 0e ab 3d f0 4e 1b 3d
       -0.01426287 0.1642216 0.083524 0.037917078
000020 cc 23 f0 bd 06 5b af 3d 20 2e 77 bc da 43 be 3d
       -0.11725578 0.08562283 -0.015086681 0.092902854
000030 fa b5 a1 3d 1f 69 2f be ba ec ec 3d ec 62 3f bd
       0.078960374 -0.17129944 0.115685895 -0.0467252
000040 c0 bb 1d bd 24 12 25 3d 60 1f 0b 3d f4 81 e5 bd
       -0.03850913 0.040300503 0.03396547 -0.11206427
000050 18 54 4a 3d 04 a3 26 be 8f 5a 29 3e aa f3 a7 3d
       0.049396604 -0.16273123 0.16538452 0.08200772
000060 52 1f f9 3d d6 0c 81 bd bd e2 c6 bd d3 b0 06 3e
       0.12164177 -0.063012764 -0.09711216 0.1315339
000070 28 c6 83 bc cb 43 25 3e 30 c0 c4 3c c2 c9 e0 3d
       -0.0160857 0.16139142 0.024017423 0.10975982
000080 ed e3 32 3e dc 77 55 3d d4 c4 26 3d 60 33 81 3c
       0.1746976 0.05211626 0.040715054 0.015771568
000090 73 d5 28 3e 38 d6 4d 3d d9 f1 2d 3e 72 33 e1 3d
       0.16487674 0.050253123 0.16986789 0.109961405
0000a0 cb 6e 23 3e f8 98 f4 bc 8a 55 fa 3d 00 96 4e 3b
       0.15960233 -0.029858097 0.122233465 0.0031522512
0000b0 fa 1c ac 3d 82 4e a0 3d 5c e1 69 bd 3f 20 30 3e
       0.08403964 0.07827474 -0.057099685 0.17199801
0000c0 49 b9 0f 3e 86 8c ff 3d 89 66 33 be ac 3d c4 bd
       0.14035524 0.124779746 -0.17519583 -0.095820755
0000d0 ca f3 de 3d 42 a7 c3 bd a8 0c 01 be 15 49 cb bd
       0.10886343 -0.09553386 -0.12602484 -0.09926049
0000e0 bd ad 19 3e 0b dd bc bd 9a e7 f6 3d 70 c9 a2 3c
       0.15007682 -0.09221848 0.12055893 0.019871444
0000f0 b1 44 1d be 7c ad f8 bd 80 f8 2a bb fe f2 af 3d
       -0.15358235 -0.121424645 -0.002608806 0.08591269
000100 f0 e2 34 be 40 3e dc 3c b8 f9 b7 bd 2c 68 52 bd
       -0.17664695 0.026885152 -0.08983177 -0.051368877
000110 53 94 a9 bd 82 da f5 3d 79 54 28 3e 70 f8 53 bd
       -0.08280244 0.12004568 0.16438474 -0.0517506
000120 06 29 c3 3d a0 a6 1d bd 08 57 8a 3d 53 04 0e 3e
       0.09529309 -0.038488984 0.06754881 0.13868837
000130 86 e2 ce 3d 72 69 c8 bd d7 eb 22 3e 2a 32 5e bd
       0.101018 -0.09785737 0.15910278 -0.05424706
000140 5a df b1 3d 55 a0 d1 bd e0 4b cf bc c0 b3 ca 3b
       0.08685179 -0.10235659 -0.025304735 0.0061859787
000150 d6 cf a1 3d 69 cc 12 3e 0e 27 c9 3d 6c c1 33 3d
       0.0790097 0.14335789 0.09821902 0.043885633
000160 40 63 32 3d e1 49 bc bd 50 7c 92 bc 42 e8 11 be
       0.043551683 -0.09193779 -0.017881542 -0.14248756
000170 18 f0 c9 bc 01 1f 13 be 93 28 01 3e 52 b3 8e 3d
       -0.024650618 -0.14367296 0.12613134 0.069677964
000180 e8 01 a7 bd 6e 1a e5 bd 75 9d 24 3e 40 4a bf 3c
       -0.081546605 -0.11186682 0.1607569 0.023350835
000190 10 f5 57 bc 90 93 2a bc 26 63 c1 3d 98 7c 66 3d
       -0.013180986 -0.010411158 0.09442739 0.056271166
0001a0 53 22 0b 3e 36 2f d1 3d 45 e7 ca bd f1 48 af bd
       0.13587312 0.10214083 -0.099073924 -0.08558834
0001b0 5f 9c bd bd 82 59 f9 3d 14 4b 92 3d 9c ac fb bd
       -0.09258341 0.121752754 0.07143226 -0.12288782
0001c0 b0 e9 5e 3d 05 59 d4 bd 60 70 44 bc 04 3b 5d 3d
       0.05442208 -0.10368542 -0.011989683 0.05401136
0001d0 8e f5 9e 3d b0 15 48 bc ad 49 21 be 84 e7 35 bd
       0.077616796 -0.012212202 -0.15750761 -0.044410244
0001e0 6a 27 33 be dd b1 99 bd 70 65 22 bc de 47 fb 3d
       -0.17495504 -0.07504628 -0.00991188 0.12269567
0001f0 c0 a5 79 bd 7a 3b de 3d fb 33 1e 3e a5 c1 2b be
       -0.060949087 0.10851188 0.15449516 -0.16773088
000200 77 65 c0 bd cd 56 ed bd 34 40 1c be da f0 c0 3d
       -0.09394353 -0.115888216 -0.15258867 0.09420939
000210 80 5e 94 3c 31 f8 25 3e c3 06 93 bd 35 95 d1 bd
       0.018111467 0.16207959 -0.07179024 -0.10233537
000220 c4 fd 17 bd 19 c2 06 be 50 bc 35 3d 10 5f 75 3d
       -0.037107244 -0.1315998 0.044369042 0.05990511
000230 48 50 1c 3d 11 05 08 3e 4b f7 1b be 5d b7 30 3e
       0.0381625 0.13283183 -0.15231054 0.17257448
000240 f2 57 8d bd b2 f2 6b bd 84 2a f6 bd b0 78 8e bc
       -0.0690154 -0.0576045 -0.12019828 -0.017391533
000250 66 82 d3 3d b2 c1 f6 bd 84 a9 7c 3d 04 d5 38 bd
       0.10327606 -0.12048663 0.0616851 -0.045125023
000260 f4 5c 2c be 6d b1 0a 3e cd f9 cd bd a0 dd 1d bd
       -0.16832334 0.13544245 -0.10057411 -0.038541436
000270 e5 6b b6 bd 32 8e f0 bd 50 f3 12 3d 36 24 06 be
       -0.08907298 -0.117458716 0.035876572 -0.13099751
000280 80 c6 6f bd 32 fb ad 3d 32 f2 ea 3d 12 43 a9 3d
       -0.058538914 0.08495177 0.11471976 0.08264746
000290 2a af e5 bd 16 73 73 bd ea 0a 14 be 28 f7 c7 bc
       -0.112150505 -0.059435926 -0.14457288 -0.024409845
0002a0 00 36 40 3a 99 b9 1c be ee 12 d9 3d 72 d8 a0 3d
       0.00073322654 -0.15305175 0.10599314 0.07853784
0002b0 bd 0a f4 bd b7 c4 0b 3e 4e f6 e8 3d 85 53 0f 3e
       -0.11916111 0.1364926 0.11375104 0.13996704
0002c0 96 b0 81 bd 9f 44 05 be 92 15 e3 3d a0 ba e2 3c
       -0.06332509 -0.13014458 0.110880986 0.02767688
0002d0 b9 86 22 3e c0 13 47 bd 90 ed 2a 3c 44 7f 33 3d
       0.15871705 -0.04860282 0.010432616 0.04382254
0002e0 f0 ff e8 3c 40 fd d6 3c e8 03 d1 bc d8 25 f4 bc
       0.028442353 0.026243806 -0.025514558 -0.029803202
0002f0 c0 54 fe 3b e2 a1 2e be 1a 15 1d be 82 5e 89 bd
       0.007761568 -0.17053941 -0.15340081 -0.06707479
000300 8e e9 ac 3d 06 24 ed 3d 9d ee 1f be 16 87 d4 3d
       0.084429845 0.115791366 -0.15618367 0.10377328
000310 f6 55 7c bd d0 8a 8f bd f2 5b b7 3d 00 fc 07 3d
       -0.061605416 -0.07008898 0.08953084 0.03319931
000320 ea 46 c4 3d c8 6a 61 3d b0 ef 0f 3c 12 c7 a6 3d
       0.09583838 0.055033475 0.008785173 0.081434384
000330 97 9a c6 bd c4 08 0e be 2c 7c 1a 3d 44 d0 07 bd
       -0.096974544 -0.13870531 0.037716076 -0.033157602
000340 e0 0a 1e bc 77 ed 0c be 85 e8 11 3e da cc ac 3d
       -0.0096461475 -0.1376246 0.14248855 0.0843751
000350 37 51 1a be ca 82 fd 3d a1 54 31 3e c9 c4 18 3e
       -0.15070044 0.12378462 0.1731744 0.14918818
000360 cc 9c 6d bd ce 33 f4 3d 5b 93 34 3e 6a dd 16 be
       -0.05801086 0.119239435 0.17634337 -0.147329
000370 1a f1 b6 3d ca 01 94 3d 1e 1d fc bd 77 2d 93 bd
       0.08932705 0.07226904 -0.12310241 -0.07186406
000380 50 28 2a bc 0d ec 15 3e 66 07 be bd 42 96 fb bd
       -0.010385588 0.14640827 -0.09278755 -0.12284519
000390 47 da c3 bd 9b 1d de bd 84 82 10 3d cc 2f f6 bd
       -0.095631175 -0.108454905 0.03528072 -0.12020835
0003a0 e2 a4 14 be 7a a6 b3 bd 38 08 d0 bc 00 f9 73 3d
       -0.14516023 -0.08771987 -0.025394544 0.059563637
0003b0 e0 73 a4 3b cf f9 e5 bd 75 a4 30 be a8 38 b2 3c
       0.005018696 -0.11229288 -0.17250235 0.021755531
0003c0 75 6b d5 bd a0 7e 23 bd 9e e4 d2 bd b0 c4 2d be
       -0.104208864 -0.03991568 -0.102975115 -0.16969562
0003d0 30 42 f8 bc bd c0 06 3e 7c 0c 70 3d 1c 3e 19 3d
       -0.030304998 0.13159461 0.058605656 0.037412748
0003e0 54 57 88 3d 60 8d 89 3c 22 af e3 bd 45 28 c6 bd
       0.066572815 0.016791046 -0.11117388 -0.096756496
0003f0 dc 49 65 3d 2b df 04 3e 58 f0 11 bd 78 e7 fa bd
       0.05597864 0.12975757 -0.0356296 -0.122511804

mlp.4.bias f4 [16]
000000 5d ed 04 3e 6a 17 c6 3d 17 92 0e 3e 1e b7 c0 3d
       0.12981172 0.09672435 0.13922916 0.09409927
000010 81 53 23 3e 82 e6 b2 3d 52 59 b6 bd f3 e2 1f 3e
       0.15949823 0.08735372 -0.08903755 0.15613918
000020 99 08 17 3e 42 66 f4 3d b6 c6 8a bd 20 86 13 3c
       0.14749373 0.11933567 -0.06776182 0.009004146
000030 94 8a 48 3d f9 41 0b 3e 44 2e 68 bd 18 be c5 3c
       0.048960283 0.13599385 -0.056684747 0.024138495

prediction_layer.weight f4 [1, 32]
000000 1b 3b 13 3e 18 9c 87 bd 18 3f 4d 3d 8d 74 b5 bd
       0.14378016 -0.066215694 0.050109 -0.08860121
000010 6d 9d 0e be b0 58 23 bd 96 b6 9a bd 1c a8 f1 bd
       -0.1392724 -0.0398795 -0.07554357 -0.117996424
000020 8d ee 20 3e 3a 2b fc 3d 3b 76 2b 3e 30 4a fd 3c
       0.15716 0.12312932 0.1674432 0.030919164
000030 ee cf b7 3d 93 06 db bd 90 5f 15 3c 66 74 d8 3d
       0.08975206 -0.10694613 0.009117022 0.10569076
000040 6a c0 ec 3d e0 06 d8 3b 09 20 a1 bd a0 29 df bb
       0.115601376 0.0065926164 -0.07867438 -0.006810382
000050 e0 9a f5 3c 9b 67 2b be 16 83 11 be 42 7f f0 3d
       0.029981077 -0.16738741 -0.14210162 0.117430225
000060 6d 1e b5 bd 23 6b 25 3e a8 d0 2c be b7 89 be bd
       -0.08843694 0.1615415 -0.16876471 -0.09303611
000070 b4 74 27 3d 96 24 aa 3d ae 00 b7 3d e0 54 0e be
       0.04088278 0.083077595 0.089356765 -0.13899565
