ncf_model.pth (torch, 24722 bytes, 11 tensors)

P.weight f4 [7, 16]
000000 a0 3a 02 3f e0 54 17 3f 0c 2a cd 3d a3 1d aa 3f
       0.50870705 0.59113884 0.100177854 1.3290294
000010 bc 92 7a 3e f7 6e 4b 3f a2 aa d1 bf b3 c1 c1 3f
       0.24470037 0.79466194 -1.6380198 1.5137237
000020 c7 6a bb be a9 2a 02 40 6a 8a 4e bf d5 23 d0 3f
       -0.36604902 2.0338538 -0.80679953 1.6260935
000030 61 36 06 40 96 69 25 bf e7 d6 0e 40 e7 4a ed be
       2.097069 -0.64614236 2.2318666 -0.46346208
000040 e3 50 aa bf cc 56 6c 3d 3f 72 0b 40 4f c3 ee bf
       -1.3305935 0.057699963 2.178848 -1.8653353
000050 5b d2 79 3e b5 44 df bf 3d 38 17 bf 38 76 83 be
       0.2439665 -1.7442843 -0.5907019 -0.2567613
000060 81 e4 3e bd 8e d6 08 bd 42 1c df bd 22 4b 80 3f
       -0.046604637 -0.03340774 -0.108940616 1.0022929
000070 09 c0 00 c0 2d bf 91 3e ec c2 a7 be b0 2a 53 bf
       -2.011721 0.28466168 -0.327659 -0.8248701
000080 9c 63 08 bf 4b fb df 3f 9b 9f db 3f 13 9b 3b 3f
       -0.5327699 1.7498564 1.7158083 0.732835
000090 9b f0 43 bf 71 14 83 3d 43 bf 8e 3e f5 ca b8 be
       -0.7653901 0.06400383 0.27880296 -0.36092344
0000a0 9f b1 32 3f c1 b4 db be 33 b1 4d bf 22 2e 9b 3e
       0.6980228 -0.42911342 -0.8034851 0.30308634
0000b0 53 62 83 3f 5e 43 78 be d1 d8 24 3e 45 b9 18 be
       1.0264381 -0.24244449 0.16098334 -0.14914425
0000c0 93 bc 7c be 85 7c 87 bc 88 6e 9d 3e 4c 4f ec 3f
       -0.2468131 -0.016538868 0.3074839 1.84617
0000d0 41 c3 5b 3f f4 d2 62 3f 28 9b 5e bf bf 4f 6e 3f
       0.8584481 0.8860314 -0.869555 0.9309043
0000e0 bc a4 14 3e 8a 32 9a bf a6 af f6 be 70 3c 90 bf
       0.14515966 -1.2046673 -0.48180884 -1.1268444
0000f0 38 92 c7 bf 68 0c 5d 3d 7c 49 e1 3d c8 f4 c7 bc
       -1.5591497 0.05396691 0.11000344 -0.024408713
000100 b0 5b f9 3e 7f 8e b1 be 5b 11 43 be d8 b1 08 40
       0.48702765 -0.34679028 -0.1904959 2.1358547
000110 23 c7 f1 bf c0 58 1b 3b 5d 64 0c c0 26 f4 b2 3f
       -1.8888897 0.0023704022 -2.1936257 1.3980758
000120 ff 02 94 be 76 96 90 3e 32 c3 fb bf 6b f0 96 3f
       -0.28908536 0.28239793 -1.9668944 1.179212
000130 a6 3d 3a bf 6c f9 15 3f 14 53 0a 3f 8a e6 0c 3f
       -0.7275032 0.5858371 0.5403302 0.55039275
000140 9b 71 33 3f be 3f 9b bf 84 43 2f bf 15 89 a2 bf
       0.70095223 -1.2128828 -0.68462396 -1.2698084
000150 04 dc 0c bf 75 24 c7 3e 25 da e5 3f ce 65 aa be
       -0.5502322 0.38895002 1.7957197 -0.33280796
000160 64 3f 6a bf 90 03 f1 be ed 3f c0 3f cd 5c 72 bf
       -0.91502976 -0.4707303 1.5019509 -0.9467285
000170 a0 29 bc be 59 6f d7 3f b7 8b 91 be 33 78 dc be
       -0.36750507 1.6830856 -0.28426906 -0.43060455
000180 83 ca 66 3f fe 1c ae be 2b b6 78 bf b1 87 99 be
       0.9015276 -0.34006494 -0.97152966 -0.29986337
000190 4f 65 95 bf 1e 80 ab bd 72 e4 ba be 98 49 47 3f
       -1.1671542 -0.08374046 -0.36502415 0.7784667
0001a0 75 50 60 3f 74 0c ce 3e f8 01 a0 bf 11 34 bb be
       0.8762277 0.40243876 -1.2500601 -0.3656316
0001b0 5a a6 98 be 01 59 8c be 9c ce 67 bd 3c db b0 3c
       -0.29814416 -0.27411655 -0.056593522 0.021588914

user_emb.weight f4 [7, 16]
000000 05 53 a6 3e eb 58 30 bf 90 dd 82 3f f4 1b 8c 3f
       0.32485214 -0.6888568 1.0223866 1.0946031
000010 85 8b e6 3f fd 61 31 bf 35 71 8f bf 63 49 a6 3f
       1.8011328 -0.69290143 -1.1206423 1.2991146
000020 0c cf 41 bf 53 58 c7 3e 15 b1 69 3f fd 72 c6 bf
       -0.75706553 0.38934574 0.9128583 -1.5503842
000030 ba 99 6b bf 1b 9c 8f be 60 a6 16 be 38 c6 17 3f
       -0.92031443 -0.28048787 -0.14711905 0.5928683
000040 f6 e6 76 3f 13 24 bd 3e 50 1e 1a bb f3 24 eb 3f
       0.9644617 0.36941585 -0.0023516603 1.8370651
000050 c3 d4 91 3e d8 1b 1f 3f f0 f8 6b bf a8 7c 49 bc
       0.28482637 0.6215186 -0.92176723 -0.012297787
000060 51 4d 29 3f 72 90 02 c0 45 8f cd bf 65 12 26 bf
       0.661336 -2.0400662 -1.6059347 -0.6487182
000070 96 c4 4a c0 41 40 bf bf d2 0c 34 3f 3b 59 11 bf
       -3.1682487 -1.4941484 0.7033206 -0.5677678
000080 65 fd c2 bf 9c d3 d8 3e 8c d3 7e 3f c8 da 6a bf
       -1.523358 0.42348945 0.99541545 -0.91740084
000090 4f b4 ba be 64 b4 26 bf ea 99 75 3f 28 23 0d 3d
       -0.3646569 -0.65119004 0.9593798 0.034457356
0000a0 c8 dc 4c 3f c6 35 0d c0 2f 3e 5c 3e 8f 76 6d 3f
       0.80024385 -2.206407 0.21508096 0.9275903
0000b0 9a d6 09 3f e3 e5 74 3f 1e ea c6 bf 43 5f 53 be
       0.5384308 0.9566328 -1.5540197 -0.20641808
0000c0 4f 4f 09 bf 93 50 40 bf fb 36 20 3f e3 ae de 3e
       -0.5363664 -0.75122947 0.62583894 0.43492803
0000d0 74 b0 99 3f 5a 75 3b bf 52 2b 8d 3e dd e6 1c bf
       1.2006974 -0.7322594 0.27572113 -0.6128977
0000e0 4e 8b f1 be af 8c cf 3e 2b 77 24 3f 06 01 3c bf
       -0.47176594 0.4053702 0.64244336 -0.7343906
0000f0 5c ae 29 bf 13 16 7d 3f ba 2c b0 bf 41 1f 6a be
       -0.66281676 0.9886181 -1.376365 -0.22863485
000100 9c bb 43 c0 95 ca 91 3f 4e 8b 2c bd 00 34 cc 3f
       -3.0583258 1.1389948 -0.04212504 1.5953369
000110 7e 6f c8 3d 4e 92 62 bf a6 88 7b be 4f e9 84 bf
       0.097868904 -0.88504493 -0.24563846 -1.03837
000120 37 b2 7a 3f 10 c0 33 3f 4c 65 28 3f 73 5b 0f c0
       0.97928184 0.7021494 0.65779567 -2.2399566
000130 e1 75 df 3f 3a 83 41 bf 0f 05 3a 3e f4 30 ba bf
       1.7457849 -0.7559086 0.18165992 -1.4546189
000140 86 28 96 3e 51 56 c8 3e 5d 25 90 be 94 a1 72 3e
       0.29327792 0.39128354 -0.28153506 0.2369445
000150 08 6f 78 3f 25 1b 6b 3f 1c 8a 15 bf f9 a2 0a bf
       0.9704442 0.91838294 -0.58413863 -0.54154927
000160 8c 21 76 3f 65 8b b1 be 66 06 d3 be 2c 36 39 3f
       0.9614494 -0.34676662 -0.4121582 0.72348285
000170 0e 02 89 bf 2d af 29 bf 2b d3 1b c0 2e c9 b5 be
       -1.0703752 -0.6628292 -2.4347637 -0.3550505
000180 4e fc cc 3f 9f ac 38 3f 40 da 44 bf 48 3a 20 be
       1.6014497 0.721384 -0.76895523 -0.15647233
000190 8c 5a f4 be 90 47 9f bf 7a d6 3f 3e 3d 20 95 3d
       -0.47725332 -1.2443714 0.1873416 0.072815396
0001a0 5a 4d 34 3f 6a 43 c8 3f eb 8b 28 3f e9 18 1f 3f
       0.7043053 1.5645573 0.658385 0.62147385
0001b0 1b c9 07 3f d7 38 11 be 1e ba 21 be e2 c6 d8 bf
       0.5304124 -0.14181839 -0.15793654 -1.6935694

Q.weight f4 [3, 16]
000000 e6 a9 56 3e 15 77 89 bf d3 b8 a4 bc 97 84 3f 3f
       0.20963249 -1.0739466 -0.020107662 0.7481169
000010 2d 60 ea be 88 47 a8 bf fd c2 77 bf 48 2b 39 bf
       -0.457765 -1.314683 -0.96781904 -0.72331667
000020 c3 eb 9c 3e c3 5a b0 be f8 17 b9 be b5 b8 5f be
       0.30648622 -0.34444246 -0.361511 -0.21847804
000030 ef 3e d1 bf 1f 69 08 3e 5d e9 e7 bf 21 1d 0e 3f
       -1.6347331 0.1332135 -1.8118092 0.555132
000040 c4 b1 a0 be 34 a3 08 40 3f 00 1c 3e 70 c0 09 c0
       -0.31385624 2.1349611 0.15234469 -2.1523705
000050 9a cc 3c 3f 21 87 80 bf d0 80 7d 3f df 7a c7 3e
       0.737497 -1.0041238 0.9902468 0.3896093
000060 eb 39 ca 3e d2 f6 9a bf 63 6d 02 c0 2f 4a 1f 40
       0.39497313 -1.2106574 -2.0379264 2.4889028
000070 5a c0 1e bf fb 92 3d bf 7f 09 0e 3f ee 29 87 3e
       -0.62012255 -0.740524 0.5548324 0.26399177
000080 3d ff 15 bf 2e ca ef 3f be 28 05 be c1 53 1d 40
       -0.5859259 1.8733575 -0.13003823 2.458237
000090 b6 80 0b bf 23 07 da be 68 07 ab 3d e6 bf 9f 3f
       -0.5449327 -0.4258357 0.08351022 1.2480438
0000a0 06 61 18 3f 74 52 15 bf c0 62 4b 3d d1 bd ef 3f
       0.59523046 -0.5832894 0.049654722 1.8729802
0000b0 70 58 a1 3e c9 b9 dc bf 77 f6 d4 bb 88 0c a9 3d
       0.31512785 -1.7244197 -0.0064991075 0.08254343

event_emb.weight f4 [3, 16]
000000 3d b1 72 bf 86 d6 ad 3d ff 5a 34 bf 3f 26 1b bf
       -0.94801694 0.08488183 -0.7045135 -0.60605234
000010 ce 80 68 bf 53 97 33 bf dd 29 3e bf 52 a9 9c 3f
       -0.9082154 -0.7015278 -0.7428263 1.2239172
000020 26 0f 75 3f 77 ab b6 3d 35 fc db 3f da e2 8f bf
       0.9572624 0.08919423 1.7186342 -1.1241105
000030 58 17 b8 be 08 02 2a 3f e4 c1 c0 bf 26 f7 15 bf
       -0.3595531 0.6640935 -1.5059171 -0.58580244
000040 f9 ad ac bf f5 4a 1e 3f 67 3e 81 bf 75 bc b8 bf
       -1.3490592 0.61833125 -1.0097169 -1.4432513
000050 07 7c 35 3f 96 2a 16 bf b6 ee cc bf fb d0 4c bf
       0.70892376 -0.5865873 -1.6010349 -0.8000638
000060 40 2f 55 bf 94 d9 01 bf b6 27 df be f0 e6 cd 3d
       -0.8327522 -0.5072262 -0.43584985 0.100538135
000070 f9 fe af 3f e7 4c 12 3f a2 e8 8a bf 65 38 7a bf
       1.3749686 0.57148594 -1.0852244 -0.977423
000080 d9 8f ff 3e 72 f7 8b bf e3 e2 f3 3d 30 56 8d 3f
       0.49914435 -1.0934889 0.119085096 1.1041927
000090 cb e4 d9 bc dc 3b 89 bf 4b e8 8d 3f 0a b3 87 3c
       -0.026598355 -1.0721393 1.1086515 0.016564865
0000a0 d1 eb ea bf db 48 ac 3e 85 24 f6 3e dc 35 f7 3d
       -1.8353215 0.33649334 0.48074737 0.1207082
0000b0 40 b2 a8 3d df d1 9e bf 8d 72 97 3f 9a 64 5b 3f
       0.082371235 -1.2407798 1.1831833 0.8570038

mlp.0.weight f4 [64, 32]
000000 00 6d c3 bb 51 95 c9 bd 1b 65 a2 bd bb 3e 26 3e
       -0.0059639215 -0.09842933 -0.079294406 0.16234867
000010 88 1d 08 bd 2a c0 fd 3d 9e 33 aa 3d f6 b4 db bd
       -0.03323129 0.12390168 0.083106264 -0.10727875
000020 64 1d 5e bd d3 41 b3 bd 74 8c 2c be 1b a6 1d 3e
       -0.054227248 -0.08752789 -0.16850454 0.15395395
000030 c8 b7 53 3d f3 da 0d 3e aa 63 94 bd f8 ec 5b 3d
       0.05168894 0.13853054 -0.07245572 0.053692788
000040 f5 4d db bd d2 f8 a6 3d 2c d2 17 bd d8 c0 8c bc
       -0.107082285 0.081529275 -0.03706567 -0.017181799
000050 80 36 54 3d 92 8f 34 be be 8d e9 3d 98 42 2c be
       0.051809788 -0.17632893 0.11403988 -0.16822278
000060 c3 9b 16 3e 38 06 00 bd e8 1a 85 bc 5a 32 de 3d
       0.14707856 -0.03125593 -0.016248181 0.108494475
000070 c0 2f 7a 3d 03 12 15 be 75 3e df bd d2 d3 08 be
       0.061080694 -0.14557652 -0.109005846 -0.13362053
000080 79 34 29 be 75 40 06 3e 40 8b 9d bb 95 02 e6 bd
       -0.16523923 0.13110526 -0.0048078597 -0.11230961
000090 2e ea ca 3d fc 67 cf bd fc 58 4f 3d 4d 71 0c 3e
       0.099079475 -0.10127255 0.05062197 0.13715096
0000a0 a0 db 29 bd 0e cd a4 3d e6 f3 99 3d f3 f4 0b 3e
       -0.041469216 0.080469236 0.07517223 0.1366766
0000b0 c8 94 19 be fd eb 05 3e 3b 89 1a be 96 38 75 bd
       -0.14998162 0.13078304 -0.15091412 -0.059868418
0000c0 10 a7 1b bd 4f 3a b2 bd 4d 36 01 be 9e 28 9b bd
       -0.03800112 -0.08702528 -0.1261837 -0.075761065
0000d0 12 5e 2a be 00 05 ae ba c0 9d b1 bc 73 a8 1c 3e
       -0.16637447 -0.0013276637 -0.021681666 0.15298633
0000e0 8e 49 e1 3d 08 d7 eb bd b6 59 25 be 4f 06 21 be
       0.110003576 -0.11515623 -0.16147503 -0.15725063
0000f0 a7 ee 28 3e d0 dd f6 3c b4 48 f7 bd 2a 78 c8 bd
       0.16497289 0.030135065 -0.12074414 -0.097885445
000100 d3 16 03 3e 7d 3f 0d 3e a2 17 e2 3d 98 c1 89 3c
       0.12801675 0.1379375 0.11039664 0.016815946
000110 af 3e 23 3e 21 19 0d 3e 32 66 02 be 74 88 34 3d
       0.1594188 0.13779117 -0.12734297 0.044075444
000120 b8 7e 15 bd e7 b1 24 3e b2 a7 a0 bd d1 97 2f 3e
       -0.0364978 0.1608349 -0.07844485 0.17147757
000130 e2 c5 e5 bd 00 02 9e 3a 68 b6 99 bc 80 ab 93 3d
       -0.11219384 0.0012055039 -0.018763736 0.072104454
000140 88 57 a6 3c 6a 9b c4 3d 3b 96 1f 3e 3e 54 83 3d
       0.02030541 0.095999554 0.15584652 0.06412552
000150 e0 ab 67 3c 47 1c 11 3e 90 0c 3f bc e7 bf 15 be
       0.014140099 0.14170943 -0.01166071 -0.14623986
000160 40 09 0f 3c 4a 91 ed 3d e5 fa 2c be 18 c7 85 3c
       0.008730233 0.11599977 -0.16892584 0.016330287
000170 33 d6 10 3e 00 cf 33 bd 60 61 ac 3c f6 a5 e1 bd
       0.1414421 -0.043898582 0.021042526 -0.11017983
000180 81 a0 24 3e 41 1f 07 3e 71 7f 0a 3e 78 10 2a 3d
       0.16076852 0.13195516 0.13525178 0.041519612
000190 70 8c ce bd 54 98 02 be 39 51 c7 bd 00 7a 2b be
       -0.1008538 -0.12753421 -0.09732289 -0.16745758
0001a0 cd fc a0 bd 78 d2 29 bd 10 3a da bc 33 e7 14 3e
       -0.07860718 -0.041460484 -0.026639014 0.1454132
0001b0 c6 14 80 bd 38 97 49 bd c0 14 56 3c e8 d8 b3 bc
       -0.06253962 -0.04921648 0.013066471 -0.021954015
0001c0 3e 89 e2 3d 88 82 c5 bd 5a de 0c be f9 1a 30 3e
       0.11061333 -0.096440375 -0.13756695 0.17197789
0001d0 dc 2a 2a be 16 73 63 bd 0b 37 02 3e ff 46 1e 3e
       -0.16617912 -0.055529676 0.1271631 0.1545677
0001e0 10 82 21 3c 53 a2 13 3e cc 20 27 be 04 d0 35 bd
       0.0098576695 0.1441739 -0.16321105 -0.044387832
0001f0 c0 00 a8 3b 8a 64 15 be e8 b8 d5 bc 50 c6 04 bd
       0.0051270425 -0.14589134 -0.026089147 -0.032415688
000200 84 82 0d 3d 01 5d d1 bd e5 18 2a be 10 39 ab 3c
       0.034548298 -0.10222817 -0.16611059 0.020901233
000210 af 94 33 3e fc 24 5b 3d c4 8d 18 3d a2 92 f1 bd
       0.17537187 0.053502068 0.037244573 -0.11795546
000220 0a 66 10 be 11 99 1d 3e 61 6d dd bd 78 c4 fb 3c
       -0.14101425 0.15390421 -0.10811878 0.030733332
000230 88 31 72 3d 79 f8 26 be c4 30 03 3d 1f c2 07 3e
       0.059129268 -0.16305722 0.03202893 0.13257645
000240 4d f4 2c 3e af 35 b5 bd 10 8f e0 bc 68 aa f7 3c
       0.16890068 -0.0884813 -0.027411968 0.030232623
000250 e0 95 1d 3c 7f 23 32 be eb 42 1f 3e 92 f7 9d bd
       0.0096182525 -0.17396353 0.15552871 -0.07713236
000260 b7 fb 07 3e c8 14 8c bc 53 f6 20 3e 6e 10 9f 3d
       0.13279615 -0.017099753 0.15718965 0.077668056
000270 f2 32 b4 3d c8 e2 b9 3c da 00 76 bd b0 fb 7b bc
       0.087987795 0.022691146 -0.060059406 -0.015379831
000280 18 a5 24 bd 46 40 b1 3d 46 80 80 3d 42 67 ec bd
       -0.04019651 0.08654837 0.06274466 -0.11543132
000290 50 51 14 bd 86 b9 87 bd 8f 0c 0e 3e 08 12 8b 3c
       -0.03621036 -0.06627183 0.13871978 0.016976371
0002a0 94 25 44 3d a5 da 1a 3e ec ba 6b 3d d2 e3 8f 3d
       0.0478874 0.15122469 0.05755131 0.07025875
0002b0 a0 c9 b1 3b 43 5d e5 bd 1c e5 f7 bd 28 c4 99 3c
       0.005425647 -0.11199429 -0.12104246 0.018770292
0002c0 6f 80 30 be 00 79 d2 ba f8 53 85 bc 4e 9b fb 3d
       -0.17236494 -0.0016057789 -0.016275391 0.122854814
0002d0 21 d8 0e 3e 9a 83 65 bd 3e e5 d1 bd 5c 9b 24 3d
       0.13949634 -0.05603371 -0.102488026 0.040187225
0002e0 40 25 e6 bc 14 32 69 3d 3b 40 2a 3e 70 be f5 bc
       -0.028093934 0.056932524 0.16626064 -0.029998034
0002f0 38 4b 03 bd 96 e6 f4 3d b0 8c 46 3c 6e d7 e1 3d
       -0.032054156 0.11958043 0.012118503 0.11027418
000300 7e f3 2e be bb b4 31 3e ab dd e9 bd 9d 46 0b 3e
       -0.17085072 0.173541 -0.11419233 0.13601156
000310 61 a1 00 3e 7b 4c 08 3e a8 54 c3 bc 15 a9 05 3e
       0.12561561 0.13310425 -0.023844078 0.13052781
000320 c0 ca 4c bc 16 33 d2 3d 68 ae 76 3d 8b a1 1e 3e
       -0.012499511 0.1026365 0.06022492 0.15491311
000330 f4 08 6e 3d 68 3c 07 3d a6 e7 c5 bd e2 45 01 be
       0.058114007 0.033016592 -0.09663324 -0.12624314
000340 0f 6d 09 be 40 4d fe bb bb 88 09 3e 94 79 5e 3d
       -0.13420509 -0.0077606738 0.13431065 0.054315165
000350 b2 f2 02 be dc 1d 2f 3d ae 88 9d 3d c8 8b 2c bd
       -0.12787893 0.042753085 0.07692085 -0.042125493
000360 97 fe 10 3e 35 b8 13 be 3e 1a fa 3d 18 95 92 bd
       0.14159618 -0.14425738 0.122120366 -0.071573436
000370 58 38 85 bc 20 56 2c be 3a f7 04 be 32 53 b3 bd
       -0.016262218 -0.16829729 -0.12984934 -0.087561026
000380 c0 69 13 be 47 55 e0 bd c0 dd 49 bb 79 ab 0f 3e
       -0.14395809 -0.10953765 -0.003080234 0.14030255
000390 50 0c e6 bc f9 4d 86 bd 50 5e 2d 3d e0 2d e7 3c
       -0.028082043 -0.06557841 0.04232627 0.028220117
0003a0 3e 21 ee bd 8d 16 c8 bd c8 2c 54 3d 49 7c 89 bd
       -0.11627434 -0.09769926 0.05180052 -0.06713159
0003b0 50 a7 f1 bc 39 bb 0a 3e b0 1a 60 bd 9f ec 0b be
       -0.029498726 0.13547982 -0.05471295 -0.13664483
0003c0 00 42 e8 bd 22 a5 70 bd a0 30 6d bd e0 8f 11 be
       -0.113407135 -0.058751233 -0.0579077 -0.1421504
0003d0 c6 f2 9f bd 6e 31 ae 3d 1b b8 13 3e 20 59 50 3d
       -0.07809977 0.08505522 0.144257 0.050866246
0003e0 08 5e 9c 3c 2d 51 2c be 21 bf 30 3e a2 d5 e8 3d
       0.019087806 -0.16827841 0.1726041 0.11368872
0003f0 63 76 29 be 00 09 bd ba 7b c2 9b bd 08 d3 ba bc
       -0.16549067 -0.0014422238 -0.076054536 -0.022805706

mlp.0.bias f4 [64]
000000 e0 6c 25 be 1b b4 84 bd 5a b6 db 3d f9 dd ea bd
       -0.16154814 -0.06479665 0.1072814 -0.11468119
000010 e8 98 fb bc 92 96 fd 3d 70 c4 83 3d 00 c4 3b 39
       -0.03071256 0.12382235 0.06433952 0.00017906725
000020 7b ee 15 3e 82 12 f0 3d 64 06 21 be 68 d6 f9 bd
       0.14641754 0.1172228 -0.15725094 -0.12199098
000030 87 f9 08 3e c0 f6 56 3c 94 27 70 bd c0 bf 7c bb
       0.13376437 0.013120353 -0.058631495 -0.003856644
000040 92 d7 9a 3d 5e 42 aa 3d 0e 3a dc bd db cc 1c be
       0.07560648 0.0831344 -0.107532606 -0.15312521
000050 e0 fb 23 3c c8 db 93 3c 20 50 ce 3b 45 e8 a5 bd
       0.010008782 0.018049136 0.0062961727 -0.081009425
000060 45 7c f9 bd 91 bc 1c 3e bf 97 13 be c8 68 4a bd
       -0.12181906 0.15306307 -0.14413355 -0.049416333
000070 c0 7e 95 bd a0 b2 ef bc 90 65 41 bd 2f 6b 0a 3e
       -0.07299566 -0.02925998 -0.047216 0.1351745
000080 90 d5 b4 bc 18 71 21 3d 18 5b 6a 3d 08 d9 aa bc
       -0.02207449 0.039414495 0.05721578 -0.020855442
000090 31 ae aa bd c6 d0 22 be 08 35 fb bc 32 7c c4 bd
       -0.083340056 -0.15899953 -0.030664936 -0.09594001
0000a0 08 2c 9b bc f0 30 96 3c 5c 44 44 3d 86 7c fe 3d
       -0.018941894 0.018333882 0.047916755 0.12426095
0000b0 3b 58 9c bd 7b 7a 1d 3e 81 ce 17 3e 06 9a 0d be
       -0.07634016 0.15378754 0.14824869 -0.13828287
0000c0 b0 a2 33 be ea a2 df 3d 55 50 b3 bd 80 d8 f3 3b
       -0.17542529 0.10919745 -0.087555565 0.0074415803
0000d0 ec 39 dc bd 10 cf 67 bc 2a 07 92 bd ca d0 ba bd
       -0.10753235 -0.014148489 -0.07130273 -0.091218546
0000e0 98 17 78 3d ca 81 0e be 37 e7 06 be 0e 5c 9d 3d
       0.060569376 -0.13916698 -0.13174139 0.07683574
0000f0 62 af 29 be fa 91 a0 3d 80 4c df 3c 89 2f 17 3e
       -0.1657081 0.07840343 0.027258158 0.14764227

mlp.2.weight f4 [32, 64]
000000 64 86 86 bd 48 62 bc 3d 82 1c 93 3d b2 1f c1 3d
       -0.06568602 0.09198433 0.07183172 0.094298735
000010 c6 14 83 3d f4 65 dc 3d 78 cc 92 bc 6c 5e 6e bd
       0.064004466 0.107616335 -0.017919764 -0.058195516
000020 f2 b4 b2 bd d0 36 58 3c 50 af 1f 3d 70 1c 2c 3c
       -0.08725919 0.013196662 0.03898555 0.010504827
000030 10 2f 44 bd b4 40 51 3d 6c 20 85 3d a0 c7 5d 3d
       -0.047896445 0.051087096 0.065003246 0.054145455
000040 60 97 7c bc e8 68 af 3c 94 a3 29 bd b4 42 45 bd
       -0.01541695 0.021412328 -0.041415766 -0.048159316
000050 90 14 c3 bd d8 19 ea bd 50 24 ce bc a6 4a a2 bd
       -0.09525406 -0.114307106 -0.0251638 -0.07924394
000060 46 3a bd 3d 96 e7 9c 3d d8 76 39 3d d0 d2 d6 3d
       0.092396304 0.07661359 0.045279354 0.10489428
000070 98 88 5b bd d8 b8 97 bc dc e2 da 3d 50 d6 43 bd
       -0.053597063 -0.018520758 0.10687801 -0.047811806
000080 a0 6e a6 3c e4 a2 41 bd e0 dd 6a bc 0a e3 b7 3d
       0.020316422 -0.047274485 -0.014335126 0.08978851
000090 7e 8f cf bd 88 56 b8 3c 40 15 99 3c 1c 7c 25 bd
       -0.10134791 0.022502199 0.01868689 -0.040401563
0000a0 04 fe 6b bd 58 19 0e bd 24 c8 8a bd a0 ef f7 bb
       -0.057615295 -0.03469214 -0.06776455 -0.0075664073
0000b0 f0 e9 21 bd 96 34 ad bd 4a ac be 3d 6c 2c 8a 3d
       -0.03952974 -0.084572956 0.09310205 0.06746754
0000c0 e6 40 95 3d c4 0b 53 bd 92 a1 f9 3d 20 51 8b 3b
       0.07287769 -0.051524892 0.1218902 0.004251614
0000d0 fe 9c 95 3d 50 4b 7d 3d d2 29 99 3d 02 df d6 bd
       0.073053345 0.0618394 0.0747868 -0.10491754
0000e0 24 ce 61 3d fc 1c cc 3d a0 91 59 3d a4 4a f4 bd
       0.05512823 0.09966466 0.053117394 -0.11928299
0000f0 22 7b 87 3d fc 45 49 bd 82 90 f4 3d 46 96 ca bd
       0.066152826 -0.049139008 0.11941625 -0.09891944
000100 08 93 61 bd 20 db 19 bd 0e 14 c0 bd 60 e2 5b 3c
       -0.05507186 -0.03756249 -0.09378825 0.013420671
000110 fa 57 b6 bd 10 0c 9c 3d e8 f7 fd bd 54 a0 8f bd
       -0.08903499 0.07619488 -0.124008 -0.07013002
000120 5a e3 ac bd 78 4c ad bd fa 12 9e 3d 18 3e 57 bd
       -0.08441801 -0.08461851 0.07718463 -0.05254945
000130 38 be 8f bd 62 58 d0 3d 16 16 f5 3d 96 4d c1 3d
       -0.07018703 0.10173108 0.11967103 0.094386265
000140 98 9e 81 bc 00 78 19 bb c0 a1 8b 3d 72 1d c5 bd
       -0.015822694 -0.0023417473 0.06817961 -0.09624757
000150 78 9e 98 3c a2 b4 e0 bd d0 98 e1 3d 34 e1 9c 3d
       0.018630251 -0.10971953 0.11015475 0.076601416
000160 68 83 06 bd 7c 3e e5 3d b4 1a 09 bd 2c 94 be bd
       -0.032840163 0.111935586 -0.03347273 -0.09305605
000170 a0 3a 9f bd c8 ec cd 3c 2c 45 6c bd 3c 2d c1 3d
       -0.07774854 0.02513732 -0.057683155 0.09432456
000180 da 97 96 3d 5e f3 87 bd e0 9e c8 bd 64 98 0e 3d
       0.07353182 -0.066382155 -0.09795928 0.0348133
000190 d0 cf ee bc 4c 44 ee bd 2a e7 80 bd 00 e8 ee ba
       -0.029151827 -0.1163412 -0.06294091 -0.00182271
0001a0 d0 2b 3d bd d8 d3 33 bd 9c aa 9c bd a0 43 0e bc
       -0.04618436 -0.0439032 -0.07649729 -0.008683115
0001b0 fc ac aa 3d 74 13 27 3d 4c b7 44 3d 54 99 f4 3d
       0.083337754 0.040790036 0.048026368 0.119433075
0001c0 68 77 c8 3d 5a cb 9a 3d 2e a8 bd bd fe 88 80 bd
       0.097884 0.075583175 -0.09260593 -0.06276129
0001d0 5c b4 f4 bd 68 de c4 bd 48 09 dc 3c 6c 49 d0 bd
       -0.11948463 -0.09612733 0.026859894 -0.10170254
0001e0 54 21 73 3d 90 26 7a 3c 9e c6 f3 3d 84 c9 10 bd
       0.059357956 0.015267983 0.119031176 -0.03534843
0001f0 38 90 ba bd d8 ae 30 3d 92 46 db bd 30 8c ca 3c
       -0.09109539 0.043135494 -0.107068196 0.02472505
000200 30 c5 1f 3c a4 95 b0 bd 40 4b b6 3b 8c cf c3 bd
       0.009751603 -0.08622292 0.0055631697 -0.09561071
000210 80 98 64 bd 00 19 b4 bc 46 18 96 3d dc e0 e7 3d
       -0.055809498 -0.021984577 0.073288485 0.113221854
000220 74 c9 f4 bd 70 ee 60 bd fa ce ab bd 38 d7 88 3d
       -0.11952487 -0.05491489 -0.08389087 0.06681675
000230 1a c4 e4 bd bc bd 55 3d fe 00 ae bd 00 07 54 3c
       -0.11170216 0.052182898 -0.08496283 0.012941122
000240 e8 87 13 3d b2 d0 97 bd 4e 53 c8 bd 9e 3f 9c bd
       0.036018282 -0.07412852 -0.09781514 -0.076293215
000250 54 d0 a1 bd b8 18 cc bd ce 4c 86 bd d0 74 07 3d
       -0.079010636 -0.09965652 -0.06557618 0.033070385
000260 b8 4c ba bd 7c 1d fb bd 40 4d 1e 3b 88 47 85 3c
       -0.09096664 -0.12261483 0.0024154931 0.01626946
000270 00 a7 48 bb ae 6b cb 3d 48 4b c2 3c 58 c3 81 3d
       -0.0030617118 0.09932648 0.023717538 0.06336087
000280 98 c4 e3 bc 50 a0 34 3c 3e 66 ba bd 20 a2 40 3c
       -0.027803704 0.01102455 -0.091015324 0.011757404
000290 0a e2 f3 bd 20 4b 3a bd 00 5b 03 3c e2 bf 9c 3d
       -0.11908348 -0.0454818 0.008017302 0.07653786
0002a0 40 8b 23 3c 00 ec a0 3d 24 28 79 3d 44 58 b0 3d
       0.00998193 0.078575134 0.060829297 0.08610585
0002b0 50 cd 54 bc 50 9f e2 bd c8 a5 1c 3d 56 75 f5 bd
       -0.012988403 -0.11065543 0.03824404 -0.11985271
0002c0 dc 9e 87 3d a6 af fe bd cc 39 84 3d dc d8 cd bd
       0.06622097 -0.12435846 0.064563364 -0.10051128
0002d0 64 15 12 bd 48 e8 94 bd 14 1c 05 3d d4 9e 6b bd
       -0.03566493 -0.07270867 0.03249748 -0.057524517
0002e0 92 7f bc bd 34 7c f4 3d e2 ba de 3d 5c fd 16 bd
       -0.092040196 0.11937752 0.10875489 -0.036862716
0002f0 34 9d 5d 3d c0 a4 44 bc 1a 1e dd 3d 60 34 d3 bc
       0.054105 -0.01200217 0.10796757 -0.02578181
000300 d0 23 6a 3d 10 ee a0 bd 38 a5 5a 3d 0a 2f ef bd
       0.05716306 -0.07857907 0.05338022 -0.11678894
000310 7e 7c d5 3d 50 9a 35 3c 48 f4 49 3d 7c 55 89 3d
       0.104241356 0.011084154 0.04930523 0.06705758
000320 04 b7 0a 3d 4c a0 fe 3d d0 a5 d9 bc d0 88 8b bc
       0.033865944 0.12432918 -0.026568323 -0.01703301
000330 60 96 b8 bb 54 c4 e5 3d 56 4b eb bd 7c ba b5 bd
       -0.0056331605 0.11219087 -0.114889786 -0.0887346
000340 84 86 c4 3d 10 7e 1c bd 64 b0 54 3d 0a 93 d1 3d
       0.09595969 -0.03820616 0.05192603 0.102331236
000350 ac d9 e6 3d 96 36 8b 3d 68 df 07 bd c8 62 34 bd
       0.11271986 0.06797521 -0.03317204 -0.044039518
000360 18 72 55 3d 80 90 d1 3a 68 93 53 3d a0 10 75 bd
       0.05211076 0.0015988499 0.05165425 -0.059830308
000370 5c ee 64 bd e8 8f d8 bc 8a 77 8a bd 86 9e fe bd
       -0.05589138 -0.026435807 -0.067610815 -0.1243258
000380 88 ec db 3c 96 96 fc bd 0e 16 bb 3d ac 06 55 3d
       0.026846185 -0.123334095 0.09135066 0.052008316
000390 38 12 d5 bc 90 83 a9 3d 44 67 0b 3d 58 ba 8c 3d
       -0.026009664 0.08277047 0.03403403 0.0687148
0003a0 cc 0c 8b bd e8 0a 93 bd 08 a5 ff bd 24 1d db bd
       -0.0678955 -0.071798146 -0.12482649 -0.106989175
0003b0 e4 df 34 3d d0 1d be 3c 12 3e a0 bd 60 18 e5 3c
       0.04415883 0.023207575 -0.07824339 0.027965724
0003c0 6e 63 da bd 64 df 7e bd fa 2f c0 bd 0c df 7d 3d
       -0.10663496 -0.06222476 -0.09384151 0.061980292
0003d0 e0 e4 ce 3b 64 03 f7 bd 9e 8f cc bd c0 7b da 3d
       0.006313905 -0.120611936 -0.0998833 0.10668135
0003e0 b0 3a e5 bc f8 20 44 3d 2a 08 9a bd 4c 3e 8a bd
       -0.027982086 0.047883004 -0.075210884 -0.067501634
0003f0 08 78 ed 3c fe 09 f2 bd bc f5 72 bd c0 0d bc 3c
       0.0289879 -0.11818312 -0.05931638 0.022955775

mlp.2.bias f4 [32]
000000 3e 34 ab bd 00 99 dd bb 00 30 ed 3b fa 8e 9e bd
       -0.08359574 -0.006762624 0.007238388 -0.07742114
000010 4a e0 e4 3d b8 13 1e bd b4 81 a7 bd 0c b0 dc 3d
       0.11175592 -0.038593024 -0.08179036 0.10775766
000020 a0 7a d1 3b 24 59 ac bd 78 00 88 3c 74 1c 79 3d
       0.006392792 -0.0841544 0.016601786 0.06081815
000030 10 79 6a 3c 80 36 4b 3c a0 22 7b 3d 00 47 34 3d
       0.01431109 0.0124031305 0.061312318 0.044013023
000040 68 dd c2 bd ce b1 8f bd b6 57 fe bd b8 20 4e 3d
       -0.09514886 -0.070163354 -0.12419073 0.05032417
000050 22 0a df bd 60 31 e1 bb c4 8c 0a bd ec d2 a1 bd
       -0.108906046 -0.006872341 -0.03382565 -0.07901558
000060 60 15 d3 3c 6a 9d ac bd f0 ff b9 bc d0 83 26 3d
       0.025767028 -0.08428462 -0.022705048 0.04065305
000070 f6 9e bb bd 26 99 a9 3d 10 e5 bb 3d bc 5c a7 3d
       -0.09161179 0.08281164 0.091745496 0.081719846

mlp.4.weight f4 [16, 32]
000000 32 1d c6 3d 53 7f f6 bd 53 a5 33 be 28 d1 ad 3c
       0.09673537 -0.12036004 -0.17543535 0.021217898
000010 bc 36 2c 3d 1e e0 c8 3d 25 fe 1a 3e 10 65 61 3c
       0.042044386 0.09808372 0.15136011 0.013757005
000020 fb 87 30 3e 94 6e 4d bd 89 f7 9f bd 84 0a 31 3d
       0.17239372 -0.050154284 -0.078108855 0.04322292
000030 9c 91 32 3d b1 cd 08 3e 7a c3 c5 3d 02 80 fe 3d
       0.043595895 0.13359715 0.09656425 0.12426759
000040 9b b9 91 bd e8 de 18 3d 38 fb f5 bd b8 2c 14 bd
       -0.071154796 0.037321955 -0.12010807 -0.03617546
000050 68 0e fb bd e0 34 87 bd b3 4a d2 bd 78 8a b2 3c
       -0.12258607 -0.06601882 -0.10268154 0.021794543
000060 c0 35 ac 3c 00 7b 96 ba af 23 a9 bd 09 81 13 3e
       0.021021724 -0.0011480749 -0.08258759 0.14404692
000070 90 cd c1 bd c2 12 9a 3d cf e3 20 3e a0 01 80 bb
       -0.09463036 0.07523109 0.15711902 -0.0039064437
000080 00 0b 8d 3a 96 7f 9a bd 10 17 fe 3c 4c a3 04 3d
       0.0010760725 -0.07543866 0.031016856 0.032382295
000090 5e 47 0e be bc d3 ca bd c2 2c f5 3d a1 8e 11 3e
       -0.13894412 -0.099036664 0.119714275 0.14214565
0000a0 dd 02 11 3e af 0a a6 bd 9a 0d 2b be 78 e1 e7 bd
       0.14161249 -0.081075065 -0.16704407 -0.113223016
0000b0 08 27 0f be b7 6f 1b 3e 3a b4 97 bd c2 34 cb 3d
       -0.13979733 0.15179335 -0.07407422 0.09922172
0000c0 e0 08 31 3d e3 84 8a bd 80 c3 df 3a 4a 6b f4 3d
       0.043221354 -0.067636274 0.0017071813 0.11934526
0000d0 90 66 db 3c 41 07 20 be 44 33 82 bd 89 00 30 be
       0.026782304 -0.15627767 -0.063574344 -0.17187704
0000e0 22 9a e6 bd af bf 8a bd 20 4d b0 3c 98 93 83 bd
       -0.11259867 -0.06774842 0.021521151 -0.06424636
0000f0 0a e2 d7 3d 84 9d 1b be 00 b6 4e 3d a8 2a 32 3d
       0.105411604 -0.15196806 0.050466537 0.04349771
000100 28 4b 7c bd 10 45 6b bc 96 7b b2 3d ef fb 0f be
       -0.061595112 -0.0143597275 0.087149784 -0.14060949
000110 1e af d3 3d 28 12 f5 bd c0 39 05 3d d6 1b a1 3d
       0.10336135 -0.11966354 0.032525778 0.078666374
000120 2a 8a ce 3d 46 f3 b6 bd 08 23 0e 3d 00 00 84 39
       0.100849465 -0.089331195 0.034701377 0.00025177002
000130 52 6b e9 3d 0e b8 f2 3d 02 d8 d5 3d 68 68 25 3d
       0.11397423 0.11851512 0.10441591 0.040382773
000140 ea a6 0d be 09 43 2f be a8 cf 23 bd 96 3b bc 3d
       -0.13833204 -0.17115416 -0.03999296 0.091910526
000150 ef 70 9f bd 56 e7 96 3d 03 85 31 3e 28 d3 32 3d
       -0.07785212 0.073683426 0.17335896 0.043658406
000160 42 72 c2 3d 11 c7 15 3e dd 4e 1b 3e 9e 07 9e 3d
       0.09494449 0.14626719 0.15166803 0.077162966
000170 c2 ad 9d 3d 88 ee ed bc c6 89 14 be 00 20 90 bb
       0.07699157 -0.029044405 -0.14505681 -0.004398346
000180 2e cf c0 bd 8a bc ba 3d 00 d5 1e bc 00 8e 2e 3b
       -0.094145164 0.09117992 -0.009694338 0.0026634932
000190 e2 40 77 bd c4 17 a2 bd 88 78 50 bd 9a 56 dd 3d
       -0.06036461 -0.07914689 -0.050896198 0.108075336
0001a0 38 26 05 be a6 f4 97 3d 28 12 e2 bc 5b 51 26 be
       -0.1300286 0.0741971 -0.027596548 -0.16241972
0001b0 00 82 2c 3a 54 dd bf bd c2 24 cd 3d 9f 87 20 3e
       0.0006580651 -0.09368387 0.100167766 0.15676735
0001c0 f5 66 23 be 0d 76 98 bd 86 9b f9 3d e2 15 f9 3d
       -0.15957244 -0.074443914 0.12187867 0.12162377
0001d0 90 ef 5a bc 7c 74 8d bd 41 3e a9 bd 88 e1 9a bd
       -0.01336278 -0.06906983 -0.08263827 -0.07562548
0001e0 20 89 00 bd f8 65 80 3d 26 13 d6 3d ee 2d c5 3d
       -0.031380773 0.06269449 0.10452871 0.09627901
0001f0 64 ce 2b bd 71 05 92 bd 89 ba 06 be 32 dd f8 bd
       -0.041944876 -0.07129944 -0.13157095 -0.12151565
000200 e3 12 ba bd 13 76 2e be 45 b6 16 3e 78 1c c7 3c
       -0.090856336 -0.17037229 0.14717968 0.024305567
000210 8c c5 04 bd b8 f1 10 3d c7 3e 33 3e 62 87 9d bd
       -0.032414958 0.03538677 0.17504416 -0.07691838
000220 66 4f fa 3d e4 23 1b be f8 a7 bc bd aa 48 a8 3d
       0.12222175 -0.1515041 -0.09211725 0.082169846
000230 c6 cc af bd 3a c7 ca bd 53 cb 22 3e 0d a7 28 3e
       -0.08583979 -0.09901281 0.15897875 0.16469975
000240 fa fb d2 bd ba ff 5c bd 8f c2 d6 bd 18 bd 0a bd
       -0.10301967 -0.053954817 -0.10486328 -0.03387174
000250 0d de 31 3e 48 4c df bc fb 9d 98 bd b4 25 33 bd
       0.17369862 -0.027258053 -0.074520074 -0.04373713
000260 0a a8 23 be 0d bf 2c 3e d7 31 ca bd 37 96 17 3e
       -0.1598207 0.16869755 -0.098727874 0.14803396
000270 40 75 78 3d 40 cd 71 3b ca e5 f1 3d 40 5f 6d 3c
       0.060658693 0.003689602 0.11811407 0.014488041
000280 1a 75 da 3d 52 a3 f3 3d 64 5d 72 bd d9 3a 15 be
       0.106668666 0.11896385 -0.059171095 -0.1457323
000290 00 a0 50 bd a8 6d 23 3d 26 db f2 3d b0 01 04 be
       -0.050933838 0.0398995 0.118582055 -0.12891269
0002a0 c0 89 92 bc ea 5f a3 3d d9 83 bc bd 93 4d 16 be
       -0.01788795 0.079772785 -0.092048354 -0.1467803
0002b0 90 23 fb 3c 8a 91 85 3d 89 ad 05 3e 30 8c 15 be
       0.030656606 0.065219 0.1305448 -0.14604259
0002c0 fc d6 0f 3d 53 81 07 3e c5 13 2d 3e 10 ad 17 bd
       0.035117134 0.13232927 0.16902073 -0.03703028
0002d0 1d 27 0b 3e da 38 2c be 12 f2 f1 3d c3 39 e5 bd
       0.1358914 -0.16818562 0.118137494 -0.11192658
0002e0 3b 2a eb bd 45 e3 18 3e 26 1f 91 3d 33 a7 00 3e
       -0.11482664 0.14930446 0.07086019 0.12563781
0002f0 ba 80 ad 3d 98 06 91 3d 0e f4 a0 3d 8d 91 10 3e
       0.08471818 0.07081336 0.0785905 0.14118023
000300 0f b6 01 3e 70 d4 86 3d 68 82 15 be e0 1f 4d bd
       0.12667106 0.06583488 -0.14600527 -0.050079226
000310 e4 cf aa bd 40 0f 3d bd 6e 38 cc 3d 62 1a ea bd
       -0.08340433 -0.04615712 0.099717006 -0.11430813
000320 b6 67 96 3d 74 d4 1a bd da 6d 26 be 10 4b b3 bc
       0.07344 -0.037800267 -0.16252843 -0.021886379
000330 1a e6 08 be 26 75 a9 3d 3e d5 f4 3d 61 f1 8f bd
       -0.13369027 0.082742974 0.11954735 -0.07028461
000340 1c d6 8b 3d d2 c7 cb 3d 4e 40 e6 3d ea 7f af 3d
       0.068279475 0.09950222 0.11242734 0.085693195
000350 80 3f 70 3b 04 62 10 3d e8 25 33 3d d6 8a b9 3d
       0.0036658943 0.035249725 0.043737322 0.09059684
000360 3c 41 0d be 9e d2 a1 3d c0 b3 39 3c 00 96 09 bd
       -0.13794416 0.079015 0.01133436 -0.033590317
000370 7c 8f 50 3d 08 a1 44 bd f3 03 c5 bd 6d 08 08 3e
       0.050918087 -0.048005134 -0.09619894 0.13284464
000380 24 9a 27 bd 98 3a 04 bd 76 1b 96 3d e7 fc f6 bd
       -0.040918484 -0.03228244 0.073294565 -0.12059956
000390 c5 f9 2d 3e 88 74 ad 3c 4e 2b bb 3d 80 3c 4d 3b
       0.16989811 0.02117373 0.09139119 0.0031316578
0003a0 7d 99 18 be 4e 0a a5 3d 26 35 f4 3d 9a 3d de 3d
       -0.14902301 0.08058606 0.119242 0.10851593
0003b0 20 39 52 bc 8e 66 a3 3d 4b 0f fc bd e0 5c 2d be
       -0.0128310025 0.07978545 -0.123076044 -0.1692996
0003c0 ff 7c 13 3e b4 10 1d be b2 56 f5 bd 35 dd 10 3e
       0.14403151 -0.15338403 -0.119794264 0.14146884
0003d0 46 88 db 3d 40 e7 e4 bc 32 2e c0 3d e4 e0 06 be
       0.107193515 -0.0279423 0.09383811 -0.13171726
0003e0 0e dd ff 3d 67 17 ae bd 2a b7 af 3d 79 5e 13 3e
       0.12493335 -0.085005574 0.08579858 0.14391507
0003f0 48 18 f7 bc 8a 91 e6 bd 27 2a 20 3e 08 db 6b bd
       -0.030162945 -0.11258228 0.1564108 -0.05758193

mlp.4.bias f4 [16]
000000 20 37 ea bc 6d 5e a5 bd 8c 0b 8f bd e6 ca e4 3d
       -0.028590739 -0.08074651 -0.06984624 0.11171512
000010 30 6c 55 bc b4 42 c7 bd 90 b5 5e 3c da a8 23 be
       -0.013026282 -0.097295195 0.013593093 -0.1598238
000020 9a 47 be 3d 92 c5 e1 3d b2 33 34 be 93 d1 a7 bd
       0.09291001 0.11024012 -0.17597845 -0.0819427
000030 c3 2f ce bd bc ee 30 bd 1b 6b cc bd 2c d5 a6 bd
       -0.100677036 -0.043196425 -0.09981366 -0.08146128

prediction_layer.weight f4 [1, 32]
000000 aa 18 34 be 68 f9 be 3c a2 58 12 be e5 e0 06 3e
       -0.17587534 0.023312286 -0.14291623 0.13171728
000010 80 e8 9e ba c0 ed 23 be 7c 0a 4d bd d6 3b 25 be
       -0.0012123734 -0.16008663 -0.050058827 -0.16136107
000020 c0 06 00 3b 14 db 2f 3d cd 28 09 be 68 9a 50 3d
       0.0019535273 0.04293354 -0.1339447 0.050928503
000030 f4 f3 79 3d 96 7e df 3d 0a d3 05 be a2 2d dc 3d
       0.061023667 0.10912816 -0.13068786 0.10750891
000040 6c 74 a1 bd b0 8d 3d bd 75 00 ed bd f4 37 0c be
       -0.07883534 -0.0462777 -0.11572353 -0.1369322
000050 de 5b 1a be 13 a8 0a 3e 78 89 68 3d 0a e6 34 be
       -0.15074107 0.13540678 0.056771725 -0.17665878
000060 65 97 85 bd 82 83 a4 3d 6a 08 c2 3d a4 0d 87 3d
       -0.06523017 0.080328956 0.09474261 0.065943986
000070 0a 5a ab 3d f0 9c 1a bd 54 48 23 be f8 de 19 be
       0.08366783 -0.037747324 -0.1594556 -0.15026462
