ncf_model.pth (torch, 20376 bytes, 7 tensors)

user_emb.weight f4 [2, 16]
000000 ce e5 8c 3e 08 16 b7 3f a1 01 4f bf 54 fa c5 be
       0.27519077 1.4303598 -0.8086186 -0.38667548
000010 5d 3d 32 3f 61 3b 9d 3f 00 5a fa be cf bd 8c 3e
       0.6962488 1.2283746 -0.4889679 0.27488562
000020 83 60 0d bf 0b b5 03 3e d4 13 87 3d bd ca 6a 3f
       -0.5522539 0.12862031 0.06595579 0.91715604
000030 50 7c 4c 3f ba 63 12 be d6 d0 e1 3e 03 8e e3 3e
       0.79877186 -0.14295855 0.44104642 0.44444284
000040 c3 d4 e0 bc dd 33 ee bf 31 e5 37 bf 06 ff 08 bf
       -0.027445203 -1.8609577 -0.71834093 -0.53514135
000050 e7 c1 a1 be 15 44 cc bf d5 d7 a3 be 67 75 d3 be
       -0.31593248 -1.5958277 -0.32000604 -0.41300508
000060 54 f3 d3 bd fe 9c 70 3e 23 bf 48 3f b2 d4 32 3f
       -0.103491455 0.23497388 0.7841665 0.698558
000070 49 e3 9e bf a5 38 6b 3f c1 04 c7 be e6 ae c7 3e
       -1.2413112 0.9188331 -0.38870814 0.39000624

event_emb.weight f4 [1, 16]
000000 64 fc 0c 3f 60 e7 9c 3f 4b 62 41 3f aa fb 25 40
       0.5507262 1.225811 0.7554061 2.5934854
000010 50 5a a2 bf 72 1b b5 3e d0 5e 0a be 96 3d a4 3f
       -1.2683811 0.35372502 -0.1351273 1.2831295
000020 ea 9a 29 3f 97 04 35 bd f0 e1 3a 3f e8 83 8f be
       0.66252005 -0.04419383 0.73001003 -0.28030324
000030 36 78 da 3e 0c 8b ed 3e 09 17 55 bf c1 56 f6 3f
       0.4266984 0.46395147 -0.83238274 1.9245225

mlp.0.weight f4 [64, 32]
000000 ae 86 a9 3d d6 18 c7 3d 10 a3 cf bc 95 82 75 bc
       0.08277641 0.09721534 -0.025346309 -0.014984746
000010 fc e1 97 3b a3 e6 8c 3c 6e e5 a3 bc 98 c6 56 3e
       0.0046350937 0.01719982 -0.020006862 0.20974195
000020 ac 2e 61 3d 5e fb 9b bd d4 b4 c9 bd 25 aa 6f be
       0.05497615 -0.07616304 -0.09848943 -0.23404749
000030 76 53 9d bd 05 41 65 3d d3 fa 8b 3d 33 44 67 bd
       -0.076819345 0.05597021 0.0683495 -0.056461524
000040 12 34 79 3d 35 77 0a be 49 01 8c 3d 6a af ae bd
       0.060840674 -0.13522036 0.068361826 -0.08529551
000050 d1 15 11 3d 4c 9d 03 bd 1e 5d 4d 3e 0d f6 5a 3d
       0.035421196 -0.032132432 0.20055053 0.05345731
000060 53 54 46 be 7c c7 10 3e e2 3f 33 be 66 c9 12 3d
       -0.19368105 0.14138597 -0.17504838 0.0358366
000070 9f 2b 6d be ea 46 5c bc 79 33 17 3e 1c 07 48 be
       -0.23161171 -0.013444642 0.14765729 -0.19533962
000080 e9 47 fb 3d 37 40 00 bd 49 9a 12 bd 4f b2 00 3d
       0.12269575 -0.03131124 -0.03579167 0.03142005
000090 40 59 93 3c 91 6b 54 3b bf ca 7a bc 20 bf de 3d
       0.017986894 0.0032412747 -0.0153071275 0.10876298
0000a0 2e 00 e1 bd 2c a3 e1 bd b2 e6 a1 3c 9c af 3c be
       -0.109863624 -0.11017451 0.019763324 -0.18426365
0000b0 c7 66 a2 bc e8 63 0b 3e 7d 57 53 3d 86 0c 58 bd
       -0.019824399 0.1361233 0.051597107 -0.05274632
0000c0 0e 58 05 bd 87 5c 11 3e ff 60 40 bd 18 51 e7 bc
       -0.03255468 0.14195453 -0.046967503 -0.02823691
0000d0 06 2b 10 be 7b 01 d6 3d 38 d0 f3 3d 28 f9 47 3d
       -0.14078912 0.10449501 0.11904949 0.0488216
0000e0 fa 72 ef bc 44 58 a3 bc 6d cb d0 bd 03 88 a1 bd
       -0.02922963 -0.01993955 -0.101950504 -0.0788727
0000f0 57 43 9d 3d 13 96 30 be 50 b3 2a 3e 0a 1d 19 3e
       0.0767886 -0.17244749 0.16669965 0.14952484
000100 17 3b 2e 3e 29 18 c3 3d e5 bd 2b be 54 40 ba 3d
       0.17014728 0.095260926 -0.16771658 0.09094301
000110 49 1b 22 bd b2 da 6c bd b7 40 3a ba 18 65 f8 3c
       -0.039576802 -0.05782575 -0.000710498 0.030321643
000120 89 4e 2c be 63 76 16 3e 7e 07 ec 3d 09 7d e5 3d
       -0.16826834 0.14693598 0.115248665 0.11205489
000130 3f 28 e6 bd d7 45 89 3c 4d d1 07 bd f3 34 bb ba
       -0.11238145 0.016756935 -0.03315859 -0.0014282748
000140 a2 e9 40 3e 14 94 c5 3d 41 64 05 3d 3e 7d 60 3e
       0.18839124 0.09647384 0.032566313 0.21922776
000150 ad b3 33 be df d5 f2 3d 0f e2 05 bd 92 ee ac 3d
       -0.1754901 0.11857199 -0.03268629 0.08443941
000160 95 f7 42 3e ce 70 43 be d0 d8 eb bc 7f d7 04 be
       0.19039758 -0.19086 -0.028789908 -0.1297283
000170 af db 89 3d 0e 5d 87 3d 81 44 c8 bd 31 47 cc 3d
       0.067313544 0.06609546 -0.09778691 0.09974516
000180 44 02 3e 3d 49 4a e2 bd 33 5c 0b be 0e 0a 11 be
       0.04638888 -0.11049325 -0.1360939 -0.14163992
000190 5b 1f ad bd 97 ef fc bd aa 44 49 be 94 5b 84 bd
       -0.08453246 -0.12350386 -0.196551 -0.0646278
0001a0 fa 9e 77 3d d3 f7 10 3e 3f 63 ca 3d f2 76 c1 bd
       0.060454346 0.14157037 0.09882211 -0.09446515
0001b0 18 51 4a be 52 f2 04 be 75 b9 a4 bd 38 f4 a6 3d
       -0.19757497 -0.12983063 -0.080431856 0.0815205
0001c0 4d 8d 2d 3e 3f 5d 00 be f0 c4 b6 3d 82 af b6 3d
       0.16948433 -0.1253557 0.089242816 0.08920194
0001d0 29 0c 0b 3e 1a 3c 10 3e 09 a8 a5 bc 1f e4 d0 bd
       0.13578857 0.14085427 -0.020221727 -0.10199761
0001e0 6a d8 82 bd 9b cc b0 3c 2e 6b eb 3d 64 e3 e6 3d
       -0.06388934 0.021581938 0.11495052 0.1127384
0001f0 a8 7d 09 be e6 44 bd bd b8 63 d8 bd f9 be 10 3d
       -0.1342684 -0.09241657 -0.10565895 0.035338376
000200 38 9e 5e 3c 7d fc e4 bd 64 03 71 bc d8 a6 8b bd
       0.013587527 -0.11180971 -0.014710281 -0.06818932
000210 26 e1 85 3d 20 f6 df bd 67 44 2e be ce 74 1e 3d
       0.06537084 -0.109356165 -0.17018281 0.038685612
000220 70 78 4a 3d f3 d0 04 be 31 03 25 3d 49 fd ec 3c
       0.049431264 -0.12970333 0.040286247 0.02892937
000230 9a 72 bd bd 15 61 3a 3c af 09 da 3d af 4b aa bd
       -0.09250374 0.011375685 0.10646378 -0.08315217
000240 b8 90 7d 3d 81 f2 8f 3a 5e 8d bd bc 93 46 23 be
       0.061905593 0.0010982306 -0.023138698 -0.1594489
000250 fb e0 6e 3d 57 f8 be 3d f3 19 93 3d c7 f2 b8 bd
       0.058320027 0.09324711 0.07182684 -0.09030681
000260 22 c3 25 bd 0a ef f2 bc 14 da e4 bd 80 bd 39 bd
       -0.040469296 -0.029654998 -0.111744076 -0.045346737
000270 b5 3b a7 3d a1 db 2c 3e 1e 44 06 be c4 07 1a 3e
       0.08165685 0.16880657 -0.13111922 0.15042025
000280 48 05 b6 3c 39 c6 1b 3e 42 ff 18 be 80 3a 3c bc
       0.022219315 0.15212335 -0.14941123 -0.011488557
000290 fe b8 0b be 43 87 f3 bd 00 94 df 3b a2 e6 fa 3d
       -0.13644788 -0.118910335 0.006823063 0.12251021
0002a0 32 30 5b bd 14 37 7e bd 87 e7 0b be 6a bd 83 bd
       -0.05351276 -0.062064245 -0.1366254 -0.06432612
0002b0 d0 22 9d bc 44 b9 29 bd 6c 17 49 bd d1 a4 00 3e
       -0.019181639 -0.04143645 -0.049094602 0.12562872
0002c0 40 69 67 bc 02 6c 57 bd 70 88 4c 3c c7 be 28 be
       -0.014124215 -0.05259324 0.012483701 -0.16479026
0002d0 7c e8 63 bd e6 2c a9 3d b4 a8 88 bd e2 ad e1 3d
       -0.055641636 0.08260517 -0.066728026 0.11019494
0002e0 54 4d 10 3d 14 fe 51 3d 14 80 b0 bd cf 85 12 be
       0.035229996 0.0512677 -0.08618179 -0.14308856
0002f0 63 6f 0b 3e a3 16 21 be 66 cc b2 3d d1 51 8f bd
       0.1361671 -0.15731291 0.08730392 -0.06998027
000300 ef c5 e9 bd 6d 20 bc 3c 08 4d 8f 3b 6e 1b cc bd
       -0.11414706 0.02296468 0.0043731965 -0.09966169
000310 6e aa 84 3d b0 b1 f8 3c 96 30 63 3e 80 8c c0 3d
       0.064778194 0.030358166 0.22186503 0.09401798
000320 75 64 87 3d a4 c8 1d 3d 8e 1c df 3d f8 78 98 bd
       0.066109575 0.038521424 0.10894118 -0.07444948
000330 f0 fc a8 bc 1c f0 e3 bd 08 41 6e be 79 ad e0 3c
       -0.020628422 -0.111297816 -0.23266995 0.027426468
000340 ec 6f 47 be 9e 93 17 be ed 8b a4 bd 92 59 e3 bd
       -0.19476289 -0.14802405 -0.08034501 -0.111010686
000350 c0 5b 5b 3e 21 62 a2 bc ff c4 48 bd fa c7 a7 3d
       0.21421719 -0.019822182 -0.049015995 0.081924394
000360 a3 fe 73 3d 22 a1 90 bd 8b 3d 4d be 85 15 74 3d
       0.059569012 -0.07061984 -0.20043008 0.059590835
000370 42 46 39 be 93 51 e5 bc 65 85 18 3d bd af 7a 3c
       -0.18093207 -0.027993 0.03723659 0.015300688
000380 2d 0a 90 bc 57 4d dc bd 97 54 20 bc 97 5d f9 3d
       -0.017582977 -0.10756939 -0.009785793 0.12176054
000390 1d 68 0f be 0c 1c a2 ba 03 82 83 bd f8 70 b4 3d
       -0.1400456 -0.0012367978 -0.06421282 0.088106096
0003a0 5c 6a 5e 3d ab 88 ba bc e3 1c 89 bd 30 2d ef bc
       0.05430065 -0.022770246 -0.06694963 -0.029196352
0003b0 64 58 f2 ba e9 9a fd 3d 55 d9 09 3e bc d5 e2 3d
       -0.0018489477 0.123830624 0.13461812 0.11075923
0003c0 c1 12 02 be a8 64 be bd a7 ca 92 bd 0a 3e 64 bd
       -0.12702467 -0.092965424 -0.07167559 -0.055723228
0003d0 62 5e 05 3e aa 78 aa 3d f4 25 56 3d 1f d1 1d 3e
       0.13024285 0.08323796 0.05228229 0.15411805
0003e0 18 00 67 bd 90 ab 8b bc 41 46 d8 3d 73 fe f4 3d
       -0.056396574 -0.01704958 0.10560275 0.11962595
0003f0 75 53 41 3d 14 16 81 3d a7 fd f2 3b ca e8 86 3d
       0.04719873 0.06303039 0.0074154916 0.0658737

mlp.0.bias f4 [64]
000000 8e d2 ff bd eb da 79 3c aa 22 dd bd 72 12 09 3e
       -0.12491332 0.015249948 -0.10797627 0.13385943
000010 9b 2f 20 be 33 b4 2f 3e bd d3 6c be 83 76 36 be
       -0.1564316 0.17158584 -0.23127647 -0.17818646
000020 cd 7e e7 3c 26 b9 68 3d 91 2b 04 3e ae d7 27 be
       0.028258706 0.056817196 0.12907244 -0.16390869
000030 a0 c5 2f bd 6b ba e4 bd f4 5e 80 3d ed 96 11 3e
       -0.04291308 -0.11168369 0.06268111 0.1421773
000040 10 6c 24 3d a0 73 df 3c ea 1b c5 bd 71 f0 3b 3d
       0.04014212 0.027276814 -0.09624465 0.0458836
000050 ae 2e 74 3d dd 4e f2 bd a0 22 13 bc c2 ce 21 be
       0.05961483 -0.11831448 -0.008980423 -0.15801528
000060 88 d2 80 bd d4 ea 80 bd c6 42 17 be bb c7 1d 3e
       -0.06290156 -0.0629479 -0.14771566 0.15408222
000070 b3 e1 ed bd be 5e 26 be 6e 32 b2 bd 71 bd 01 3e
       -0.11615314 -0.16247079 -0.08701025 0.12669922
000080 d2 99 3a 3e 29 eb 82 3d ee 7a 1b be 88 3d cb 3c
       0.1822274 0.063925095 -0.15183613 0.024809614
000090 a1 8d 1f 3e 6a b8 f2 3c 9c c4 97 3a 29 1c bb 3d
       0.15581371 0.029628951 0.001157898 0.091362305
0000a0 f7 9d 65 be 90 5d 2c 3e c9 d4 2e be 4e 80 b0 3d
       -0.2242354 0.16832566 -0.17073359 0.08618222
0000b0 1f 5c 34 3c ad e9 20 3d b2 66 e9 3a d0 0c c4 3b
       0.0110082915 0.03928535 0.0017807095 0.0059829727
0000c0 59 17 e7 bd 1b 6e ae 3d a0 1a 6b 3d f3 52 13 be
       -0.1128375 0.08517095 0.05739844 -0.14387111
0000d0 cf b9 c6 3d b1 0b 97 bd 7e 05 f2 3d da ab 41 3d
       0.09703409 -0.07375277 0.11817454 0.04728303
0000e0 73 b7 83 3d 44 07 26 3d da 05 a5 3d be e5 64 bd
       0.064314745 0.040534273 0.08057757 -0.05588316
0000f0 31 a4 9e bd 89 34 c8 bd 4b 2c a1 3d 83 c3 9a bd
       -0.07746161 -0.09775645 0.07869776 -0.07556822

mlp.2.weight f4 [32, 64]
000000 88 87 57 3d ca cf f6 3d e8 3b ae 3d 18 21 25 bd
       0.052619487 0.12051351 0.0850752 -0.040314764
000010 1e a2 ad bd 8c 1d 34 bd c4 4d e9 bd 8c 06 90 3d
       -0.08478187 -0.04397349 -0.11391786 0.07032499
000020 dc 91 5b bd 00 ca 5a 3a f8 b0 2d bd d2 ed da bd
       -0.0536059 0.00083461404 -0.0424051 -0.10689892
000030 20 41 25 3d d8 21 06 3d 80 6f b2 ba 64 5e 05 bd
       0.04034531 0.03274712 -0.0013613552 -0.03256072
000040 80 46 20 3d d4 1e db bd a0 00 77 3d 44 1b 45 bd
       0.039129734 -0.106992394 0.06030333 -0.048121706
000050 f4 ae be bd 78 af 14 3d 40 4d f3 bd 80 ad ba 3d
       -0.093107134 0.036300153 -0.11879969 0.09115124
000060 e8 1a 9d bc de 0a b0 3d 3c 5e 9e 3d c8 80 9a 3d
       -0.019177869 0.08595823 0.077328175 0.07544094
000070 90 0d 34 3c c0 dc fe 3b f0 d1 14 bc 20 2a 13 3c
       0.010989562 0.0077777803 -0.009083256 0.008982211
000080 10 92 2b bd c2 48 99 bd 1c a3 6f 3d 48 18 3c bd
       -0.041887343 -0.074845806 0.058505163 -0.045921594
000090 14 02 65 3d bc da 6b bd 3e 69 9a 3d a6 5e 9d bd
       0.055910185 -0.05758165 0.075396046 -0.076840684
0000a0 48 70 f4 bc 26 c5 aa 3d 60 06 e1 bd 18 4a d7 bd
       -0.029838696 0.08338384 -0.10987544 -0.10512179
0000b0 04 4f 29 3d ce aa f8 bd 48 4c f0 3c 3c 10 66 bd
       0.04133512 -0.121419534 0.029333249 -0.056167826
0000c0 20 48 a1 3c e0 a1 63 3c a6 9d bf bd f4 d1 88 3d
       0.019687712 0.0138935745 -0.09356241 0.066806704
0000d0 50 3f 63 3d 0c c3 1e bd cc f8 d3 3d 40 44 dc 3b
       0.0554803 -0.03876023 0.103501886 0.006722003
0000e0 60 3a 86 3b ca 06 8c 3d 30 de f8 bd 00 ce 36 3d
       0.0040963143 0.068372324 -0.12151754 0.04463005
0000f0 b4 8d 82 bd 20 07 f7 bb 50 0a a1 3c 50 4f 67 bd
       -0.06374684 -0.007538691 0.019658238 -0.056472123
000100 55 54 cb 3d 91 41 f6 3c 25 19 21 3d 4c 4e f4 3d
       0.099281944 0.030060561 0.03933062 0.119289964
000110 9e f5 f5 bd b0 b1 f9 3d 70 b0 24 bd 56 a1 42 bc
       -0.120097384 0.12192094 -0.040207326 -0.011879286
000120 55 87 a6 3d 0c 60 1b 3d c5 f5 fc bc fe d6 b6 bd
       0.08131281 0.037933394 -0.03087891 -0.08927725
000130 98 c2 b6 3d ca 0b c2 3d cd c2 e4 bb 80 ca 6f 3d
       0.089238346 0.09474905 -0.00698123 0.05854273
000140 28 15 8a 3d f0 1c f0 bd 3e eb 9f 3d e7 98 be 3d
       0.067423165 -0.117242694 0.07808541 0.093065076
000150 67 f3 33 3e f8 9c 96 3d 20 bf 86 3d dc 6e 6d 3d
       0.1757332 0.07354158 0.06579423 0.057967052
000160 6c f9 2e bd 14 6e 57 bd 3e 16 c9 3d f0 66 f5 bc
       -0.042718336 -0.052595213 0.098186955 -0.029956311
000170 b0 95 3c bd e0 9e 9e 3c eb 4d 0e bd de ec 9e 3d
       -0.04604119 0.019362867 -0.034742277 0.077600226
000180 e3 70 74 bd 2b 70 00 3e 8c f3 0f bd 84 12 17 3d
       -0.05967797 0.12542789 -0.035144374 0.036882892
000190 d2 ba 98 bd ef c1 32 3d b7 a9 b3 3d 3a fe 83 3d
       -0.07457508 0.04364198 0.08772605 0.06444974
0001a0 53 ee 13 3b cc 6c b4 3b 7e 39 a7 bd 34 eb 81 bd
       0.0022572472 0.0055061337 -0.08165263 -0.063436896
0001b0 49 4b 8b 3b ec b5 04 3d d0 9c 02 3e ab 29 d7 3d
       0.004250918 0.032400057 0.12755132 0.105059944
0001c0 4e 9f b0 bd b0 94 63 bd f6 de aa bd 90 68 14 3c
       -0.08624135 -0.05556172 -0.08343308 0.009058133
0001d0 46 e4 91 3d f4 32 17 3d 9a 10 99 3d 7d de 2c 3e
       0.07123618 0.036913827 0.074738696 0.16881748
0001e0 c2 4e 20 bc 70 3d 76 3d 4f e6 82 bd 08 e6 39 3d
       -0.009784402 0.060117185 -0.06391584 0.04538539
0001f0 70 e8 59 bd e2 98 22 3d ee 7b 8c 3c 50 8d 75 bc
       -0.053200185 0.03969658 0.017148938 -0.014987305
000200 87 20 4d 3c 8d ca 10 bc 84 8a 45 bd 19 4b f6 bc
       0.012519962 -0.008837354 -0.048227802 -0.030065106
000210 c6 8f d0 bc c8 9f c4 3c 1a 99 7b bd b5 fb aa bd
       -0.025459182 0.02400197 -0.061425306 -0.083487906
000220 92 ca 56 bc 72 d3 af 3d f7 00 59 3c e4 83 e2 bd
       -0.01310982 0.08585252 0.013244859 -0.110603124
000230 0e 8c 9e 3d 12 39 aa bd 7b 4f c0 3c 38 a1 86 bd
       0.07741557 -0.083116665 0.0234754 -0.06573719
000240 a0 4b a7 3c 44 74 95 bd 96 3f c1 3d fd 66 b8 bd
       0.020421803 -0.072975665 0.09435956 -0.090040185
000250 48 0c 17 3e f0 51 91 bd 76 a8 e9 bd ce ef ab 3d
       0.14750779 -0.070957065 -0.114090845 0.083953485
000260 98 23 b4 bc 78 c4 15 bd 9e a3 e9 bd c4 6e 19 bd
       -0.021989629 -0.03656432 -0.114081606 -0.03745915
000270 42 8a 83 bb bc da a2 bd 4a e0 48 ba a6 b7 88 bd
       -0.0040142843 -0.079518765 -0.0007662816 -0.06675653
000280 2c 6f 18 3e 36 f1 08 3e 98 fe 19 bd 8c c5 f5 3d
       0.14886159 0.13373265 -0.037596315 0.1200057
000290 1c b3 79 3d 83 26 9b 3c 56 42 16 3e ee 54 27 3e
       0.060961828 0.018939262 0.14673743 0.16340992
0002a0 75 87 9e 3c 1c 9a 88 3d aa 87 af 3d c4 6a 95 bd
       0.0193517 0.06670019 0.08570798 -0.072957546
0002b0 1f 98 36 3e 43 63 02 3e 1d 5c 39 3c 54 4e 34 3e
       0.17831467 0.12733178 0.011313465 0.17608005
0002c0 ae b0 ff 3d f7 96 80 bd b0 0e 24 bd 62 15 b9 3d
       0.12484871 -0.06278794 -0.04005307 0.090372816
0002d0 d7 90 15 3e 64 8b 35 3d 5c 08 1d bd 25 f4 cb 3c
       0.14606033 0.044322386 -0.03833805 0.02489669
0002e0 ab 3c 09 3d 98 fb ce bd 76 05 fa 3c 2c eb d0 bd
       0.033505123 -0.101065814 0.030520182 -0.102011055
0002f0 40 48 56 bd 60 22 32 3e e8 67 34 3e fc 13 5b bd
       -0.052314997 0.17395926 0.17617762 -0.053485855
000300 1d 08 93 bd b7 71 26 bc 7a 5c 23 3e 64 de 49 bd
       -0.07179282 -0.010158948 0.15953246 -0.049284354
000310 22 35 ef 3c 04 7b e8 3d 7a 54 86 3d 5a 96 58 3c
       0.02920014 0.11351588 0.065590814 0.01321944
000320 38 9b c0 3b 71 f0 7a 3d 85 d1 25 3e 00 60 f6 bd
       0.0058778785 0.06126446 0.16193207 -0.12030029
000330 00 a7 60 bd ba 5b 89 3d 50 76 57 bc 64 2d 09 bd
       -0.054846764 0.067069486 -0.0131507665 -0.033490553
000340 e0 8b a5 3c c2 41 e0 bd a4 0a d4 bd b2 1b 05 3e
       0.0202083 -0.10950042 -0.10353592 0.12998846
000350 38 2a d8 3d ee 67 b0 3d fe 88 de bd 5e 42 ac 3d
       0.105549276 0.08613573 -0.10865973 0.08411096
000360 2c 2e a1 3d ec c3 98 bd d8 b9 99 bd f0 ba c5 3c
       0.07870135 -0.07459244 -0.0750615 0.02413699
000370 28 34 37 bd 70 9a 19 3c d8 0d ce bc b0 11 87 3d
       -0.044727474 0.0093752 -0.025153086 0.065951705
000380 12 8a 13 bd 73 03 d8 3d 80 c6 b9 bc 40 76 d2 bc
       -0.036020346 0.10547533 -0.02267766 -0.025691152
000390 a1 2d aa bd d7 9a 41 3e 4e 7b 34 3e 30 74 84 3d
       -0.08309484 0.18906723 0.17625162 0.064674735
0003a0 44 31 31 3e a9 df c7 bd e8 de ce 3c 0e 08 9a 3d
       0.1730395 -0.09759457 0.025252774 0.075210676
0003b0 38 5a f0 3d 5f c9 4b 3d 37 97 d8 3b 5f 71 a6 3d
       0.11735958 0.04975259 0.006609823 0.081270926
0003c0 94 e4 6b bd 8f 16 de 3d de 51 87 3d 0c fe 27 bd
       -0.057591036 0.108441465 0.06607412 -0.041013762
0003d0 c7 bf 13 3c 14 bc ab 3d aa 81 d4 bd 13 cc a0 3d
       0.009017891 0.083854824 -0.10376294 0.07851424
0003e0 cc 87 6a bc 86 a5 f6 3d b8 87 36 bd e2 1f e2 3d
       -0.014314603 0.1204329 -0.044563025 0.110412374
0003f0 90 d2 55 3d 99 91 01 3e cb 10 0e 3c c0 75 a5 3b
       0.05220276 0.12653197 0.008670996 0.0050494373

mlp.2.bias f4 [32]
000000 90 8e a0 bd c6 02 24 3e 63 07 fd 3d fe e6 fd 3d
       -0.07839692 0.16016683 0.123549245 0.12397574
000010 08 19 82 bd 20 b6 55 bc e5 ed aa bd 8b 35 d8 bc
       -0.063524306 -0.01304391 -0.08346156 -0.026392719
000020 10 c0 a6 bd 27 f4 26 be 49 2f 77 3d 7c c0 69 bd
       -0.08142102 -0.16304074 0.06034783 -0.057068333
000030 dc 2c 0e 3c 32 83 41 be 22 af 12 be 62 46 4a 3e
       0.0086776875 -0.18897703 -0.1432462 0.19753411
000040 f0 8f 1e bd 20 52 7a 3d 01 34 17 be 87 fa 88 bc
       -0.03871149 0.061113477 -0.14765932 -0.016721023
000050 bb 0b 80 3d 86 06 12 3e 3b de b3 3d 06 b4 9e bd
       0.062522374 0.14260301 0.087826215 -0.077491805
000060 bf 01 ad bd 2e 49 93 bc 62 e6 a0 3d d8 67 9a b9
       -0.08447599 -0.01797923 0.07856442 -0.0002945054
000070 88 8b 8a bd d2 8f 0c 3c 1b 8f ec 3c d8 57 f2 3d
       -0.06764895 0.008579211 0.028876832 0.11833161

mlp.4.weight f4 [1, 32]
000000 63 4e 21 3e a1 35 14 3d 64 25 fb 3d b4 61 11 3e
       0.15752558 0.036183957 0.12262991 0.14197427
000010 b9 9e 71 bd 8e 24 e8 3d aa ca 87 bd 11 70 d2 bd
       -0.05898926 0.11335097 -0.06630452 -0.10275281
000020 92 41 d6 3d fb 23 53 37 3f 12 12 3d 10 0c 37 3c
       0.10461725 1.2584957e-05 0.035661932 0.0111723095
000030 9f 2d 8d 3d 52 2d 86 3d ab b4 9f 3c 59 8a 0a 3e
       0.06893467 0.06551613 0.019495329 0.13529338
000040 c4 82 ec bd f7 e6 14 3e 8a f8 9d bd 65 4b c2 3b
       -0.11548379 0.14541231 -0.07713421 0.005929398
000050 9c 09 3e 3e 09 00 e4 3c 95 22 45 3e 08 18 b1 bd
       0.18558353 0.027832048 0.19251473 -0.08647162
000060 f9 47 eb bd 1e 84 88 3d db 91 cd 3d e2 8a f6 3d
       -0.11488337 0.06665824 0.10037585 0.120382085
000070 2d 94 4e bd 11 26 50 3c 10 44 63 3d 1f cf 89 3d
       -0.05043428 0.012704388 0.05548483 0.06728958
