ncf_model.pth (torch, 20632 bytes, 7 tensors)

user_emb.weight f4 [4, 16]
000000 a3 a6 b3 be 2e 09 b9 bf 9c 41 10 3e 09 04 57 be
       -0.3508807 -1.4455926 0.14087528 -0.20997633
000010 7a b5 56 bf f8 3b 2d c0 09 d4 92 bf b1 22 fc be
       -0.8387066 -2.7067852 -1.1470958 -0.49245217
000020 2f 4f f4 be e8 90 69 3f bb 05 1e 3e ef a8 82 3c
       -0.47716662 0.91236734 0.15431874 0.015949694
000030 a6 ea 37 3e e8 a5 0d bf 59 9b d0 3f 09 1e 1f be
       0.17960605 -0.5533128 1.6297408 -0.15538801
000040 dc 8b 33 bf 3b 9e 89 3f 54 20 06 40 bc 9c 11 3f
       -0.70135283 1.0751413 2.0957232 0.5687978
000050 6a 8d 09 3f 14 5e dc be 48 f4 43 bf eb 31 ad be
       0.53731406 -0.43040526 -0.7654462 -0.33827147
000060 c0 d6 0c 3f b4 d5 a2 bf db 38 57 bf 05 8b 00 bd
       0.5501518 -1.2721467 -0.8407113 -0.03138258
000070 a2 06 de 3f 6a 0e ce be 62 e8 86 3f d6 f7 9a bf
       1.7345774 -0.40245372 1.0539668 -1.2106884
000080 72 44 c9 bf 68 a2 36 bf 02 ed c2 bd 11 dd ad bf
       -1.5724013 -0.7134156 -0.09517862 -1.3583089
000090 5d 9f 68 bf 17 e8 66 3f 22 7d f6 3f 46 a6 d3 bd
       -0.9086817 0.9019789 1.9256938 -0.103344485
0000a0 e6 56 ff be b4 a6 46 be 0c 9a 18 bf 7a f7 3c 3f
       -0.49870986 -0.1939953 -0.59610057 0.7381512
0000b0 b9 3a 00 c0 1a 87 51 3e 55 54 90 3e 9f b4 bf bf
       -2.0035841 0.20461693 0.2818934 -1.4976996
0000c0 6a f4 1e 40 ca 44 0b c0 f8 60 e6 3f 41 72 a4 bd
       2.4836679 -2.1760736 1.7998343 -0.08029605
0000d0 f9 79 d4 be fd d6 f4 be 16 b4 02 40 c3 32 ca bf
       -0.41499308 -0.47820273 2.0422416 -1.5796741
0000e0 eb e4 9e bf 86 30 5f be 74 74 12 be af 9b 26 3f
       -1.241361 -0.21795854 -0.14302236 0.65081304
0000f0 99 7c 23 3f 5f dc 1b bf 7c 39 89 bf 23 60 57 bf
       0.63861996 -0.60883135 -1.0720668 -0.8413107

event_emb.weight f4 [3, 16]
000000 2f b1 21 3f ae c0 83 3f 8b 73 a7 bf b5 a6 8a bf
       0.63160986 1.0293176 -1.3082136 -1.0832125
000010 5a 09 4d bf 55 ca 95 3c cb 5a bc be 62 5b 93 be
       -0.80092394 0.018284956 -0.3678802 -0.28780657
000020 dc 5f 6f 3f c3 2c 13 bf bd 15 8a bf 9a 4f 33 3d
       0.93505645 -0.57490176 -1.0787884 0.043777086
000030 ac 38 36 3e e8 e9 aa be 63 ed 35 3f 83 d8 24 3f
       0.17795056 -0.3338158 0.7106535 0.6439287
000040 4d 74 10 c0 5e d9 90 3f 56 03 b4 3f b9 96 5c bf
       -2.2570984 1.1316335 1.4063518 -0.86167485
000050 40 db 87 3d 3b 42 60 3e 1e e5 86 3f aa 74 ba be
       0.066336155 0.21900265 1.0538671 -0.36417133
000060 c5 4d 82 3f c2 ab c7 bd b3 23 96 bd 28 de 82 be
       1.0179983 -0.09749557 -0.07331028 -0.25560117
000070 98 0f 86 3e 57 1e eb be 25 56 cd bf 5a b7 ae be
       0.26183772 -0.45921585 -1.6041914 -0.3412426
000080 dc 25 2e 3e 3e c4 a1 bf 17 cb 21 3f ec ce 1c 3f
       0.1700663 -1.2638013 0.63200516 0.6125324
000090 42 7e 91 3e ab 8a c1 be 53 7f 07 c0 32 82 c0 be
       0.2841664 -0.37801108 -2.1171463 -0.3759933
0000a0 55 83 9f be 9a cf f2 3e 49 d2 87 3f aa 67 6b 3e
       -0.31154886 0.47424012 1.0611049 0.22988763
0000b0 44 e5 8a be 00 c4 51 bf 91 51 10 40 b1 e5 7b bf
       -0.2712804 -0.819397 2.2549784 -0.98397356

mlp.0.weight f4 [64, 32]
000000 0a 69 12 bd 3c 42 7a 3e 67 29 03 3e f6 c9 32 bd
       -0.035744704 0.24439329 0.12808762 -0.043649636
000010 3f 9a 2b 3e 3f 73 b1 3d aa e9 ce ba cc 78 ed 3d
       0.16758059 0.086645596 -0.001578619 0.11595306
000020 3c b1 5e 3e 6f 3e b7 ba 48 28 08 bc ee 69 16 bd
       0.21747297 -0.0013980399 -0.008310385 -0.036722116
000030 5f ac 31 3d c4 49 ce 3b 56 a3 f7 3d a4 fd 42 3e
       0.043377277 0.0062954146 0.12091701 0.19042069
000040 4a 39 98 bb 23 9b 48 bc 87 3b c8 bd ef a3 95 bd
       -0.0046455013 -0.012244019 -0.09776979 -0.073066585
000050 61 3f b9 bd 61 dd 98 bd 64 65 f9 bd 11 3d 81 3d
       -0.09045292 -0.074641 -0.12177542 0.063104756
000060 26 fc b1 3c 8d 08 ae 3c f9 6e ab bd 98 b6 49 3e
       0.021726679 0.021244312 -0.08370776 0.1969856
000070 59 eb 5b be 30 89 0f 3d 07 a9 bc 3d 42 ee 8b bc
       -0.21476497 0.03504294 0.09211927 -0.017081384
000080 0f 69 b5 3b 22 cb 2f 3e b2 6a 23 bb 97 e2 11 3e
       0.0055362056 0.17167333 -0.0024935422 0.14246593
000090 c2 da 1d 3d b3 7f 41 bd eb 90 d8 3d 84 3a 42 3e
       0.0385387 -0.047240924 0.10574516 0.18967634
0000a0 54 b9 a0 3d 69 32 16 3e 97 d6 18 3e e6 9b 54 be
       0.078478485 0.14667667 0.1492561 -0.20762596
0000b0 b0 69 e9 bd 98 b6 9b 3d 8f 12 6e be 55 30 21 3e
       -0.113971114 0.07603186 -0.23249267 0.15741093
0000c0 10 e8 d4 bd ec 42 66 3d b5 09 90 bd 89 7b bd 3d
       -0.10395825 0.056216165 -0.070331015 0.09252078
0000d0 ba 9a 6a 3d b7 b5 f1 bc e4 03 4c 3d 0c 94 b7 bc
       0.057276465 -0.029505594 0.049808398 -0.022409461
0000e0 71 80 af bd c9 ac bc ba 8f 7f 42 be ad dd 54 3e
       -0.0856942 -0.0014394756 -0.18993972 0.20787688
0000f0 f2 f7 a2 bc e9 08 5e 3e f0 4a e4 3d df dd 80 bd
       -0.01989362 0.21683086 0.11147106 -0.062923186
000100 7a 2b 65 be 19 3e 47 bc 05 3e 7a 3d 05 45 60 3e
       -0.22379866 -0.012160801 0.061094303 0.21901329
000110 88 f7 7d 3e a2 61 82 bb 86 0e 6c 3d d9 c5 0a 3d
       0.24801457 -0.003978924 0.057631038 0.03388009
000120 9e 84 70 3e 87 cd a5 bd 4f 70 9c bd 87 b7 cd bd
       0.2348809 -0.08095842 -0.07638609 -0.10044771
000130 30 c3 73 bd 93 1f 4c 3e 65 d7 e4 bd 44 4d 5e 3e
       -0.059512317 0.1993392 -0.11173896 0.21709162
000140 c2 f0 01 3e a0 d8 2e 3d 6e b6 86 bd 15 5c b7 3d
       0.12689498 0.04268706 -0.065777645 0.0895311
000150 52 e0 19 be 69 72 6c 3d 0c 44 98 3d a4 1f 84 3e
       -0.15026978 0.057726298 0.07434854 0.2580539
000160 a2 db 0a 3d 3c c2 fc 3d 37 8f bc bd 23 b4 90 bd
       0.033900864 0.12341735 -0.092070036 -0.07065608
000170 c4 18 51 bc fb 04 7f 3e 5d 11 83 3d fb 4c 4e 3e
       -0.012762252 0.24904244 0.06399796 0.20146553
000180 e8 c2 03 be 3b 3a 9f 3d 21 5f 51 be 1d 32 1b 3e
       -0.1286732 0.077747785 -0.20446445 0.15155835
000190 3d 02 58 3d 0d 63 15 bd 8c b7 21 3d f9 11 08 bd
       0.05273651 -0.036471415 0.039481685 -0.033220265
0001a0 7f b9 b1 3d 42 eb 12 3d fd e7 3b 3e 14 57 b4 3c
       0.08677959 0.03586889 0.18350215 0.022014178
0001b0 4f 01 fc 3d 76 24 c9 3d f9 6c 8e bd a9 14 2b bd
       0.12304937 0.098214075 -0.06954379 -0.04176775
0001c0 e2 e4 c7 3d d2 00 0b bc 11 73 3e bb 34 a9 bf 3d
       0.09760453 -0.008484082 -0.0029060284 0.09358445
0001d0 88 9c 1d bd c2 50 e6 bc 12 12 49 3c 43 82 81 3d
       -0.038479358 -0.02811468 0.012272375 0.063236736
0001e0 d1 42 e5 bd ac aa 28 be eb 0b 97 3c 5d 96 c8 3d
       -0.11194385 -0.16471356 0.0184383 0.097943045
0001f0 1d f3 5d be b0 2d 54 3e 01 0d 06 be 43 e5 41 bd
       -0.21674772 0.20720553 -0.13090898 -0.04733778
000200 8f cd 4a 3c e9 79 2f 3d 87 19 4d 3e 4b b8 34 3e
       0.012378111 0.042840872 0.20029269 0.17648427
000210 e7 15 75 3d 69 f8 28 3e 46 bf fe bd 09 f6 9a bd
       0.05983534 0.16501011 -0.12438826 -0.07566459
000220 70 da a8 3b d3 bb e3 3c 28 4a d4 bd f1 05 e7 3d
       0.005152993 0.027799523 -0.10365707 0.1128043
000230 b3 a2 58 bd 10 5d 1b 3d 0c c2 37 bd 02 7a f2 3d
       -0.052889537 0.03793055 -0.044862792 0.118396774
000240 22 78 0b be c3 3d 17 be 9d 5e a8 3c 39 ab b4 bc
       -0.13620046 -0.14769654 0.020552928 -0.022054302
000250 7b 82 90 3d 42 ae 9b bd 59 b1 20 be 40 7e 4c bd
       0.07056137 -0.076015964 -0.15692653 -0.04992509
000260 55 b8 43 be 57 75 a6 bd b6 de 2d 3e fc 87 73 3d
       -0.19113286 -0.081278495 0.16979489 0.059455857
000270 52 0d 1a be de a9 e8 bc 17 3f 52 3c 67 0a 06 3b
       -0.15044144 -0.028401311 0.012832425 0.0020452978
000280 ca 3b 31 be d8 00 6d bc c0 cf 19 be 43 d4 a0 3d
       -0.17307964 -0.014465533 -0.15020657 0.07852986
000290 43 3f fb 3d 28 e4 b9 3d 36 07 a1 bd 8d 70 19 3d
       0.122679256 0.090767205 -0.078627035 0.037460852
0002a0 b2 05 7a 3e 6a 17 2c 3b c9 df f7 bd b8 d6 a5 bd
       0.24416235 0.0026259073 -0.121032305 -0.08097595
0002b0 88 12 82 bb 08 e5 71 3e 94 27 31 bd 3c 3a 8f 3c
       -0.0039694943 0.23622525 -0.043250635 0.017483823
0002c0 89 85 b3 3d 06 b8 4c 3d 5c 85 43 be 3e 43 c4 bd
       0.08765704 0.049980186 -0.19093841 -0.09583138
0002d0 25 d2 72 bd 22 af 37 3e e5 5a 22 3e 50 26 8a 3e
       -0.05928244 0.17937902 0.15854986 0.26982355
0002e0 f3 c5 33 3c 9d 9e d6 bd 20 73 c7 3d 03 86 99 bd
       0.010972488 -0.10479472 0.09738755 -0.07496264
0002f0 2e 8f d6 bd 01 33 1b 3d 21 17 db 3d ec a9 b9 3d
       -0.10476528 0.037890438 0.10697771 0.09065613
000300 36 e7 d8 bd 6a d7 31 3e 33 35 a1 3d da c8 88 bd
       -0.10590975 0.1736733 0.07871475 -0.066789344
000310 6e 85 70 3d 76 96 39 3d b4 07 cd bd 61 f2 2f 3d
       0.058721 0.045309506 -0.10011235 0.04295576
000320 a5 57 dc 3d 8a 12 24 be 12 01 05 3e 2e 23 59 bd
       0.10758904 -0.16022697 0.1298869 -0.053012066
000330 22 e3 20 3e d2 f6 d9 bd 81 1c 0b be 45 24 29 3e
       0.15711644 -0.1064278 -0.13585092 0.16517742
000340 f0 54 38 3d d1 52 a7 3d c0 6f 56 be 22 54 21 be
       0.045002878 0.08170093 -0.20941067 -0.1575475
000350 b2 12 54 3d 2f 12 e1 3c 5b bb 8a 3c 13 b2 66 3e
       0.05177564 0.02747449 0.016935041 0.22528867
000360 8b 50 57 3d 8f a8 22 be ce e8 40 be a3 73 c8 bd
       0.052567046 -0.15884613 -0.18838808 -0.09787681
000370 8a 5f 1f 3d 71 52 b4 bb 51 0a bb bd c4 57 86 3e
       0.038909473 -0.005502992 -0.09132827 0.26238835
000380 a6 8b 85 be f3 03 d8 3d 2b fd 19 be 54 7b 22 be
       -0.26083106 0.10547628 -0.15037982 -0.15867358
000390 88 c6 59 bc 65 ed 8d 3d af 78 20 be fb 21 a1 bd
       -0.013291962 0.06930045 -0.15671037 -0.078678094
0003a0 74 ff b3 bd 0e 87 f7 bd 63 8d 77 be 42 3c b1 3d
       -0.08788958 -0.120863065 -0.24175029 0.086540714
0003b0 c7 1f cb 3d 86 67 d0 bb 05 0b 13 3c df c4 99 3d
       0.099181704 -0.006359997 0.008974795 0.07508253
0003c0 ee 58 68 3e 71 15 08 3e df c9 02 be d4 58 14 be
       0.22690174 0.13289429 -0.1277232 -0.1448701
0003d0 3f 4f f5 bd 0a 8a 4f be 83 c7 7d bd 0e 7f 82 bd
       -0.119780056 -0.20267501 -0.061957847 -0.0637189
0003e0 3d d0 c9 bc 5a c2 1c be 78 a2 fc bd 2e b9 8b bd
       -0.024635429 -0.15308514 -0.12335676 -0.068224296
0003f0 2c 03 e4 bd da 99 82 3d b9 1f 29 bd 1b aa 32 3d
       -0.111334175 0.06377001 -0.04129002 0.043619256

mlp.0.bias f4 [64]
000000 8a 36 4e 3d f3 eb ed bd f9 50 16 3d b2 ab 02 be
       0.05034498 -0.11617269 0.036698315 -0.12760809
000010 34 1e 89 3d 77 55 97 bd 06 2a 5b be 10 1c a6 bd
       0.06695214 -0.07389348 -0.2140275 -0.08110821
000020 a7 b9 00 be d5 c3 18 be a7 a1 dc bd ad 19 60 3d
       -0.12570821 -0.14918454 -0.1077302 0.054711986
000030 29 01 64 3d 16 43 75 3d 1f 2a 09 3e b6 ab 8e bc
       0.05566517 0.05987843 0.13394974 -0.017415863
000040 80 e6 00 3e a3 f7 ef 3d 82 0b 86 3d 6e dc 0e be
       0.12587929 0.11717155 0.06545164 -0.13951275
000050 f2 d2 d7 bd 15 31 57 be ba 7a 40 be 31 af cd bd
       -0.105382815 -0.21014817 -0.18796816 -0.10043181
000060 54 04 21 3e 6a 6e b8 bd 9d c9 4e bd d3 af be bd
       0.15724307 -0.09005435 -0.050485242 -0.093108796
000070 ab 3a 34 be 2a 58 4b be 65 8d 4d be 2c 2f b9 bd
       -0.17600505 -0.1985785 -0.20073469 -0.090422004
000080 54 0c 9d bc ca 15 3d 3e 0e f9 ed bd 3b 50 21 be
       -0.019170918 0.18465343 -0.11619769 -0.15753262
000090 3c 24 08 3c 74 0d c4 bd f3 ab 8b 3d 95 e6 2e bd
       0.00830942 -0.095728785 0.06819906 -0.04270037
0000a0 cc 97 80 bd f3 76 45 be 1e b8 0c be d1 fb 02 3b
       -0.06278953 -0.19283657 -0.1374211 0.001998652
0000b0 65 d3 e1 bd d6 5c d9 bd 41 40 93 bd 2b bd b5 3c
       -0.110266484 -0.1061341 -0.0718999 0.022184929
0000c0 23 ca 8e 3d e3 2d 73 be 42 5c ba 3d a8 6a a2 bd
       0.06972148 -0.23747973 0.09099628 -0.07930499
0000d0 7a 4e 34 3e 5f 78 c7 3c eb a1 00 bd 38 0e f0 3a
       0.17608061 0.02434939 -0.031404417 0.0018314784
0000e0 8f 2f 31 be 71 c7 64 be b7 dc 8f bb 47 74 2e bd
       -0.17303298 -0.22341706 -0.004390325 -0.04259136
0000f0 b7 d6 28 be 73 74 1a bc 2a ec ee 3d 6b 74 03 be
       -0.16488157 -0.009427178 0.116661385 -0.12837379

mlp.2.weight f4 [32, 64]
000000 a6 cb 01 be 2a bd c9 bd 0f b4 0e bc c5 59 09 be
       -0.12675342 -0.09850533 -0.0087099215 -0.1341315
000010 d5 34 3d 3e 87 a2 29 be 7e 3a 00 be c0 27 2c 3d
       0.18477185 -0.16565906 -0.12522313 0.042030096
000020 ba 4e e4 bd 47 5d 57 3d c3 6d 74 3d 70 4b ba bd
       -0.111478284 0.05257919 0.05967499 -0.0909642
000030 3a 13 32 3d e0 15 3e bd 2f 87 38 be 3b c2 80 bd
       0.043475367 -0.04640758 -0.18020318 -0.062870465
000040 14 65 aa bd 28 41 88 b9 55 e3 d1 bd 69 3d 6e 3d
       -0.0832006 -0.00025988487 -0.10248438 0.058164034
000050 5d ea fd bd 04 f0 80 bc e9 8b d0 3c a3 1b bb bd
       -0.12398217 -0.015739448 0.02545734 -0.09136131
000060 99 27 50 3b b4 98 6e bd 6f c2 bb bd 65 bf 04 be
       0.0031761883 -0.058251098 -0.09167945 -0.12963636
000070 02 20 84 bd 9f c9 47 bd c4 2d 1c bc d0 aa 2f be
       -0.064514175 -0.048776265 -0.009532396 -0.17155004
000080 3d 0e 72 bd ae ce aa bd 0b 22 4b 3c 15 55 eb bd
       -0.05909561 -0.08340202 0.012398253 -0.114908375
000090 c1 64 84 3d 65 64 03 3d 26 a2 c1 bd 6d 8b 25 3d
       0.0646453 0.032078166 -0.094547555 0.04041617
0000a0 fd 1d cb 3a 19 74 39 be 85 ed 2d bb 03 fb ac bd
       0.0015496608 -0.18110694 -0.0026539278 -0.08446314
0000b0 ec 42 4d bd 29 5c 02 bd 6c 66 0e be aa 67 c1 bd
       -0.05011265 -0.031826172 -0.13906258 -0.094436005
0000c0 c8 bf 11 bd 17 90 78 bd e0 d9 8a bd 7c 0d 8b bd
       -0.035583287 -0.06068429 -0.067798376 -0.06789681
0000d0 d6 d6 9a 3d 15 86 36 be 79 d0 95 bc 9a c2 52 bd
       0.07560508 -0.17824586 -0.018287884 -0.051455118
0000e0 e8 57 9b bd e6 cb 32 be 9a 8e 48 bd 5d b0 0f 3e
       -0.07585126 -0.17460594 -0.04896412 0.14032121
0000f0 50 1e 2f be 5e 93 0a be 8c ed 0e be e8 50 27 3d
       -0.17101407 -0.13532779 -0.13957804 0.040848643
000100 aa d7 86 3c 79 f2 45 bd 0b ca 1a 3e 7a 29 a7 3d
       0.016460259 -0.048326943 0.15116136 0.08162208
000110 92 69 d8 bc 26 f0 b2 3d 71 0a 8d 3d 29 e0 15 3d
       -0.026417527 0.08737211 0.06886757 0.03659073
000120 93 6d d5 bd e3 74 8c bc ff aa 9a 3c 61 5c 0c 3d
       -0.1042129 -0.01714558 0.018880365 0.034267787
000130 93 92 89 bc 35 35 c4 bd 10 d2 9a 3d 7e 2f 77 3d
       -0.016793525 -0.09580461 0.075595975 0.060348026
000140 2f 12 03 3d 1d 87 fa bd d3 76 a0 3d 6d be 27 3e
       0.031999763 -0.12232802 0.07835164 0.16381235
000150 99 8f 80 ba b0 30 53 3c 70 7d 93 3c 7d 2b 21 bd
       -0.000980842 0.012890026 0.01800415 -0.039348114
000160 16 43 41 3e 20 b2 53 bd ab 27 26 3e 17 31 48 bd
       0.18873248 -0.051683545 0.1622607 -0.04887494
000170 09 92 05 bd 5f f9 4d 3c c4 82 1d bd e8 c1 b4 bd
       -0.032609973 0.012571662 -0.038454786 -0.08826047
000180 4e a7 25 be 4b e3 bb 3d f0 bf 21 3e d5 3c 8a bb
       -0.16177103 0.09174212 0.15795875 -0.0042186775
000190 8b cc 81 bd 29 97 0a 3e df db 16 bd cf 76 a1 bd
       -0.063378416 0.13534226 -0.03683078 -0.07883989
0001a0 df e3 c4 bb 4e b8 89 3a 68 35 c0 bd d2 fc a1 3d
       -0.0060086097 0.0010507198 -0.093851864 0.0790955
0001b0 42 4f df 3d 74 0f db bb 17 7e 8e 3d a1 89 bd bb
       0.10903789 -0.0066851918 0.069576435 -0.005784229
0001c0 7e ee 07 3d 08 b2 5f bd 3e 54 2a bc 89 9b 64 bc
       0.03318643 -0.054613143 -0.010396061 -0.013953098
0001d0 9c 58 ec bd c0 c1 ad bd a2 05 00 3d 94 86 a9 3c
       -0.115403384 -0.084842205 0.031255372 0.020694055
0001e0 cf 6f 15 3e 1e b9 39 3e 66 5f 36 3e 75 13 15 be
       0.14593433 0.18137023 0.17809829 -0.14558204
0001f0 7a 04 36 3e f9 2a 65 3d af d2 f6 3d 31 23 24 3e
       0.17775145 0.055949185 0.120519035 0.1602905
000200 9a e0 21 3d 2e 41 bf 3d c7 eb 23 3d 64 16 31 be
       0.039520837 0.09338604 0.040019777 -0.17293698
000210 e0 76 d3 3c d4 dd 7c bd 33 87 74 3c 50 dc 45 3d
       0.02581352 -0.06173499 0.014924812 0.04830581
000220 4e c7 84 3d e0 46 f7 bd 95 a6 fa 3c 94 be 1d bd
       0.06483327 -0.12074065 0.03059701 -0.038511828
000230 09 41 04 be 2f 74 eb bd 4e 4c 25 be b6 34 e9 3d
       -0.12915434 -0.1149677 -0.16142389 0.11387007
000240 a0 78 83 3b 55 f5 55 bd a1 98 c0 bd e0 39 39 bd
       0.0040121824 -0.05223592 -0.09404112 -0.04522121
000250 fb 74 28 bd 78 23 f6 3d 7a 74 09 3c 99 12 37 bd
       -0.041127186 0.12018484 0.008389587 -0.04469547
000260 cc 53 58 bd 70 88 15 3d 92 2e cd bd c0 60 1d 3c
       -0.05281429 0.03650707 -0.10018648 0.0096055865
000270 7c fd 7b 3d 75 88 2d be 2d 5e 82 3d 9e ad 8b bd
       0.06152104 -0.16946585 0.06365619 -0.06820224
000280 30 f4 17 bc 90 d9 33 be 14 c3 25 be fb 76 07 be
       -0.009274527 -0.17563462 -0.16187698 -0.13228981
000290 bd f3 8a bd 16 a6 da 3d 20 ac 8c bb 82 7a 0a be
       -0.06784771 0.1067621 -0.00429298 -0.13523296
0002a0 5c d8 20 3d 2d ab 0e 3d 41 4c 03 bd e8 b4 35 bd
       0.039268836 0.034831215 -0.032055143 -0.04436198
0002b0 f6 50 db bd 4e 11 f8 3c c5 d8 ac bc 0f a3 39 bd
       -0.107088014 0.030281689 -0.021099458 -0.04532152
0002c0 48 34 22 be 00 c8 02 ba 77 15 b8 3c 48 ad a8 bd
       -0.15840256 -0.0004988909 0.022471173 -0.08236176
0002d0 68 18 12 be 80 0c 22 3d 21 b1 fe bd 90 88 92 3c
       -0.14267123 0.039562702 -0.124361284 0.017887384
0002e0 6c d2 05 bd f0 c5 c3 bd 18 e8 cc bd 68 37 3e 3d
       -0.032671377 -0.09559238 -0.10005206 0.04643956
0002f0 f2 16 3f bd 23 8b 0d be 98 ac 61 bd 7a c9 97 3c
       -0.04665274 -0.13822608 -0.05509624 0.018528689
000300 84 3f 5a 3d 38 22 e0 3c c0 36 08 bb 9e 2f 81 3d
       0.05328323 0.027360067 -0.0020784587 0.063079104
000310 c0 f9 a7 3b a6 00 c5 bd 80 10 64 bb 40 e9 b3 3d
       0.005126208 -0.09619264 -0.0034799874 0.08784723
000320 fc 1e c3 bd fb d1 ca bd 0b 31 84 bc 00 ee a3 3a
       -0.09527394 -0.09903332 -0.016136667 0.0012506843
000330 35 b5 b1 bc 74 0b 34 be 38 08 31 bd 6b ea d7 bd
       -0.021692852 -0.17582494 -0.04322073 -0.105427586
000340 80 e2 df ba 59 e7 f9 bd 40 ce 10 bb f9 64 34 bc
       -0.0017081052 -0.12202329 -0.002209559 -0.011010402
000350 81 2e 08 be 84 e6 65 3d 06 ce c8 bd 24 f7 b4 3d
       -0.1329899 0.05612804 -0.09804921 0.08836201
000360 42 12 a1 bd a8 00 ef 3c a0 02 e1 bc 40 b6 24 3b
       -0.078648105 0.029175118 -0.027467072 0.0025133044
000370 00 00 6b 3b b0 24 78 3d aa 4d 81 bd 3e 9e 8b 3d
       0.0035858154 0.060581863 -0.06313641 0.06817292
000380 f3 b3 14 be b0 77 0b bd 90 21 58 bc d4 d6 9c bd
       -0.1452177 -0.03404969 -0.013191596 -0.07658163
000390 a8 da a1 3b 00 b2 e6 bd c8 c1 72 bd 06 25 d1 bd
       0.004939396 -0.112644196 -0.059266835 -0.1021214
0003a0 38 9f 97 3d 26 e4 1b 3d 12 24 8e 3d 5c 2a f0 bd
       0.074034154 0.038059376 0.069404736 -0.117268294
0003b0 da 5e 3c bd 74 ed 39 bd e0 70 96 bd ba ff f2 bd
       -0.045988895 -0.04539247 -0.07345748 -0.11865182
0003c0 49 75 98 bd 0e e1 84 3d 7c 88 4b bb 20 dc 8b bc
       -0.07444245 0.06488238 -0.0031056693 -0.017072737
0003d0 bc 4c 3e bd 8a 8a ea 3c ca af 29 be a0 ee c1 3b
       -0.0464599 0.028630514 -0.16570964 0.005918339
0003e0 e1 8c 9d 3c ea e7 de 3d 96 a6 c7 bd c0 79 d4 bc
       0.019232215 0.10884078 -0.097485706 -0.025936961
0003f0 b0 1d 35 bd 82 de 1e be 89 84 f9 bd 90 1f 5e bc
       -0.044217765 -0.15514567 -0.12183482 -0.01355733

mlp.2.bias f4 [32]
000000 a3 d0 57 bd 53 af 89 3d 29 56 09 be 13 90 df bd
       -0.052689206 0.067228936 -0.13411774 -0.10916152
000010 cb 4a f6 bc 65 c9 5a bd bb 49 8d 3c dd 3d db 3d
       -0.030064961 -0.05341472 0.017247071 0.10705159
000020 5c b7 62 3c b1 5e ed bd 57 8c b4 3d 56 ec 14 be
       0.013837662 -0.115903266 0.0881583 -0.1454328
000030 79 80 3d bd 79 0c 23 be 96 e3 00 3e a0 2d 32 3c
       -0.0462651 -0.15922727 0.12586817 0.010875136
000040 d6 05 59 bd 52 6a 82 3d a8 24 a5 3b 51 69 9e bb
       -0.05298408 0.06367935 0.00503977 -0.004834332
000050 e7 f6 63 bd 59 06 1c be cf a6 35 be 80 a5 45 bc
       -0.055655386 -0.15236796 -0.17739414 -0.012063384
000060 f1 e2 dc 3d 34 60 91 bd 0e 37 36 3e 87 3e cf bd
       0.10785473 -0.070984274 0.17794439 -0.10119348
000070 7a 3b 1f 3d d0 80 f8 3c 4b d6 23 bd f3 9a cf 3d
       0.03887508 0.03033486 -0.039999288 0.10136976

mlp.4.weight f4 [1, 32]
000000 85 e3 6f bc 24 83 23 3d ea 98 3a bd 81 57 33 bd
       -0.014641647 0.039919987 -0.045555986 -0.043784622
000010 90 5c 0c be a4 31 82 3c 86 da 43 bd 15 93 8d 3d
       -0.13707185 0.015892811 -0.047815822 0.06912819
000020 20 09 fd 3b 21 88 04 3d a7 3a 4b 3d e1 42 47 3d
       0.007722035 0.032356385 0.049616482 0.048647765
000030 6e d4 00 3d 33 d4 de bc 89 2a d2 3d eb d7 10 bd
       0.03145259 -0.027200794 0.10262019 -0.035362165
000040 61 d9 91 bd c5 ab 26 3e c1 bb c5 3d 20 04 7b 3d
       -0.0712154 0.16276462 0.09654952 0.06128323
000050 3b 97 95 bc 4c 28 a2 bc ef 81 a4 bc 3a 48 4b 3c
       -0.018260589 -0.019794606 -0.020081488 0.012407357
000060 aa a1 f4 3d 96 3a 97 bd 78 28 43 3d 44 d2 61 3c
       0.119448975 -0.07384221 0.047646016 0.013783041
000070 c2 e9 0c bc 67 1a 82 3d 42 71 ef 3c 94 4b e2 3d
       -0.008600654 0.06352692 0.02922881 0.11049572
