ncf_model.pth (torch, 24850 bytes, 11 tensors)

P.weight f4 [7, 16]
00000000: e9be 2e3f f86a 113f 6586 943d 5570 e33f
00000010: 77ff 53bf 0e78 233f 2745 fd3f c8bc fc3f
00000020: f3d3 1abf 0156 9e3f 25c6 4f3f 0050 113f
00000030: ec45 923f c3d5 79be 7e89 dabe 2a1d 31bc
00000040: 24e2 1f40 dac0 33bf 8182 abbe db04 423f
00000050: 918d 783f f24d 48bd fffb b53f 2689 7fbf
00000060: d37b 89be 9c21 cd3f 2d1b 44bf 525c c4bf
00000070: d4f0 b9bf f111 1f3f db8a 02c0 1a82 3abe
00000080: 2b4b 05bf 4fef 85bf 4f95 4bbc 0533 183f
00000090: f7f4 393f 7fe3 0ec0 c81a 913f 075a d63f
000000a0: 1e57 e53f 35eb 3dbf e248 92bf bf75 87bf
000000b0: ba27 1bbd 0c05 aabf bf36 bdbe 42bf 54bf
000000c0: 8130 c03e 6f89 683e c71d ff3d d5c6 22bf
000000d0: 7b76 42bf a6a0 0fbf 9b5a f93f e1c4 8cbf
000000e0: dcaa cebd ea0c b4bf 84fe 1a3f 556f d83e
000000f0: df3c 63bf ca1c 06bd b584 34bf d39d 653f
00000100: a775 9dbe a115 163f 5ef1 e93f e727 a4bf
00000110: 9bb2 283f 105c 643e d983 f5be 874a 2fbe
00000120: 32c6 4c3e 0df3 833f ddad 4dbf 96a1 e63d
00000130: f1a1 833f ccc6 75be 2e7c c2be 57e4 b13f
00000140: 038e 04bf 344f 173f 525e 95bf 86b6 893f
00000150: ffcc 673e 465a 8cbd 75d7 0dc0 8633 593f
00000160: 3c1d 33be 29ab 643e 0dbf f9bf bd4a 2b3f
00000170: 603c 12c0 f9bb d33d d900 37bf 2a1d de3e
00000180: bbcc afbf 6cdb 903f 6766 f33c 3f7f 48bf
00000190: b730 903e b174 783e 5035 9abc a0b2 21bd
000001a0: 06eb 5dbf 269f 7f3f 6177 cd3e 652c c6be
000001b0: c5ef 84bb 4257 21bf 9d32 30bc addb 713d
0.68260056 0.56803846 0.07252196 1.7768656 -0.82811683 0.63855064 1.9786729 1.9745111
-0.6047966 1.2369996 0.8116172 0.56762695 1.1427588 -0.2439795 -0.42683023 -0.010810176
2.4981775 -0.70216143 -0.33498004 0.7578866 0.97091013 -0.04890246 1.4217528 -0.99818647
-0.26852283 1.6025882 -0.76603967 -1.5340674 -1.452662 0.6213675 -2.039725 -0.18213692
-0.5206782 -1.0463656 -0.012425735 0.5945285 0.7263941 -2.2326353 1.1336298 1.6746224
1.7917211 -0.7418702 -1.1428492 -1.0582808 -0.037879683 -1.328279 -0.3695583 -0.83104336
0.37537006 0.22708677 0.124568515 -0.63584644 -0.75962037 -0.56104505 1.9480776 -1.0997583
-0.100911826 -1.4066441 0.6054461 0.4227244 -0.88764757 -0.0327423 -0.70514995 0.89693946
-0.30753824 0.58626753 1.8276784 -1.2824677 0.6589753 0.22300744 -0.47952154 -0.17118274
0.1999748 1.0308548 -0.8034342 0.11261289 1.0283796 -0.24001616 -0.37985367 1.3897809
-0.5177919 0.5910523 -1.1669409 1.0758827 0.22636794 -0.06853156 -2.2162755 0.84844244
-0.17491621 0.22330917 -1.9511429 0.66910917 -2.284935 0.10338587 -0.7148567 0.43381625
-1.3734354 1.1316962 0.029711915 -0.7831916 0.28162166 0.24263264 -0.01882425 -0.03947699
-0.8668674 0.99852216 0.4013014 -0.38705745 -0.004056903 -0.6302377 -0.010754255 0.05904739

user_emb.weight f4 [7, 16]
00000000: f9fb e13f 66f6 603f 3d17 70bf ee30 e73d
00000010: fe91 a1bf 3d74 a3be eb96 e73f 2a20 693e
00000020: 0e90 ec3f dbf8 aebe b17c 3f3f 3cd8 c6be
00000030: 64df 68be d051 393f 4b40 84bf fa14 1840
00000040: 53af 04c0 f518 bf3e 77ba abbf fa31 fc3f
00000050: fb7e 05c0 8b10 f5bf 1146 e73c 6370 8abf
00000060: 8576 f7be f42f 0ebf 1320 9d3f 5e32 19bc
00000070: 9219 9d3f 8238 98bf 5e38 fdbe 3b67 c83f
00000080: f1d7 463f 9ff3 0fc0 c064 6abd fed7 833f
00000090: 8e3b 8ebf 936c 2cbe 1917 c5bf 0453 f8be
000000a0: 3e4a 88bf 3f7d 243f e3b6 e1bf 0d3b 9f3d
000000b0: 3c54 a93f 6fbe 6ebf 7933 8c3e 2f6b d4bf
000000c0: 6884 993e 1606 58bf c03d 22bf 2639 bc3c
000000d0: 810c 7dbf 8279 ff3e fd94 f93f 845b b63f
000000e0: 1909 f4bd 5f63 e93e 1b97 523f 9f2c 1140
000000f0: 6f2f 22be 63b7 a63f 63d9 80be db37 3040
00000100: 164a 9ebf b840 70bf e9b3 9dbf edc4 0240
00000110: 24c1 d6be 4216 a8be af37 21bf 2f41 2dbf
00000120: 0453 fcbe 503f 4cbf a9da aa3f 7600 d13e
00000130: fd43 6b3f 2946 2ebf 9a05 c8bf 974e be3e
00000140: 01b5 7abf 767c 98bf b053 033e 295c 8fbd
00000150: 66b2 07c0 ca18 0c3e 96c1 05bf f5cf c9be
00000160: 7ada 0a40 7ccc 98bf 2da5 573f 1e0f 00c0
00000170: 0c81 c0bf 2f7a 2abe 8d9f 81bf 776a 5bbe
00000180: fa0e f3bf b0e4 f4bf a1b0 0ebf d316 1ac0
00000190: 85c4 49c0 0303 d8bf 537f 873d 62ae aebf
000001a0: f68c e2be 16a6 b73e bc9c d2bd 8aef 6f3f
000001b0: d4b8 243e be6e 58bf 6b07 c93f 5b69 6b3d
1.7655021 0.87875974 -0.9378546 0.112886295 -1.2622678 -0.3192462 1.8092932 0.22766176
1.8481462 -0.34174237 0.7479964 -0.3883685 -0.22741467 0.7239046 -1.0332121 2.3762803
-2.073201 0.37323728 -1.341628 1.9702752 -2.0858753 -1.9145674 0.028231652 -1.0815548
-0.4833261 -0.5554192 1.2275413 -0.009350387 1.2273428 -1.1892245 -0.49457067 1.5656503
0.7767325 -2.2492445 -0.05722499 1.030029 -1.1111925 -0.16838293 -1.5397674 -0.48500836
-1.0647657 0.6425361 -1.7633938 0.07774935 1.3228831 -0.9325933 0.2738302 -1.659521
0.2998383 -0.84384286 -0.63375473 0.02297647 -0.98847204 0.4989739 1.9498593 1.4246678
-0.11915798 0.45583627 0.8226182 2.2683485 -0.15838407 1.3024715 -0.25165853 2.7534091
-1.2366359 -0.9384875 -1.2320529 2.0432694 -0.4194423 -0.3282948 -0.6297559 -0.6767759
-0.49282086 -0.7978411 1.334798 0.40820664 0.91900617 -0.68075806 -1.562671 0.37169334
-0.9793244 -1.1912982 0.12824893 -0.07 -2.1202636 0.13681331 -0.52248514 -0.3941647
2.1695848 -1.1937404 0.84236413 -2.0009227 -1.5039382 -0.16648172 -1.0126816 -0.21427332
-1.8988945 -1.913229 -0.55738264 -2.407643 -3.1526196 -1.6875919 0.06616082 -1.3646967
-0.4424817 0.358689 -0.10283801 0.9372488 0.16086131 -0.8454398 1.5705389 0.05747352

Q.weight f4 [4, 16]
00000000: 68b4 393e bac6 3a3f 0165 47bf a893 0540
00000010: 2e5d 0cc0 6015 23bf b9dc 033f be16 f03e
00000020: 3a59 bdbf 6c04 5ebf 6975 403f 86d2 203f
00000030: eed7 183f bb39 823b 99b7 38bf 67af 22be
00000040: 791a c2be bdcc 77bf d1e3 a43e b20f 92be
00000050: 7e4b 81bf 54c0 0740 9017 d1be b445 103f
00000060: ee1a 9ebe fe8f 4e3e d0ac 033f a03e 3abf
00000070: 5f06 11bf 64d0 ec3f d457 aabf 9615 bdbf
00000080: 03c3 da3e e210 b53f e215 c03f 78f6 4cbf
00000090: d236 3abf abe5 de3f b074 98bf 8abd ee3d
000000a0: e48a ebbe 3529 b6be 7288 debe eb59 d23e
000000b0: c747 993e 1726 1740 49b3 0bbf 0169 9bbf
000000c0: a0fe b7bc 326e 363f f57e 7c3d 7700 3bbf
000000d0: c76e b53e 47c6 833d 015c 213f 29ff 75bf
000000e0: 788a 5bbf 2446 ec3e 598c 0e40 d7fb 823f
000000f0: 46ff cabc 9c3b e83f 08da 2bbf ede0 863f
0.18135226 0.7295948 -0.77888495 2.0871372 -2.1931872 -0.6370449 0.5150867 0.4689235
-1.4792855 -0.867255 0.75179154 0.62821233 0.5970448 0.003974167 -0.7215515 -0.15887223
-0.37910822 -0.9679678 0.3220506 -0.285276 -1.0101163 2.1211138 -0.4083829 0.5635636
-0.3087992 0.20172116 0.51435566 -0.7275181 -0.56650347 1.8501096 -1.3308053 -1.4772213
0.42726907 1.4145777 1.5006678 -0.8006358 -0.727399 1.7413839 -1.191061 0.116572455
-0.46004403 -0.35578313 -0.43463475 0.41084227 0.29937574 2.3616998 -0.5457044 -1.214142
-0.022460282 0.71261895 0.061644513 -0.73047584 0.3543608 0.06434303 0.6303101 -0.9609247
-0.8575816 0.46147263 2.2273161 1.0233105 -0.024779927 1.8143191 -0.67129564 1.0537392

event_emb.weight f4 [4, 16]
00000000: ed6f fc3f add6 ca3e 4deb 893e a57b c5be
00000010: 9831 c53f 3396 593d 3a61 f9bf 607b a43f
00000020: da07 ea3d fb97 b83f bf32 b93f be21 c23d
00000030: 1c86 0cbf ad7a 1240 0748 f0be 4b44 353e
00000040: 730e db3e 4d51 0d3f abfc 0fbf a4d0 cbbe
00000050: 29c2 ae3f 34c6 553e 9c77 f43e 169c 84be
00000060: 612f fa3e ebb6 3abd b986 c7be 68da 68be
00000070: a9b3 aabc c2d4 0d3f d608 d8be 5306 0b3f
00000080: 5627 9f3f c243 ee3e 2021 fa3e 708c c43d
00000090: 6225 7cbf 230d 113f b7f0 893e 8323 5f3e
000000a0: f893 e4be 9143 91bf 6e4e f6be bb36 bcbf
000000b0: 3b63 d1bd e13e cd3f 6852 f23e b122 f3be
000000c0: eb21 0ac0 243d ca3e 5461 523f c02e 0c40
000000d0: 9fe0 f8be 8628 48bf ce79 dc3e a6a8 e63f
000000e0: 4ef5 793f f951 81bf d9fe 853f 8e0e 493f
000000f0: 7db7 6f3e 2567 7e3f d2a8 91be 934a 02bd
1.9721657 0.3961691 0.26937333 -0.38570896 1.540576 0.053121757 -1.9482796 1.2850151
0.11427279 1.4421381 1.4468611 0.09479092 -0.54892135 2.2887375 -0.46929953 0.17701833
0.4278446 0.5520218 -0.56244916 -0.39807618 1.3653003 0.2087639 0.47747505 -0.25900334
0.48864272 -0.0455846 -0.38969973 -0.22739565 -0.020837622 0.5540277 -0.4219424 0.54306525
1.2433879 0.4653607 0.48853397 0.09597099 -0.9849454 0.5666067 0.26941463 0.2179089
-0.4464414 -1.1348745 -0.48106712 -1.4704202 -0.10224005 1.6034814 0.47328496 -0.47487405
-2.1583202 0.39499772 0.8217976 2.1903534 -0.48608872 -0.78186834 0.4306168 1.8020217
0.9763993 -1.0103141 1.0468398 0.78537834 0.23409839 0.99376136 -0.28449112 -0.0318094

mlp.0.weight f4 [64, 32]
00000000: 7429 b23e e8dd 89bc e46f 38bd 6fb3 003e
00000010: 3082 13bd c4ca 073e 9421 b43d e7bc 033e
00000020: 8f4f babd 6c90 b93d ea3a e4bd 2250 00be
00000030: 990f dcbc d5b7 953d a3b6 0b3e e438 c73d
00000040: a6fb 4cbb d342 d0bc c119 2fbd e29b f23d
00000050: f3ca 243e 062b 18be 058c 553e 7c8b b8bd
00000060: 9c9b 0a3e ccd6 efbd e736 30be 95d5 143e
00000070: 9783 a23e 2c81 7cbe 46f4 193d ad9e d33c
00000080: 5ed6 8c3c 942a 49bd 2602 6e3d 1937 cb3d
00000090: 74ec 123d 5513 373e 5726 e1bd ff61 b2bd
000000a0: d2a1 863d 3a5e 123d bbfb e43b 8364 3f3d
000000b0: abab 443d 194e ed3d 84b0 f63d f6fd d6ba
000000c0: 7e8c e5bd e8a8 00be 2179 9fbe 6643 29be
000000d0: 8cbc 51bd 4476 babd d711 50be 068b 0ebd
000000e0: 248d 61be c581 393e 1c92 36be 2c3c 2f3e
000000f0: bbfc f93d f9e4 74be acd8 2b3e 3056 a2bd
00000100: 67b1 6e3e b6f0 2c3e 73e6 893e bbe7 233d
00000110: b0bb 863e dc49 cdbb 4112 5bbe 3880 d4bb
00000120: 5a4d 37be 7678 09bd 93dc 9bbe 47ef 3ebe
00000130: 37c7 0bbd 0ca7 90bd a37b 563d 2d6c 3dbe
00000140: d65d 873e 68e1 723d c039 14be 3c91 57be
00000150: 56f0 4ebd e024 86bc b3bd 1abe c49a dcbc
00000160: 8964 85bd 4b46 843e 0c9d 01be c9fe 94bd
00000170: fec6 46ba 2ee1 62bd 67b2 b8bd 858e db3c
00000180: 2dd3 923d 0378 bbbd 3d9b 1a3d 8bd0 04be
00000190: 1939 4d3e c8d0 5f3e 05f7 043c b6d4 abbd
000001a0: 3d4d cabb 9d21 f7bc 7932 1dbe 048e 453d
000001b0: 688e c13d 0484 223d 07f8 07be 1144 463d
000001c0: 8529 95bd 030c 4ebe 1e0b 4cbe 6178 843d
000001d0: 5568 09bd 3bbf b8bd 61d5 3cbe b8e7 5dbe
000001e0: e0e8 43bd 75f8 b63d 1c27 193c fcfc 21bd
000001f0: e41f c4bd c398 50bd 3327 143e 9105 8fbd
00000200: fcd6 653e 5e0b f3bd ccd0 c8bd 9d9b 35bc
00000210: dc97 453e a935 943e 6444 8c3d 5e4b a2bd
00000220: 2d6a 29bc 8c87 d5bd f0a5 243d 2044 89bd
00000230: ed02 03bc 5798 843e c3f1 87be 40f4 173b
00000240: 9b75 343b b47b 443d 7bd4 683c a6bd 243e
00000250: b4ce da3b 2f4e afbd dbf8 cb3c b62f c2bc
00000260: 7d9d 1b3e 6819 023e f970 cd3d 7bc3 063e
00000270: 7685 d33c cb71 efbc 69f7 113d 3708 5b3c
00000280: 9055 36bc b471 cdbd 111c de3d 9d68 333e
00000290: 35d8 fabd 2b75 033e 897f 86be 8fad 99bd
000002a0: 5144 70be 3d6e 3e3e c424 bdbd 14ef 1c3e
000002b0: f921 9c3d 4a68 7cbd fa04 003d 7e1e f3bd
000002c0: 613f 2c3e 7f32 a13d 067e b53c 2cb1 64bd
000002d0: 9dfd d83d 7f3e 063e a245 48be 3d5c 8cbe
000002e0: d931 24bd f0d6 6a3e dd5d 05bd 9411 29be
000002f0: 1be4 343d 9026 e33d 641b 2dbe ca17 b53c
00000300: f293 3fbd e998 92bd a8b6 b13c a21b 233e
00000310: 0d3f 4bbd 0ea1 443d d328 2f3d 2d71 113e
00000320: 841f 05be 7027 80be ae14 c03c e1cf c7bd
00000330: 769d 0ebe f15d 3cbd 2582 78be 965f c23d
00000340: 3604 89bd 3460 5e3c 0b60 26be 9803 8cbe
00000350: ee59 733d 5d57 353e bdc8 93bd ee2c 91be
00000360: 2d2a 84be 118f 863d e0f9 033d 780b dcbd
00000370: c603 8a3c b71f d5bd bd16 cc3d d993 463d
00000380: 60db 54be 7c09 4dbe 6fbc b8bb 8689 033e
00000390: 59d4 b53d e597 e83d c15d 12be e040 f93d
000003a0: 9216 c3bc dbbb 3fbe 8f25 c43d 6b88 31ba
000003b0: 9204 143e 4629 d4bd 3cdc c93c f390 6bbd
000003c0: de79 413e 5e0d 403d 963d cbbd ee55 84be
000003d0: ea30 f0bb 2a6b 7c3e 060c ac3c a8b3 013d
000003e0: 55ea 02be 50ed 1f3e eea5 ec3d b8a2 d33b
000003f0: bde6 1bbd 22eb 993e eaaf 2cbe 8d1e 9bbd
0.3479725 -0.016829446 -0.045028582 0.12568448 -0.03601283 0.13260943 0.08795467 0.1286503
-0.09097206 0.090607494 -0.111440495 -0.12530568 -0.026862906 0.07310454 0.13643889 0.09727648
-0.0031277924 -0.02542249 -0.04274917 0.118461385 0.16093044 -0.14860162 0.20854194 -0.090109795
0.13535923 -0.11710891 -0.17208444 0.145346 0.3174102 -0.2465865 0.037586473 0.025832498
0.017192062 -0.04911287 0.058107518 0.099226184 0.03587003 0.17878468 -0.10993641 -0.087100975
0.065738335 0.035734393 0.0069880164 0.046726715 0.048015278 0.115871616 0.120453864 -0.001640259
-0.112084374 -0.12564433 -0.31147102 -0.16529617 -0.051205203 -0.09104589 -0.20319305 -0.03480055
-0.22026497 0.1811591 -0.17829174 0.17112797 0.12206408 -0.23915471 0.16781873 -0.07926595
0.23309861 0.16888699 0.2693363 0.040015917 0.2631507 -0.0062649082 -0.21393682 -0.0064850114
-0.17900601 -0.033562146 -0.30441722 -0.18645965 -0.034125533 -0.07063112 0.052364003 -0.18498297
0.2643878 0.059296995 -0.14475155 -0.21051496 -0.05052217 -0.016375005 -0.15111427 -0.026929267
-0.06513316 0.2583488 -0.12657565 -0.07275159 -0.0007582753 -0.05539053 -0.090184025 0.026801357
0.07169185 -0.0915375 0.037745703 -0.12970178 0.20041312 0.21856987 0.008115535 -0.08390181
-0.0061737583 -0.030167395 -0.15351285 0.04823114 0.0945099 0.03967668 -0.13278209 0.048404757
-0.0728331 -0.2012177 -0.19926116 0.06468273 -0.033546764 -0.09020849 -0.18440773 -0.21670425
-0.04782951 0.08934108 0.009347703 -0.039547905 -0.09576395 -0.050926935 0.14468078 -0.069834836
0.22445291 -0.118674025 -0.0980545 -0.011084464 0.19296211 0.2894719 0.06848982 -0.079245314
-0.010340256 -0.10426244 0.040197313 -0.06702447 -0.007996303 0.25897476 -0.26551637 0.0023186356
0.0027535919 0.047969535 0.014210816 0.1608797 0.006677473 -0.08559834 0.024898937 -0.023704391
0.15196796 0.12705004 0.100313134 0.13160507 0.025820475 -0.029229065 0.03563634 0.013368658
-0.011128798 -0.10031453 0.10845197 0.17520376 -0.122482695 0.12837665 -0.26269177 -0.07503807
-0.2346356 0.1859674 -0.09235528 0.15325576 0.07623667 -0.061622895 0.031254746 -0.1187105
0.16821052 0.078709595 0.02215482 -0.055833027 0.10595248 0.13109778 -0.19557813 -0.27414122
-0.0400866 0.22933555 -0.032560218 -0.16510612 0.04416285 0.110913396 -0.1690498 0.02210607
-0.04677195 -0.071580715 0.021693543 0.1592851 -0.049620677 0.048005156 0.042763542 0.1420333
-0.13000304 -0.25030088 0.02344736 -0.09756447 -0.13927254 -0.045988027 -0.24268396 0.09490888
-0.06690256 0.013572741 -0.16247575 -0.27346492 0.059411936 0.17709108 -0.07216022 -0.2835459
-0.25813428 0.065702565 0.03222072 -0.10744375 0.016847502 -0.1040644 0.099652745 0.048480842
-0.2078681 -0.20023149 -0.0056376974 0.1284543 0.08878393 0.113570966 -0.14293577 0.12170577
-0.023814473 -0.18724005 0.09577476 -0.0006772342 0.14454868 -0.10359435 0.024641149 -0.05751128
0.18894145 0.046887748 -0.09923856 -0.2584681 -0.0073300498 0.24650255 0.021001827 0.031665474
-0.12784703 0.15617871 0.11555086 0.0064586066 -0.038061846 0.30062205 -0.16863981 -0.075741865

mlp.0.bias f4 [64]
00000000: 10e8 27bd 971f 28be 666e 98bd 428f 2fbd
00000010: e19c f0bd 95cc 2ebe fb2b 10bd 04e0 cd3d
00000020: 3de7 31be 934f 9bbd 7c25 acbd 76f2 283d
00000030: 36af 47be 3209 b23b 3743 2f3c f07b 3abe
00000040: 948a 97bd d030 d5bd 8bfd 1cbe 35a1 b53d
00000050: 0378 04bc 1f39 87be 564b 9abb be82 b53c
00000060: 5353 85bd dac0 c33d 8903 18be 9a31 f3bc
00000070: 4054 c93d 3713 333d 490e cd3c 1869 00bd
00000080: 92fa 663e 02cc 033e 7221 21be 1707 983d
00000090: a414 29be 4a6d 94be ceff f3bc 854d 24be
000000a0: 0529 8c3c 9e86 babd 809c 57be f90c f53d
000000b0: 2080 cabd 5fbb c33c 32aa 923d 1cda 513e
000000c0: 4a39 c23d 2ad4 d8bd e4b0 ce3c 3d0f b7bd
000000d0: 85dc 313e 9fa6 73be 7101 49be d8ae 913d
000000e0: 7c6b 1a3e 457e 2cbe ab28 32be f63f e3bc
000000f0: 5868 8bbd c3f0 523e 62e5 56be 0218 dd3c
-0.040992796 -0.164183 -0.07442932 -0.04286123 -0.11748672 -0.1707023 -0.035198193 0.10052493
-0.17373367 -0.07583537 -0.08405587 0.041246854 -0.19500431 0.005433225 0.010697178 -0.18211341
-0.073994786 -0.10409701 -0.15331094 0.088686384 -0.008085254 -0.26410767 -0.004708688 0.02215707
-0.065100335 0.09558268 -0.14845099 -0.029686738 0.098305225 0.043719497 0.025031226 -0.031350225
0.22556522 0.12870792 -0.15735415 0.07423227 -0.1651178 -0.2898963 -0.029785063 -0.16045196
0.017109403 -0.091077074 -0.21055794 0.11965365 -0.09887719 0.023893056 0.071613684 0.20493358
0.09483583 -0.10587342 0.025230832 -0.08938453 0.17369278 -0.2379403 -0.19629456 0.07113427
0.15080065 -0.16845043 -0.17398326 -0.02774046 -0.06807011 0.20599656 -0.2098594 0.026988987

mlp.2.weight f4 [32, 64]
00000000: fc9e 733d 671c 95bd 6a25 a23c 6028 543c
00000010: 6d3a 603c 77ba 48bd 48f0 b33d 0037 01bc
00000020: 8c53 b53d e9f0 c0bd 5031 b83c aacd 003e
00000030: ac6d 25b9 d799 2fbe a653 a93d 18b9 2d3e
00000040: a8c1 923d 6f96 143e fdac 53bd 61a7 173e
00000050: f085 87bc d186 f5bd 091e 863d 7fe0 243e
00000060: 4bda 483e 2fe2 1c3e 6619 ffbd 366f ed3d
00000070: 58f6 2bbe 0e19 083d 7aaa 843c 715b d53d
00000080: 0471 4bbe ae52 0abc 01c7 64bb 77ee 80bd
00000090: cd75 823d 68a6 393d e492 6cbd f351 2ebe
000000a0: 62ce 603d b4e1 c93d 9267 6cbd 607a 31be
000000b0: bd6b 363d e023 d33d 1499 2e3b 9185 4cbe
000000c0: 9ff9 033e 0193 743d 2aa6 60bd 4792 99bd
000000d0: 6603 74bd c02e b13d bdde 89bd 323b 2cbd
000000e0: e533 1a3e c738 1cbd a40d c73d de47 43bc
000000f0: c9b7 38bd 90c5 17be 1aae 5d3d 2630 103e
00000100: fe9d 69be 5e46 8fbd 82ff 853e a1cc f0bd
00000110: d5d3 c6bd 1db1 493e 0adf 003e c97b 423c
00000120: b830 203e 111a 6cbc 93ce 1d3e c423 753d
00000130: 662e 373e 8b5a f03d 47d2 333d cb4f cebd
00000140: 1e2c 80bd 16de 0dbe 4d25 c53d b458 883e
00000150: 4fee 113e d7ce aa3d e968 3f3d 38a4 05bd
00000160: 8db2 1dbe 5502 c3bd a996 acbd 9f4f e73d
00000170: 7245 1fbd 21d8 233e 071a 07bd 4d90 75bd
00000180: e183 0c3e 9bf8 333d 0640 3b3e a5e5 f73c
00000190: 329c 88bd b26f 5ebd 691c 08bd 606d cdbc
000001a0: ea6a 2abd 788f 233d c5e9 a33d b412 12bb
000001b0: 3c43 753d 6472 2c3e 296b 83bd 5b8c a83d
000001c0: 3837 2f3d 8da3 0dbe 771b a23d e190 0b3e
000001d0: 856f cd3d 5581 a7b9 a1ee 82be 4500 5c3e
000001e0: e640 813d a6d5 8b3d c1cc d8bc e918 253d
000001f0: 0d4f e43d ea83 cd3c 1956 04be dd6a 91bd
00000200: d6b3 eabd 6fb3 8a3d f64e 3d3e 9e0e e93c
00000210: 38ad c0bb 06f3 7abd bc03 473d f0ec 6cbd
00000220: 37bd a53c 2351 f83d 7412 263e 4dfe 583e
00000230: 48fe bb3d 697f 0a3e 17c1 e43d 9074 d5bd
00000240: 59f5 483d 2b70 6fbc 7861 8a3d ac36 6f3e
00000250: 1892 d43d 167f 6d3d 279e e43c 2461 2dbe
00000260: 187d f63c a8ce 13be cac5 eb3c bb4a c23b
00000270: 35bf 313e 3a86 903d 5a83 36bd e3bb 8bbd
00000280: 6272 093e 9eb0 443d 3486 4bbd f940 1f3e
00000290: a49c ec3d 224a 123d b0e0 74bd 51bb bc3d
000002a0: a1d7 713d 57aa 84bd 8f32 debd d21d 0e3e
000002b0: 43ee 523d a8c2 313e 827e 253e 6b92 0f3d
000002c0: ee0e 813c b189 0fbe 4004 c03d c69e f5bb
000002d0: ab7d 213e 3442 f73d a887 0dbe ab9c 533e
000002e0: 3ac2 3c3c d080 eebc 6a4e 6d3c 9504 833e
000002f0: 4689 82bd 7f28 293e 7d2d 9fbb 54f8 8abd
00000300: 38bc 193e f676 65bd 7e44 52be 7eea a4bb
00000310: bbb9 2c3e 9534 ab3d 4e3a b23d 7027 18bd
00000320: 0195 ee3d 86c5 07be df43 b93c 8905 013e
00000330: d745 b0bd 6b56 95bd 0627 1c3d b344 173d
00000340: 80ad 11be 770f cb3d cc80 dfbd 7d75 c7bd
00000350: 32df ad3c 1271 92bd ad56 203e 092d 173e
00000360: dc5f f13d 3c16 363e 5504 41bd 189f 193e
00000370: f2cd 3b3c 940b 49b9 0a1e ddbd 8fa5 f8bd
00000380: 8ef8 3fbe 529d 51bc 0162 2bbd 6a1e 0e3e
00000390: 82b1 a53d d942 813c d02c 91bd 3bc8 eabc
000003a0: 4885 f33d 27ed 8c3c 14e2 a43d 7aaa 32be
000003b0: a642 cc3d d60f c73d 0c31 10be 0224 44be
000003c0: 48be f73d 858b 043e 226b 2fbe d3e7 e3bc
000003d0: a989 86bb c381 4bbd fc59 553e f965 0cbd
000003e0: a956 493e 4d1c b9bc 3bc9 8dbd c7e4 cd3d
000003f0: 892d 88bc 0789 1a3e 96f6 113e b124 b53d
0.05947779 -0.07280808 0.019793231 0.012949079 0.013685805 -0.04900595 0.087860644 -0.007886648
0.08853826 -0.0942095 0.022484452 0.12578455 -0.00015776482 -0.17148529 0.08267908 0.16965139
0.07165843 0.14510511 -0.051678646 0.14809944 -0.016543359 -0.11988605 0.065486975 0.16101263
0.19614522 0.15320657 -0.12456016 0.115934774 -0.16793191 0.03322702 0.01619457 0.10417832
-0.19867331 -0.008442564 -0.0034908655 -0.062954836 0.06370125 0.045324713 -0.057757273 -0.17023449
0.054884322 0.098575026 -0.05771596 -0.17331839 0.04453634 0.10309577 0.0026641535 -0.19972827
0.12888192 0.059710506 -0.054845966 -0.07498603 -0.059573554 0.08651495 -0.06731937 -0.04204864
0.15058859 -0.038140085 0.097193986 -0.01191899 -0.045097146 -0.14821458 0.054121114 0.14080867
-0.22814175 -0.06995843 0.261715 -0.1175778 -0.097083725 0.1969647 0.12585083 0.011870333
0.15643585 -0.014410512 0.15410833 0.059848562 0.17888793 0.1173602 0.043901708 -0.10073813
-0.06258415 -0.1385425 0.09626255 0.26630175 0.14251064 0.08340233 0.04673091 -0.032627314
-0.15400143 -0.09521929 -0.08427174 0.112944834 -0.038884588 0.16000415 -0.032983806 -0.05995207
0.13722183 0.04393826 0.18286142 0.03026087 -0.06670417 -0.05430574 -0.03323022 -0.025076568
-0.041605867 0.039931744 0.080035724 -0.002228898 0.059878573 0.16840512 -0.064169236 0.08229896
0.04277727 -0.13831921 0.07915395 0.13629486 0.10031036 -0.00031949082 -0.25572684 0.21484478
0.063112065 0.068278596 -0.026464822 0.04030696 0.1114789 0.025087316 -0.12923469 -0.07100461
-0.11460082 0.067725055 0.18487152 0.028449353 -0.0058800243 -0.06126692 0.048587546 -0.05784315
0.020231826 0.121248506 0.16217977 0.21190758 0.0917936 0.13525166 0.111696415 -0.10422623
0.049062107 -0.014614145 0.06756872 0.233607 0.10379428 0.057982527 0.027907444 -0.16931587
0.030088946 -0.14434302 0.028780837 0.0059293187 0.17358096 0.07056852 -0.04455886 -0.06822946
0.1342254 0.048019998 -0.049688533 0.15552129 0.11553314 0.03571523 -0.05978459 0.09215415
0.05904353 -0.06477802 -0.10849487 0.13878563 0.051496755 0.17359412 0.1616154 0.035051744
0.01575419 -0.14017369 0.093758106 -0.007495734 0.15770595 0.12073174 -0.1382128 0.20665233
0.011520917 -0.029114157 0.014484027 0.25589433 -0.06373839 0.16519354 -0.0048577175 -0.06785646
0.15013206 -0.056021653 -0.2053394 -0.0050328365 0.16867726 0.083596386 0.08702527 -0.037146986
0.11649514 -0.13258943 0.022615371 0.12599768 -0.08607071 -0.072918735 0.038123153 0.03693075
-0.14226341 0.09915059 -0.10913238 -0.09739206 0.021224592 -0.07150473 0.15658064 0.14763273
0.11785862 0.17781919 -0.047123272 0.15002096 0.011462675 -0.00019173167 -0.10796745 -0.12140953
-0.1874716 -0.012793856 -0.04184151 0.1387879 0.080904976 0.015778946 -0.070886254 -0.02865993
0.11890656 0.017202927 0.080509335 -0.17447844 0.0997365 0.09719817 -0.1408121 -0.19154361
0.1209684 0.12943847 -0.17130712 -0.027820503 -0.004105766 -0.049684297 0.20835108 -0.034276936
0.19661964 -0.022596503 -0.06923147 0.100534014 -0.016623275 0.15091334 0.14254221 0.08844889

mlp.2.bias f4 [32]
00000000: b6a8 b8bd 3590 3b3e 815a 1f3e 0523 b53b
00000010: ef8a 433d f8de e1bd 29d1 b43d 30a3 853d
00000020: c2c3 283e 437f 3dbe 1c14 1d3e ac4f 003e
00000030: fa18 423e 3ca8 213e 3528 783c 8a05 7a3d
00000040: fc5f e63d fcf9 e13d a04f c0bd b13b 203e
00000050: 84df 323e fd43 523d fb04 743a 88d7 28bd
00000060: b44d 80bd 31da 913d 131b 1f3e 1d1b b13d
00000070: 03b7 2a3d 54ff 263c ec01 abbc ec62 8ebb
-0.09016554 0.1831673 0.15561868 0.0055278563 0.04773992 -0.11028856 0.08828957 0.06525266
0.16480926 -0.18505578 0.15339702 0.12530392 0.1895484 0.15786833 0.015146305 0.06104044
0.11248776 0.11034009 -0.09390187 0.1564777 0.17468077 0.05133437 0.00093086035 -0.04122117
-0.06264821 0.07121695 0.15537672 0.086477496 0.04167844 0.010192711 -0.02087494 -0.0043452885

mlp.4.weight f4 [16, 32]
00000000: 7011 aabd 06dd a73d db44 4ebe 1c00 1e3d
00000010: da1b 1d3b 6e4b 5a3e 17c3 5c3d fb27 84be
00000020: 5723 4c3e 8deb df3d 26dd 06bc 1581 323d
00000030: f55a fa3c e818 c53c 6e10 443e 0265 953d
00000040: dc1a 2f3e 063d c5bd 70fa 9dbd bcb9 0f3e
00000050: c7e3 23be 320b 1bbe 12cb 04bc 03ff 063e
00000060: 67e4 183e 95ae a23d e8a8 4d3d 5a5b 0fbe
00000070: bee5 693e bdab acbd f151 333d 2b45 22be
00000080: 035e 49be 7787 003e b3d2 ee3d a98b 56be
00000090: 218b 33bd 7857 e4bc aeff cb3c eed8 103e
000000a0: 2230 6fbe 81fb a63d b5f3 69bc 7b2e e33d
000000b0: 2b37 60be 5947 173d 27f3 3dbd ce7c f9bd
000000c0: 83d1 16bd a60e 263e 498d 273d e97f fa3c
000000d0: 0a6d 17be e555 63bd 7a44 933d a3c7 77bd
000000e0: bf16 be3c 6b94 e7bd 586c be3d a968 ee3d
000000f0: a2d7 ebbd 1298 63be 0868 9a3d 4820 323e
00000100: 8b64 88bc efed cbbd bcff 8d3d e7d7 f73a
00000110: 434a a3bd 80cc 533d 3851 323e 7d92 893b
00000120: c6f8 72bd d3da e8ba e6ae 52be 74d2 46bc
00000130: 38c9 8e3c 6ec4 33be 0773 79be 1799 f8bc
00000140: 7e8c 093d 4a23 233e 768f ac3c d4ab 38be
00000150: 57a5 90bd 9afa 3e3e 2233 0bbe 6f85 74be
00000160: 6780 213d 6aa5 ec3c 9eed 0b3e 3798 ffbd
00000170: 26db 3ebe 5470 c9bd 7bb6 b23e e9c8 b2bc
00000180: d1c8 0dbc e8f0 c03d 58a8 9a3d 43ec 34be
00000190: e7bc c1bd 6070 febd 9b69 883e 6a21 1f3d
000001a0: 3139 cebd b61c 773d 3b3a 2cbe 360f 39bd
000001b0: 15c5 25be 060b 62be b80f a1bd 1bdd f63d
000001c0: 7d90 a7bd 7106 8f3d 72d8 4abe e524 1cbe
000001d0: 5277 e4bd 889b acbc dac1 89bc bc5b c73d
000001e0: 7c77 ec3d df2c 3b3c 1fa7 9bbd 588f 17be
000001f0: 4502 e6bc c297 92bd 8fee a4bd e45f 12be
00000200: c97e cb3d 17a6 59be a15a 39be 4dad 0f3c
00000210: 3e17 bb3d ca60 183d 4265 59be 4438 36bb
00000220: d9e7 383e cc2d 383e 99df 523e bbe5 28be
00000230: 7f62 20bd 2e39 3e3e 2c9b 223e 1303 e73a
00000240: bcd4 3b3e e686 7cbe 65f4 173e 5c22 4b3c
00000250: cd92 d13d a49d 26be 0eac 46be 53fa 813e
00000260: 7515 7a3d de79 2a3d ea8b 1ebe 734b 80bd
00000270: 56f7 263e 8a17 5d3e 79fb 68bd eca5 acbd
00000280: 69e5 c0bd 586e 11bd cc33 973d e18a 28bd
00000290: 2f1b f0bd ff46 da3d 07bd 8fbd dc09 4ebe
000002a0: 0fd2 a3bd 8190 d83d fa1f a3bd f2a2 3ebe
000002b0: 400f a83d 1b39 c13d 9346 dbbd 6220 8fbd
000002c0: 0256 103e 3c03 0c3d 5e5e 03bd 7196 683e
000002d0: 9041 babd 29e3 97bd 68f2 083e 945c ad3d
000002e0: f9e2 e43d 07c4 583e c492 2b3e 5308 ddbd
000002f0: a066 d73d 83b6 8bbc 9bfc abbc 5b4d c3bd
00000300: 84fc ecbc e3a7 1d3d e49d f33c 784b 683d
00000310: 066b 5c3e 4abd 7f3d b259 743d c46d 693d
00000320: f790 b3bd 3f89 1abe e274 40be 8823 a43d
00000330: 67a1 03bd 0732 80be 4648 13be 8308 9c3c
00000340: add4 4bbd 2e9d e53c 81a6 32be 54ef 21be
00000350: b7a4 bfbc 439f 11be 492c b1bb b501 02be
00000360: 532c c9bd 688a 403d 14ff 23bd 2cb9 c1bd
00000370: 7679 09be e4d5 29be 2a63 633d a783 84bd
00000380: 05e6 c73d 16d9 4fbe 273b 6dbd 2edc 423d
00000390: ce57 07be d4c7 413e 828d 22bd 2d69 193d
000003a0: 0c66 4a3b 78b8 8839 abbc bc3d c211 c6bd
000003b0: 7b58 863e b8cf 5dbd b687 da3d 7157 813b
000003c0: d132 cdbd 3f87 96bd 2eb3 003e 8721 c73d
000003d0: f528 663d fdf8 14be 70a2 14be fcaa 7f3e
000003e0: d5d6 04be 37f2 d6bd 9d00 a93d 696d 123e
000003f0: 3bfd d1bd 70df 943d fcf0 633d 5615 11be
-0.08304107 0.08196454 -0.20143454 0.038574323 0.00239729 0.21317837 0.05389699 -0.25811753
0.19935356 0.109335996 -0.008231437 0.043580133 0.03056095 0.024059728 0.19146892 0.07294656
0.1710009 -0.0963078 -0.07713783 0.14035696 -0.16004859 -0.1514099 -0.008105056 0.13183217
0.14930879 0.07943455 0.05020991 -0.13999692 0.22841546 -0.08431194 0.043779317 -0.15846698
-0.19664769 0.12551676 0.116612814 -0.20951714 -0.043833856 -0.02787374 0.024902191 0.14145252
-0.23358205 0.08153439 -0.014279296 0.1109285 -0.21896045 0.036933277 -0.046374466 -0.12182008
-0.0368209 0.16216525 0.040906224 0.03057857 -0.14787689 -0.055501837 0.07190795 -0.060493123
0.023204206 -0.11307605 0.09298009 0.11641056 -0.11515738 -0.22225979 0.07539374 0.17395127
-0.016649505 -0.099574916 0.06933543 0.0018908948 -0.07973149 0.0517087 0.17413795 0.004198371
-0.05931928 -0.001776541 -0.20574531 -0.012135137 0.017429933 -0.175554 -0.24360286 -0.030346436
0.03358125 0.1593143 0.021064501 -0.18034297 -0.07062786 0.18650284 -0.13593724 -0.23879026
0.039429095 0.02888747 0.13664863 -0.124802046 -0.18638286 -0.09835878 0.34904847 -0.021824317
-0.008653835 0.09420949 0.0755164 -0.17668252 -0.094598584 -0.124237776 0.2664307 0.038850226
-0.10069502 0.060330115 -0.16819088 -0.045180522 -0.16188462 -0.22074518 -0.07864326 0.12053891
-0.08181856 0.069836505 -0.1980913 -0.15248449 -0.11155571 -0.021070257 -0.016816068 0.09734294
0.11546227 0.011424272 -0.07600235 -0.14800775 -0.028077254 -0.07157852 -0.08053314 -0.14294392
0.09936292 -0.21254764 -0.18100978 0.0087693455 0.091352925 0.03720168 -0.21230033 -0.0027804533
0.18057193 0.1798622 0.20593108 -0.16493885 -0.039156433 0.185765 0.15879506 0.0017624818
0.1834287 -0.24660835 0.14839323 0.012398329 0.10233078 -0.16271073 -0.19401571 0.25386295
0.06105562 0.041620128 -0.1548306 -0.06264391 0.16305289 0.2159101 -0.056880448 -0.084300846
-0.094187565 -0.035505623 0.07382926 -0.04114807 -0.11723935 0.10658073 -0.07018476 -0.20120949
-0.0799905 0.10574437 -0.079650834 -0.18616846 0.08206034 0.0943472 -0.1070682 -0.069885984
0.1409531 0.034182772 -0.032072417 0.22713639 -0.09094536 -0.07416374 0.1337372 0.084649235
0.11176104 0.21168528 0.16755205 -0.10792603 0.10517621 -0.017054802 -0.020994475 -0.09536239
-0.028929003 0.038490187 0.029738374 0.056712598 0.21525201 0.06243638 0.059655853 0.056989446
-0.08767884 -0.15091418 -0.18794587 0.080145895 -0.032136347 -0.25038168 -0.14383039 0.019047027
-0.04976337 0.02802905 -0.17446329 -0.15813953 -0.023393972 -0.1422091 -0.0054068905 -0.12695964
-0.09822907 0.047006994 -0.040038183 -0.09459147 -0.1342524 -0.16585499 0.055514492 -0.06470423
0.097606696 -0.20297655 -0.05791774 0.04757326 -0.13217089 0.18923885 -0.039685734 0.03745382
0.0030883579 0.0002607738 0.09215673 -0.09671356 0.2623938 -0.054153174 0.10670416 0.0039471914
-0.10019458 -0.07350015 0.12568352 0.09723192 0.056191403 -0.14548106 -0.1451509 0.24967569
-0.12972577 -0.104954176 0.0825207 0.14299549 -0.10253378 0.0726918 0.055649742 -0.14168295

mlp.4.bias f4 [16]
00000000: 72c6 e0bb 97b3 cfbd e037 eebd b69f 413c
00000010: 534e 93bd 1374 26be d09e 823d c68a 993b
00000020: cd2a 7dbd 0097 283b 87a6 e83d 54f5 433e
00000030: fcac b4bc 4c03 b23d c19a e73d 4a3c ec3d
-0.006859594 -0.10141676 -0.11631751 0.011817863 -0.071926735 -0.16255216 0.06377947 0.0046857325
-0.061808396 0.0025724769 0.113598876 0.19136554 -0.022055142 0.08692035 0.11308814 0.11534937

prediction_layer.weight f4 [1, 32]
00000000: 4e15 eebd 07c3 163e a5fb cd3d 2625 b7bc
00000010: 0846 ecbc bec4 84bd 1e01 ef3c 5cfe dbbc
00000020: f781 1e3d c57a 8fbe de45 a8bd 6a3a 7a3e
00000030: e3a9 1abb 5160 8bbd 1f96 d03d 7689 90be
00000040: 308e 153d 320d 3abd bd98 573d 7df7 98bd
00000050: 37c1 353e 536e 833a 7c44 28bd 5af4 053d
00000060: f3c3 1f3e 74ca 05bd b07d 31be c168 1dbd
00000070: d861 f13d fc44 babd 8761 4ebe 4a0f 043e
-0.11625157 0.14722835 0.10057763 -0.022356581 -0.028841987 -0.06482838 0.029175337 -0.026854686
0.038698163 -0.28023353 -0.08216451 0.24436346 -0.0023599796 -0.0680548 0.10184883 -0.28229874
0.036512554 -0.04542274 0.052635897 -0.0746908 0.17749487 0.0010027386 -0.041080937 0.032703735
0.15602092 -0.032663777 -0.17333102 -0.03842998 0.1178624 -0.09095189 -0.20154391 0.12896457
